main/Finale_Modified/Debugging/wandb/dryrun-20201021_151703-3itydtsp/checkpoint_best.pth (torch_old, 765216 bytes, 99 tensors)

recurrent_blocks.0.weight_ih_l0 f4 [128, 3]
0.046166345 0.04388924 -0.06278351 0.111770585 -0.08196884 -0.19389798 0.07532208 0.11854349
0.014078612 0.064571515 -0.11617663 -0.059764728 -0.04080768 -0.16094565 0.14279245 -0.1462549
0.0090179145 0.05969292 -0.1332036 -0.034372404 -0.090781316 -0.16011779 0.16227858 -0.024317747
-0.13003373 -0.08282285 0.11710915 0.04951924 -0.16568786 0.13630466 0.032106757 -0.08509775
-0.15964302 0.05362895 -0.12912363 0.031403504 -0.15606268 0.13019143 0.06732483 0.16118716
-0.052088127 -0.11803167 0.04441701 0.032336727 -0.15600361 -0.03442721 0.057297647 -0.17514992
-0.09354103 0.10867141 -0.10606203 -0.16717252 -0.069215305 -0.0035059045 -0.16295339 -0.022149503
-0.1828147 0.06135705 -0.032362834 -0.08376445 -0.0056648105 0.092598215 0.09964266 0.09946816
0.1532992 -0.009833074 0.087129906 0.10941635 0.19811688 -0.11450477 -0.14665674 0.00909945
-0.13537738 0.13119315 -0.08167629 0.032674953 -0.00050774217 -0.09965607 0.102400705 0.12857349
-0.099030755 -0.044812262 -0.018606722 -0.025494965 0.1740327 0.15961145 -0.039774023 -0.017288178
0.0965627 -0.20366144 0.01863183 -0.10475441 0.021285838 -0.07521478 -0.115538105 -0.13269785
0.1512885 -0.15627235 -0.14120923 0.11345102 -0.12432119 -0.14910819 -0.13785246 0.14538087
-0.15131852 -0.094744004 -0.031190991 -0.05387136 -0.15177326 0.02860926 0.15974829 0.12692426
0.07757579 -0.08496019 -0.17228532 -0.017710492 -0.08562444 -0.040753037 -0.15386352 -0.001359521
0.1491478 0.05955586 -0.12438852 0.032089427 0.029985517 -0.1305621 -0.1708853 -0.042554468
0.0028591217 0.027929604 -0.16320428 -0.102256484 -0.1461533 0.08364318 0.031573307 0.032654643
0.017132372 0.06578096 -0.0063291937 -0.08836818 -0.044926215 0.13730697 -0.00986664 0.016835343
-0.02237603 -0.14042445 -0.07594617 -0.09420233 -0.12595142 0.08444096 -0.06385629 0.054337174
0.016158154 -0.058827393 0.07805942 -0.059991587 -0.075240806 -0.0496241 -0.102301195 0.10969059
0.11577599 -0.005873886 -0.11824851 0.03734152 0.014491926 0.04282427 0.16618265 -0.05646458
-0.08612679 -0.17561272 0.06195358 0.035272554 -0.099691875 -0.07519032 0.04555899 -0.137209
0.07907085 -0.0671637 0.03474143 -0.11423619 0.15303056 0.06997989 -0.13446043 0.1611119
0.032180175 -0.15085554 -0.14337112 0.07199146 0.0654642 -0.16719943 0.14169692 0.055337448
0.022899032 0.046009064 -0.063804425 0.12538584 0.11778413 0.102452874 0.03378831 0.09016137
0.07176754 -0.12732464 0.16543762 0.110793464 -0.11841062 -0.14889455 -0.08185582 -0.018143907
-0.05831124 -0.08088546 0.123420194 -0.026563093 0.14819671 -0.033695713 -0.14331372 -0.08545825
-0.041974425 0.054382294 0.06254319 -0.02165988 0.145979 -0.009939907 -0.07530129 0.14425196
0.13813013 0.09922437 -0.15889947 -0.194985 -0.06693598 -0.13171735 -0.05334115 0.16798739
-0.050421342 0.095684126 -0.039862514 0.066105604 0.09287104 -0.15125279 -0.10722198 -0.16768202
0.1344368 -0.05030349 0.04184413 -0.06171462 -0.13037165 0.047746297 0.082148686 -0.07312461
-0.0012943947 -0.09740645 -0.0049292594 -0.07130633 0.16574518 0.06874587 -0.06192136 0.11140601
00000000: ec18 3d3d 34c5 333d a494 80bd fae7 e43d
00000010: 47df a7bd 318d 46be 7642 9a3d eec6 f23d
00000020: fba9 663c 123e 843d 03ee edbd dccb 74bd
00000030: f425 27bd f0ce 24be 2f38 123e d8c3 15be
00000040: e0bf 133c 9080 743d 8666 08be 14ca 0cbd
00000050: 8eeb b9bd ebf5 23be 5b2c 263e 0336 c7bc
00000060: 9027 05be 079f a9bd ecd6 ef3d b0d4 4a3d
00000070: 14aa 29be 7393 0b3e 6082 033d bb47 aebd
00000080: 7679 23be 08aa 5b3d fc38 04be f6a0 003d
00000090: e5ce 1fbe e750 053e 9ae1 893d 3f0e 253e
000000a0: 5c5a 55bd 97ba f1bd 9cee 353d 8473 043d
000000b0: 69bf 1fbe 8c03 0dbd f0b0 6a3d 805a 33be
000000c0: 7192 bfbd 1e8f de3d 0d37 d9bd 462f 2bbe
000000d0: c1c0 8dbd 51c3 65bb 41dd 26be e072 b5bc
000000e0: c733 3bbe 8851 7b3d e48e 04bd b28c abbd
000000f0: e09f b9bb 22a4 bd3d 7311 cc3d f6b5 cb3d
00000100: 77fa 1c3e e71a 21bc 2a71 b23d ae15 e03d
00000110: 27df 4a3e 7a81 eabd 2f2d 16be dc15 153c
00000120: 5ea0 0abe 7f57 063e e645 a7bd 2cd6 053d
00000130: 001a 05ba 7b18 ccbd 76b7 d13d c5a8 033e
00000140: a3d0 cabd 108d 37bd 206d 98bc d1da d0bc
00000150: a135 323e 2f71 233e 16ea 22bd f09f 8dbc
00000160: aac2 c53d a08c 50be c8a1 983c 7b89 d6bd
00000170: a35f ae3c 350a 9abd 3e9f ecbd f2e1 07be
00000180: 5feb 1a3e dc05 20be 2799 10be 0259 e83d
00000190: 1c9c febd d1af 18be 3229 0dbe b9de 143e
000001a0: 3ef3 1abe 2509 c2bd 4084 ffbc 37a8 5cbd
000001b0: 736a 1bbe f85d ea3c 0e95 233e 6ff8 013e
000001c0: 0ee0 9e3d 9cff adbd 906b 30be 9815 91bc
000001d0: de5b afbd a8ec 26bd 668e 1dbe f431 b2ba
000001e0: 33ba 183e d8f0 733d 69bf febd 3470 033d
000001f0: 30a4 f53c 12b2 05be 8efc 2ebe 984d 2ebd
00000200: 1a60 3b3b a0cc e43c 061f 27be d96b d1bd
00000210: 36a9 15be 1e4d ab3d 0353 013d e0c0 053d
00000220: 3059 8c3c 2bb8 863d 2065 cfbb 60fa b4bd
00000230: 8d04 38bd 339a 0c3e b0a7 21bc 46ea 893c
00000240: f04d b7bc 6dcb 0fbe aa89 9bbd 27ed c0bd
00000250: 69f9 00be 62ef ac3d 16c7 82bd a890 5e3d
00000260: 1b5e 843c fef4 70bd 9edd 9f3d bdb9 75bd
00000270: da17 9abd a442 4bbd 4a83 d1bd 76a5 e03d
00000280: f61b ed3d ba79 c0bb 462c f2bd 6cf3 183d
00000290: 8b6f 6d3c 8068 2f3d c92b 2a3e 6747 67bd
000002a0: 3e63 b0bd d2d3 33be 09c3 7d3d f479 103d
000002b0: 412b ccbd 62fd 99bd 109c 3a3d 8480 0cbe
000002c0: e6ef a13d 1f8d 89bd 084d 0e3d aaf4 e9bd
000002d0: 0bb4 1c3e 9e51 8f3d ffaf 09be 85fa 243e
000002e0: 5ccf 033d e079 1abe e1cf 12be 4270 933d
000002f0: 1812 863d 5436 2bbe ff18 113e 85a9 623d
00000300: c096 bb3c 0074 3c3d e5ab 82bd 2565 003e
00000310: ce38 f13d d0d2 d13d 9c65 0a3d 86a6 b83d
00000320: dcfa 923d 6461 02be 7b68 293e afe7 e23d
00000330: 4481 f2bd d077 18be 06a4 a7bd 88a2 94bc
00000340: c4d7 6ebd 47a7 a5bd bac3 fc3d d89a d9bc
00000350: e1c0 173e 8404 0abd d5c0 12be bc04 afbd
00000360: 60ed 2bbd f8bf 5e3d a516 803d 1070 b1bc
00000370: 857b 153e feda 22bc 9037 9abd c9b6 133e
00000380: fc71 0d3e 2636 cb3d 8bb6 22be 26aa 47be
00000390: bb15 89bd eae0 06be 407c 5abd e304 2c3e
000003a0: 9c86 4ebd 0af6 c33d e046 23bd 6062 873d
000003b0: 2c33 be3d 03e2 1abe 3397 dbbd d6b4 2bbe
000003c0: cda9 093e 080b 4ebd c064 2b3d 78c8 7cbd
000003d0: 2580 05be 9f91 433d 923d a83d 5bc2 95bd
000003e0: aea8 a9ba 087d c7bd a085 a1bb 0e09 92bd
000003f0: 1bb9 293e a2ca 8c3d 41a1 7dbd d628 e43d

recurrent_blocks.0.weight_hh_l0 f4 [128, 32]
0.058293253 -0.19450186 -0.008714729 -0.1674646 -0.13825993 -0.033618897 0.105275765 -0.14923166
-0.18619566 0.032695774 -0.012659016 0.15348193 0.06424142 -0.053704694 0.1683783 0.07963271
0.15693553 0.118331745 0.09290774 -0.18145967 -0.08895498 0.07552996 0.016171008 -0.14249913
-0.036075156 0.011775814 -0.12250246 0.033657476 -0.16511849 -0.12152024 0.0069205076 -0.005587021
-0.07451259 -0.017333422 -0.14054999 0.14149643 0.13533802 -0.12319266 -0.06600023 0.07709224
0.03422395 -0.1391451 -0.11522252 0.038137764 -0.033943888 -0.17524749 -0.1040087 0.06568757
0.05302553 -0.07888383 -0.14374807 -0.09773912 -0.147751 -0.14098355 -0.040858876 -0.017850218
-0.09216691 -0.047271457 0.0026912552 0.009645406 0.17504919 -0.12041701 0.05616249 -0.11543841
0.03951176 0.17203192 -0.03984009 0.16234265 0.18567048 0.110439144 0.072555214 0.16991678
0.10532085 0.18670505 -0.0809946 -0.13650554 -0.1300983 0.045155205 0.10520127 -0.05396987
0.055468123 -0.10294717 -0.106497996 0.13472934 -0.015590154 0.025056893 -0.082797125 0.064048566
-0.0070910854 -0.19487263 0.06275004 -0.17037775 -0.12623805 -0.019904405 0.20226403 0.025279438
-0.030031567 0.054360818 0.21228746 0.16345935 -0.035088737 -0.007357246 -0.015441684 0.17383476
-0.020777369 -0.109688185 -0.06125869 0.1591407 -0.05287209 0.11238647 -0.12074131 0.04530109
-0.12241121 -0.21399678 -0.11171506 0.056198955 -0.021489562 0.08857109 -0.051309794 0.011842512
-0.10152199 0.080208056 0.07162098 -0.08940737 0.1545489 -0.12879317 0.039804872 0.0706693
-0.06505671 0.06668204 -0.014896246 0.025132569 0.07583784 -0.10835453 -0.007517863 -0.09868951
0.004932828 0.16300908 -0.03138735 0.13723421 0.1463985 0.06272272 -0.067790516 -0.14027883
0.08432271 -0.15079142 0.07269799 0.16858917 -0.004614615 0.10973981 0.1818589 -0.06472541
-0.013998655 0.11773051 0.0009630419 -0.080136456 0.045199115 -0.015715742 0.058294054 -0.0415822
0.14520408 -0.032533232 -0.15613082 -0.036497343 0.14742178 -0.07339527 -0.009255604 -0.12131518
0.04841854 0.055033255 0.15956876 -0.057111926 -0.07697883 -0.1553404 0.1103855 -0.043144774
-0.05969952 0.072125904 0.12749413 -0.06869717 -0.12709847 0.07612369 0.067003556 -0.17183661
-0.13821667 -0.036534064 0.06303456 0.032399315 0.020523561 0.020106122 0.048171103 0.0055071726
-0.038192537 -0.053405225 0.044073403 0.0018403145 -0.041593406 0.15427913 0.10355817 0.13096344
0.038299907 0.14415774 -0.13138501 0.07907156 0.09134185 0.08095285 -0.021764731 -0.030328691
0.13418609 -0.009753949 0.10580491 0.051608574 -0.1220429 0.055944633 0.13203478 -0.06683886
0.15828775 -0.14230122 -0.09683674 -0.10238486 0.099152796 0.07523797 -0.12089728 -0.16452958
-0.053155392 0.18379617 -0.049061406 -0.013192955 0.02620243 0.13649477 -0.15958928 -0.056338917
0.07690526 -0.11229748 0.008457805 -0.044297364 0.14501628 -0.04238093 -0.011913853 -0.083610795
-0.11440841 -0.0016945383 -0.09981989 0.060008407 0.03235129 -0.12397231 -0.04697344 0.12883323
0.14883763 -0.017345201 -0.07373413 -0.0732343 0.08253518 0.13397826 0.12619205 -0.025755217
00000000: e8c4 6e3d 7f2b 47be 39c8 0ebc d77b 2bbe
00000010: 0394 0dbe f8b3 09bd d29a d73d 2fd0 18be
00000020: 13aa 3ebe 01ec 053d c367 4fbc 5e2a 1d3e
00000030: 0191 833d 74f9 5bbd 5c6b 2c3e 7916 a33d
00000040: b5b3 203e ea57 f23d 6a46 be3d 90d0 39be
00000050: 072e b6bd 74af 9a3d 1079 843c 4beb 11be
00000060: 8bc3 13bd 58ef 403c 92e2 fabd 6cdc 093d
00000070: d214 29be 9bdf f8bd 6dc5 e23b 5413 b7bb
00000080: 0f9a 98bd d2fe 8dbc 56ec 0fbe 71e4 103e
00000090: 0d96 0a3e 6f4c fcbd 212b 87bd 89e2 9d3d
000000a0: 6a2e 0c3d 0e7c 0ebe c9f9 ebbd 5836 1c3d
000000b0: bf08 0bbd 1474 33be 8302 d5bd 3487 863d
000000c0: 4c31 593d d88d a1bd b232 13be 732b c8bd
000000d0: 0a4c 17be fe5d 10be a35b 27bd 9f3a 92bc
000000e0: 01c2 bcbd b79f 41bd c55f 303b c407 1e3c
000000f0: 1840 333e 319d f6bd a40a 663d f96a ecbd
00000100: 15d7 213d 2329 303e 5d2f 23bd 273d 263e
00000110: 6720 3e3e eb2d e23d d497 943d aafe 2d3e
00000120: 75b2 d73d 9c2f 3f3e 7fe0 a5bd 1cc8 0bbe
00000130: 7d38 05be aaf4 383d c373 d73d 830f 5dbd
00000140: 8b32 633d f7d5 d2bd 9f1b dabd 7df6 093e
00000150: d86d 7fbc 1d44 cd3c 8a91 a9bd e52b 833d
00000160: 565c e8bb b18c 47be 1883 803d 8177 2ebe
00000170: 8c44 01be 900e a3bc 4d1e 4f3e d316 cf3c
00000180: c304 f6bc 73a9 5e3d e261 593e e361 273e
00000190: 35b9 0fbd 0d15 f1bb 1eff 7cbc bd01 323e
000001a0: 4d35 aabc 33a4 e0bd 64ea 7abd c8f5 223e
000001b0: 6890 58bd e12a e63d 3847 f7bd a38d 393d
000001c0: bab2 fabd f921 5bbe deca e4bd e030 663d
000001d0: e10a b0bc c264 b53d 382a 52bd 1807 423c
000001e0: c3ea cfbd 1f44 a43d 05ae 923d 361b b7bd
000001f0: 1142 1e3e 5be2 03be 6f0a 233d 11bb 903d
00000200: 743c 85bd 9890 883d 620f 74bc d1e2 cd3c
00000210: df50 9b3d fbe8 ddbd 6858 f6bb ba1d cabd
00000220: 8fa3 a13b daeb 263e 0690 00bd 2087 0c3e
00000230: 7de9 153e c574 803d c1d5 8abd 41a5 0fbe
00000240: 63b1 ac3d 1169 1abe afe2 943d a4a2 2c3e
00000250: 3236 97bb 44bf e03d 3839 3a3e c18e 84bd
00000260: 9d5a 65bc b21c f13d a674 7c3a 951e a4bd
00000270: b522 393d 4dbe 80bc bfc5 6e3d 1952 2abd
00000280: 61b0 143e 9141 05bd c2e0 1fbe 3d7e 15bd
00000290: bcf5 163e 4250 96bd d1a4 17bc 1874 f8bd
000002a0: 8552 463d 8d6a 613d fe65 233e 32ee 69bd
000002b0: 14a7 9dbd 8e11 1fbe cb11 e23d 93b8 30bd
000002c0: 7c87 74bd bfb6 933d d28d 023e 1ab1 8cbd
000002d0: 1a26 02be bde6 9b3d 2939 893d f0f5 2fbe
000002e0: ac88 0dbe bea4 15bd 4318 813d 25b5 043d
000002f0: 0721 a83c 98b5 a43c 104f 453d 8375 b43b
00000300: c76f 1cbd 70bf 5abd 5086 343d b536 f13a
00000310: d95d 2abd 59fb 1d3e 4e16 d43d 481b 063e
00000320: 5de0 1c3d 169e 133e cb89 06be 45f0 a13d
00000330: 7011 bb3d 9cca a53d f34b b2bc e073 f8bc
00000340: 1468 093e 07cf 1fbc 3fb0 d83d 8363 533d
00000350: a1f1 f9bd 3326 653d 2034 073e d0e2 88bd
00000360: 2f16 223e 69b7 11be 5752 c6bd 27af d1bd
00000370: 9f10 cb3d 5d16 9a3d fe98 f7bd 717a 28be
00000380: 78b9 59bd 1035 3c3e 9df4 48bd 4427 58bc
00000390: 7aa6 d63c 49c5 0b3e 5f6b 23be a3c3 66bd
000003a0: 8180 9d3d 39fc e5bd 9b92 0a3c 2771 35bd
000003b0: 267f 143e a097 2dbd 5232 43bc 233c abbd
000003c0: f54e eabd 451b deba 5f6e ccbd 60cb 753d
000003d0: c982 043d 32e5 fdbd 3967 40bd dcec 033e
000003e0: e468 183e 8617 8ebc eb01 97bd ddfb 95bd
000003f0: 3408 a93d 9931 093e 7d38 013e 9bfc d2bc

recurrent_blocks.0.bias_ih_l0 f4 [128]
0.06993569 0.07437015 0.021628963 -0.053375233 -0.06690637 -0.18848106 0.018780302 0.04180221
0.02388094 -0.008455099 -0.047245268 0.077407666 -0.02024027 0.110408455 -0.03480498 0.07582319
-0.017933918 -0.038556878 0.20854045 -0.035267923 0.1034354 0.17145948 -0.0521714 0.12740757
0.19835834 -0.03275749 -0.14618383 -0.016425261 0.0400554 0.09687519 0.026209604 -0.0023090343
0.14376159 -0.016832216 0.18386011 -0.06313544 0.15448003 0.10551758 0.1826709 -0.014708468
-0.021155668 -0.11630896 -0.15298086 0.1379156 -0.14012174 0.20508651 0.03421965 -0.13014437
0.052609116 0.094158664 0.02520438 0.16737828 0.041277763 -0.012551634 -0.027633376 0.016385058
0.03514729 -0.119658634 -0.06806222 0.20464107 0.1354018 -0.04050261 -0.018782329 0.068507604
-0.03866818 0.13432114 0.17726515 0.07950593 -0.10604028 0.04285659 0.04272262 0.09612791
0.21506388 -0.09874118 -0.17848286 -0.023604814 -0.0725107 -0.19724064 0.021492628 0.10641614
-0.04283525 -0.050319344 0.20124489 0.18253604 -0.15429705 0.12748514 -0.12770776 0.033023033
0.12512691 0.10172705 0.052547958 -0.11125938 0.0058423863 -0.00042887006 -0.12755361 -0.13806468
-0.17540823 -0.10786555 0.18286836 0.12201671 -0.1354823 -0.09788505 0.092611454 0.061549537
-0.08501492 0.051418178 -0.106917545 -0.15469956 0.1160801 -0.0026337074 0.11460609 0.18695924
0.06183918 0.07180444 0.16380021 0.118779615 -0.18738356 -0.11339399 -0.15858063 0.12349251
-0.12986118 -0.067006126 0.094317526 0.04089574 0.20367353 0.027214536 0.032035794 0.11025742
00000000: 713a 8f3d 614f 983d 392f b13c fd9f 5abd
00000010: 3506 89bd 2e01 41be 26d9 993c cb38 2b3d
00000020: f6a1 c33c 4187 0abc 4184 41bd e987 9e3d
00000030: ecce a5bc d41d e23d ab8f 0ebd 3049 9b3d
00000040: 27ea 92bc d1ed 1dbd a18b 553e 1975 10bd
00000050: f0d5 d33d 1393 2f3e aeb1 55bd 2177 023e
00000060: 731e 4b3e b82c 06bd 37b1 15be 458e 86bc
00000070: 2211 243d 8066 c63d 86b5 d63c 2b53 17bb
00000080: 3d36 133e b7e3 89bc d345 3c3e 274d 81bd
00000090: 0330 1e3e 9a19 d83d 150e 3b3e c9fb 70bc
000000a0: a74e adbc 6433 eebd 04a7 1cbe bf39 0d3e
000000b0: 137c 0fbe 3302 523e e729 0c3d 9144 05be
000000c0: a87c 573d 42d6 c03d 6a79 ce3c 3665 2b3e
000000d0: df12 293d 5ea5 4dbc 645f e2bc f539 863c
000000e0: 9bf6 0f3d 960f f5bd 3564 8bbd 6e8d 513e
000000f0: c5a6 0a3e 11e6 25bd 66dd 99bc b74d 8c3d
00000100: 8762 1ebd 7b8b 093e ff84 353e 01d4 a23d
00000110: a52b d9bd 648a 2f3d eafd 2e3d b6de c43d
00000120: b539 5c3e d138 cabd 36c4 36be e25e c1bc
00000130: 7d80 94bd 73f9 49be 4f11 b03c b5f0 d93d
00000140: 0474 2fbd a81b 4ebd 2413 4e3e baea 3a3e
00000150: 0c00 1ebe 778b 023e d3c5 02be 2943 073d
00000160: 4521 003e 4656 d03d 873c 573d f5db e3bd
00000170: 7d71 bf3b f7d9 e0b9 6a9d 02be d460 0dbe
00000180: 379e 33be 9de8 dcbd d841 3b3e e6e3 f93d
00000190: dfbb 0abe f577 c8bd 13ab bd3d 5e1b 7c3d
000001a0: 4d1c aebd de9b 523d 96f7 dabd 9069 1ebe
000001b0: 67bb ed3d 479a 2cbb 99b6 ea3d 3e72 3f3e
000001c0: 144b 7d3d 350e 933d 3ebb 273e ba42 f33d
000001d0: 7ae1 3fbe 1c3b e8bd f662 22be a4e9 fc3d
000001e0: 54fa 04be 823a 89bd 8c29 c13d 4b82 273d
000001f0: cb8f 503e 05f1 de3c f737 033d a4ce e13d

recurrent_blocks.0.bias_hh_l0 f4 [128]
0.12322037 -0.030033568 0.11850517 -0.01174689 -0.014489707 -0.10967912 0.16672993 -0.14782315
-0.13309683 -0.047099665 -0.017466115 -0.025913356 -0.12718065 0.11788219 -0.18847603 -0.10850635
0.02574692 0.089039 -0.07091827 0.0733925 -0.17210259 0.039016113 -0.017336331 -0.15725668
0.09074047 -0.0664394 -0.020011155 0.19025198 -0.015057387 0.041249245 0.010970571 -0.02414691
0.06617751 0.03558646 0.20030074 0.10377788 -0.16510844 -0.13243133 0.07699397 0.15101017
-0.022374464 -0.050201774 -0.1414159 -0.14673018 0.08814709 0.104077876 -0.18209378 0.08138988
-0.0753705 -0.13094155 0.05456299 0.05047184 0.0103108715 0.18297641 -0.0068898587 0.15425496
0.1713887 -0.07882969 0.13608292 -0.08554239 0.12513103 0.064638175 -0.024029221 0.11636942
0.1317609 0.069633245 0.07683847 0.20086709 0.18075989 0.13429494 -0.09346414 0.148695
0.15993083 0.11837613 -0.024503553 0.022502966 0.0626834 0.073039934 -0.16001508 0.04062671
0.08975757 -0.06214606 0.071269065 0.06834621 0.13283196 0.07850989 0.09190641 0.099782
0.0074002766 -0.17624299 0.04054193 -0.07553742 0.11942326 0.14887111 0.1592109 -0.015755078
0.08221522 0.13030183 0.13619542 0.1448115 -0.12900415 0.024254557 0.04861139 -0.12160368
-0.08798472 0.048918538 0.12726715 0.1613986 -0.09127518 0.18959498 0.11327127 0.11977842
-0.14485636 0.07875698 0.05621818 -0.027707297 -0.1284659 0.06320535 0.114891894 0.12623395
0.028101305 0.122814335 -0.013410383 0.038129862 0.18766852 -0.035317414 0.04923131 -0.017263383
00000000: f65a fc3d f508 f6bc d7b2 f23d 0776 40bc
00000010: 3c66 6dbc 729f e0bd 40bb 2a3e f45e 17be
00000020: 894a 08be 94eb 40bd 1915 8fbc 3f48 d4bc
00000030: a53b 02be 386c f13d dcff 40be 9438 debd
00000040: 34eb d23c 145a b63d 993d 91bd cf4e 963d
00000050: a93b 30be 5ccf 1f3d ec04 8ebc e507 21be
00000060: 24d6 b93d 6111 88bd 6fee a3bc 6ad1 423e
00000070: 42b3 76bc f8f4 283d e9bd 333c becf c5bc
00000080: 1388 873d 1cc3 113d a31b 4d3e 7f89 d43d
00000090: 3012 29be 149c 07be 04af 9d3d 69a2 1a3e
000000a0: a74a b7bc 60a0 4dbd 54cf 10be 7040 16be
000000b0: 7686 b43d c826 d53d cb76 3abe bdaf a63d
000000c0: d95b 9abd 8b15 06be 717d 5f3d 8fbb 4e3d
000000d0: eeee 283c 2b5e 3b3e 53c4 e1bb 03f5 1d3e
000000e0: 8580 2f3e 7671 a1bd 5259 0b3e d930 afbd
000000f0: 5922 003e 0561 843d eed8 c4bc 1753 ee3d
00000100: 54ec 063e e09b 8e3d 7d5d 9d3d 1ab0 4d3e
00000110: 1f19 393e 9d84 093e 216a bfbd 8143 183e
00000120: e8c4 233e 2f6f f23d adbb c8bc 2458 b83c
00000130: 2860 803d f695 953d feda 23be 3168 263d
00000140: d1d2 b73d de8c 7ebd 84f5 913d 19f9 8b3d
00000150: 1a05 083e cbc9 a03d 6e39 bc3d 815a cc3d
00000160: 057e f23b 0b79 34be 4b0f 263d 5db3 9abd
00000170: 2f94 f43d ab71 183e 2f08 233e cb10 81bc
00000180: 7460 a83d d86d 053e d076 0b3e 7749 143e
00000190: aa19 04be 7eb1 c63c bd1c 473d 5a0b f9bd
000001a0: 5531 b4bd ce5e 483d 5252 023e ad45 253e
000001b0: 7bee babd 3025 423e c5fa e73d 634e f53d
000001c0: 3a55 14be 574b a13d 0945 663d 6afa e2bc
000001d0: 918c 03be ce71 813d 714c eb3d 7943 013e
000001e0: b534 e63c 1586 fb3d 39b7 5bbc 0f2e 1c3d
000001f0: 2d2c 403e fea8 10bd c5a6 493d f06b 8dbc

recurrent_blocks.0.weight_ih_l0_reverse f4 [128, 3]
0.0015566051 0.086505786 -0.05377009 -0.049918726 0.140754 -0.0920728 -0.11327079 0.0036281943
0.099692024 0.167731 -0.12457007 0.002110054 -0.13604924 -0.1378455 0.03944578 0.076900974
0.08968465 0.011290576 -0.042189315 -0.05601213 -0.04813389 -0.1305025 -0.050118983 -0.1757523
0.17656778 -0.12517506 -0.042411122 0.0043949485 0.13875629 0.069668286 0.029646456 0.08988576
-0.14967482 -0.05717738 -0.04512064 -0.19107847 0.12521918 -0.06118262 0.11856744 0.14869554
0.07214497 0.08191615 -0.14274876 -0.1532174 -0.08530006 0.06756772 -0.12947646 -0.13389665
-0.06473366 0.049046397 -0.019233933 -0.011928678 0.12594222 0.04187407 -0.15677412 -0.053758793
0.1447217 0.0013809055 0.15707226 0.07850288 0.06117046 -0.12151651 0.15204932 -0.06444194
-0.027665228 -0.1875964 0.05086617 0.004122302 0.0061956067 0.02778849 0.09699209 0.024736341
0.124422565 0.06363334 -0.17624757 -0.09049682 -0.04229577 -0.111679934 -0.17639828 -0.039343998
-0.114253245 -0.06343214 -0.06817282 0.12694679 -0.011367485 -0.10397916 -0.21169066 0.025620833
0.019223288 -0.063099645 -0.114720985 0.08203335 -0.15109909 -0.08622583 0.027768657 -0.01700472
-0.08522529 0.023443907 -0.0163379 -0.032181203 0.123781756 -0.023024041 0.022577912 -0.071120635
-0.069368646 -0.06084574 -0.04792185 -0.009549834 0.07244642 -0.11080596 -0.14571905 0.010136068
-0.036253616 -0.18315491 0.036853418 0.15353538 -0.068407565 0.07988994 -0.13094595 0.038850952
0.15345813 0.16758199 0.106512584 -0.034393623 -0.15204948 0.03639839 0.006895095 0.052471533
0.05008033 -0.019599184 0.0685278 -0.10174962 -0.15223798 -0.1488274 -0.020841144 0.16173173
0.13955532 0.09550294 0.028269917 0.050969496 -0.005240186 0.09618075 -0.084672995 -0.015629577
0.15175636 -0.042346284 0.021740884 -0.008026823 0.12071665 0.07088698 -0.06386554 -0.17328681
0.01712637 -0.07667013 0.1086476 -0.096164174 0.15536775 -0.015899688 0.01922953 -0.1573558
-0.09603044 -0.0786694 -0.17157784 -0.0012802482 0.0492673 0.011364222 0.08144687 0.13852395
0.044211447 0.03797342 0.075207494 0.16035102 -0.025845915 -0.046946913 -0.12554954 0.06589492
0.12193341 0.15205856 0.12889205 0.13341926 0.09128623 0.021265045 0.0070952997 0.06646958
-0.1213181 -0.028800994 0.058512926 -0.014310926 0.1757941 0.017034844 -0.051827453 -0.0010157839
0.11237268 -0.124391556 0.0024169649 -0.078085 -0.020062447 0.13337487 0.12180497 -0.0037965924
-0.07922267 0.12098418 0.1326827 -0.033814203 0.1335422 0.050011933 0.14310691 -0.10313949
-0.041864827 0.08770449 0.15154372 -0.16898376 0.05034795 0.15433519 -0.0888853 0.13887155
-0.1375982 -0.10905604 0.10009486 -0.05735328 0.16415839 -0.0061736726 -0.072914995 -0.09628026
0.106649496 -0.05395022 0.11550863 0.16938919 0.1452251 -0.15194942 -0.11571919 -0.13934766
0.0012105256 0.01187504 0.01696895 0.061612412 0.13915779 -0.02114299 0.018285394 -0.12752898
-0.09497111 0.13230927 0.12893713 -0.1420531 0.09547062 -0.060570486 0.0727552 0.04881741
-0.05197974 -0.0005773753 0.10097058 -0.07399163 0.05215843 0.021436691 0.11464746 -0.030730799
00000000: 0007 cc3a f229 b13d 073e 5cbd 9477 4cbd
00000010: d121 103e aa90 bcbd 84fa e7bd 00c7 6d3b
00000020: 552b cc3d adc1 2b3e 981e ffbd d548 0a3b
00000030: 7e50 0bbe 5f27 0dbe e691 213d 427e 9d3d
00000040: 96ac b73d 1cfc 383c b4ce 2cbd fa6c 65bd
00000050: 0b28 45bd 73a2 05be 9049 4dbd 69f8 33be
00000060: 2fce 343e e42d 00be 49b7 2dbd 8003 903b
00000070: 2116 0e3e 3fae 8e3d 20dd f23c 0616 b83d
00000080: 5b44 19be d432 6abd 6cd0 38bd 13aa 43be
00000090: 7539 003e a09a 7abd 7cd3 f23d a543 183e
000000a0: bec0 933d a8c3 a73d bb2c 12be 06e5 1cbe
000000b0: ccb1 aebd f260 8a3d 7a95 04be 341c 09be
000000c0: 1593 84bd e0e4 483d 7b90 9dbc 8070 43bc
000000d0: fff6 003e 2584 2b3d 6589 20be 2e32 5cbd
000000e0: ed31 143e 80ff b43a 8dd7 203e 1ec6 a03d
000000f0: e08d 7a3d a6dd f8bd d1b2 1b3e 23fa 83bd
00000100: 30a2 e2bc 4519 40be 0c59 503d 6014 873b
00000110: 8404 cb3b b0a4 e33c caa3 c63d dea3 ca3c
00000120: 42d1 fe3d 3252 823d 3e7a 34be 6656 b9bd
00000130: 543e 2dbd 73b8 e4bd c0a1 34be 2c27 21bd
00000140: 9bfd e9bd b6e8 81bd 319e 8bbd 57fe 013e
00000150: b03e 3abc 07f3 d4bd 70c5 58be c8e2 d13c
00000160: 287a 9d3c 633a 81bd d6f2 eabd 1a01 a83d
00000170: b8b9 1abe 2b97 b0bd 187b e33c 7c4d 8bbc
00000180: 998a aebd 700d c03c 0fd7 85bc 70d0 03bd
00000190: 4a81 fd3d ea9c bcbc 50f5 b83c b2a7 91bd
000001a0: 2611 8ebd 6239 79bd b449 44bd e876 1cbc
000001b0: ca5e 943d 3cee e2bd 6037 15be c011 263c
000001c0: ac7e 14bd f68c 3bbe 9cf3 163d 6138 1d3e
000001d0: 4419 8cbd 569d a33d b216 06be 2d22 1f3d
000001e0: 2124 1d3e 9d9a 2b3e 4523 da3d 54e0 0cbd
000001f0: dcb2 1bbe 7a16 153d 40f0 e13b 64ec 563d
00000200: 0821 4d3d 788e a0bc 4e58 8c3d 1b62 d0bd
00000210: 46e4 1bbe 3666 18be 0cbb aabc 019d 253e
00000220: 97e7 0e3e 0c97 c33d 5096 e73c 64c5 503d
00000230: deb5 abbb 6afa c43d 0969 adbd 9909 80bc
00000240: 0566 1b3e 4c73 2dbd f019 b23c f082 03bc
00000250: 4a3a f73d 312d 913d f0cb 82bd 1972 31be
00000260: 9a4c 8c3c 3b05 9dbd a282 de3d b9f1 c4bd
00000270: b918 1f3e 1040 82bc 3f87 9d3c e121 21be
00000280: 9bab c4bd 6c1d a1bd 1ab2 2fbe 00ce a7ba
00000290: 82cc 493d 0031 3a3c 9ecd a63d 39d9 0d3e
000002a0: 1017 353d 048a 1b3d 6306 9a3d 0f33 243e
000002b0: d0ba d3bc 684b 40bd 0f90 00be eaf3 863d
000002c0: 39b8 f93d 3db5 1b3e 47fc 033e 0f9f 083e
000002d0: 46f4 ba3d 0834 ae3c b07f e83b 3421 883d
000002e0: a075 f8bd 10f0 ebbc 40ab 6f3d 6078 6abc
000002f0: 5e03 343e a88c 8b3c 0649 54bd 0d24 85ba
00000300: a623 e63d 00c1 febd f165 1e3b 07eb 9fbd
00000310: 005a a4bc 6c93 083e e274 f93d 40d0 78bb
00000320: 7f3f a2bd 8ec6 f73d f9dd 073e c380 0abd
00000330: 49bf 083e 50d9 4c3d 9e8a 123e cc3a d3bd
00000340: 747a 2bbd 699e b33d 472e 1b3e 140a 2dbe
00000350: a739 4e3d 0b0a 1e3e 7f09 b6bd 5834 0e3e
00000360: 8be6 0cbe c658 dfbd 89fe cc3d 46eb 6abd
00000370: 2319 283e 854c cabb 7554 95bd 962e c5bd
00000380: 0d6b da3d e8fa 5cbd ca8f ec3d 5c74 2d3e
00000390: e3b5 143e a198 1bbe 2ffe ecbd 27b1 0ebe
000003a0: 80aa 9e3a 878f 423c 7802 8b3c 4c5d 7c3d
000003b0: 617f 0e3e 1034 adbc 40cb 953c f596 02be
000003c0: 3780 c2bd 157c 073e 1808 043e 5e76 11be
000003d0: 1a86 c33d c218 78bd ae00 953d c4f4 473d
000003e0: b5e8 54bd 005b 17ba aac9 ce3d ec88 97bd
000003f0: 14a4 553d 009c af3c 4acc ea3d 28bf fbbc

recurrent_blocks.0.weight_hh_l0_reverse f4 [128, 32]
0.19915912 0.10238052 -0.13554122 -0.08789648 -0.12081624 -0.12145906 -0.045347977 -0.034859937
-0.05202935 -0.04367125 -0.053250365 -0.01822037 -0.05526592 -0.11056219 -0.088267654 0.061015647
0.052349452 0.15046269 0.04211109 0.033630516 0.17691635 -0.07141203 -0.11039917 0.13357711
0.07706037 0.15775149 0.03129351 -0.1892049 -0.007290897 -0.13297036 -0.16293138 0.121852085
-0.12888657 -0.06704939 0.11138671 0.099572584 -0.11396299 0.07664575 -0.16447072 -0.058200933
0.07649353 0.046592016 0.123647325 -0.053226914 -0.076995865 0.03582379 0.1573198 0.07480389
-0.1096086 0.11195855 0.09411513 -0.041372996 0.06724409 -0.20420374 -0.0014635087 -0.13281165
0.08496742 -0.053818244 -0.17912655 -0.07112042 0.023649486 -0.01897163 -0.07952069 -0.09754441
0.1864306 -0.2072344 0.14461623 -0.14666432 0.09077991 0.056806825 -0.03504755 -0.046336815
0.0744515 -0.12735993 0.12716657 0.06600038 -0.13033935 0.10909163 -0.025480049 0.07524411
0.14985892 -0.19417152 0.10645895 -0.0109328125 -0.15544474 -0.061841894 -0.040741466 0.18551503
-0.110417634 0.14813101 -0.17924978 -0.09449726 0.064291626 -0.055233464 0.1640933 0.101627
0.016795577 -0.14845619 -0.08096241 -0.047648717 0.1294853 -0.103727415 0.047808968 -0.11078897
-0.10571219 0.08711867 0.09584959 0.008035397 0.064159386 0.17488441 -0.15393241 -0.12832354
0.12858397 -0.08957278 -0.036498275 -0.13055001 0.15278506 -0.16654754 0.010136595 0.03170898
0.08634846 0.061481483 0.15702556 0.019168295 -0.041955207 0.1400996 0.08109967 -0.099746324
-0.071554326 -0.1646431 0.15352224 -0.14939988 -0.006523691 0.05462686 0.12743813 -0.033656564
0.077124946 -0.07603947 -0.12981622 -0.08735493 -0.008016047 0.15515342 0.06604242 -0.045711603
0.055077814 -0.15878579 0.089780994 -0.034149777 -0.030673902 -0.19722994 0.046715915 0.15080594
-0.14876728 0.0125061665 0.10011647 -0.04391554 0.063122064 -0.08021429 -0.13159962 -0.0057817632
0.08995355 0.15659179 0.1448369 -0.10259468 0.07601767 -0.11222744 0.035970103 -0.08082252
0.031623404 -0.08457458 0.10289986 0.13024145 0.2094869 0.043647304 -0.08444988 -0.04318332
0.038516566 0.11272494 -0.1486247 -0.0064485236 0.10583149 0.09644233 0.013775223 0.101903
-0.15217698 -0.033940766 -0.14275238 -0.16888462 -0.20395893 -0.030723672 -0.070747286 -0.17360649
0.15979952 -0.07429064 -0.11864389 -0.06382019 0.010377797 -0.00444683 0.13442314 -0.013717591
-0.080325395 -0.07228391 0.13055064 0.014327581 -0.06917619 -0.11841578 -0.12785202 0.15844247
0.02247234 -0.063597344 0.05830514 -0.008310458 0.17586613 0.00017905097 0.0691224 -0.007805287
-0.057242826 0.20281158 0.1064125 -0.055401895 0.025842939 0.13931566 -0.14048107 -0.18155211
-0.11417596 -0.053388733 0.0018317626 -0.09109459 0.13691701 0.1159473 0.06406426 -0.10695906
-0.21234351 -0.10948534 0.18807274 -0.034270134 0.08910103 0.06543812 0.09194704 0.13288745
0.10312252 -0.008931132 -0.072308056 -0.013270763 0.2156882 0.04564307 -0.031621665 0.15529072
-0.032787625 -0.08167796 0.09300196 -0.18962708 -0.08495404 0.17859986 -0.051431257 -0.18108408
00000000: 5ef0 4b3e e1ac d13d 51cb 0abe 1203 b4bd
00000010: 816e f7bd 87bf f8bd cdbe 39bd 4bc9 0ebd
00000020: ba1c 55bd a0e0 32bd 0e1d 5abd e342 95bc
00000030: 845e 62bd 6e6e e2bd acc5 b4bd 8beb 793d
00000040: 616c 563d e412 1a3e ae7c 2c3d 27c0 093d
00000050: 8f29 353e 7840 92bd f618 e2bd 70c8 083e
00000060: d4d1 9d3d 9b89 213e a02d 003d eebe 41be
00000070: 7ae8 eebb 6229 08be 7cd7 26be 968d f93d
00000080: d7fa 03be 3151 89bd b71e e43d b6ec cb3d
00000090: 6e65 e9bd 72f8 9c3d 036b 28be 1a64 6ebd
000000a0: a4a8 9c3d 45d7 3e3d cf3a fd3d 7704 5abd
000000b0: 02b0 9dbd f7bb 123d 7118 213e c832 993d
000000c0: 797a e0bd 864a e53d 6fbf c03d bb76 29bd
000000d0: 45b7 893d c91a 51be 34d3 bfba c7ff 07be
000000e0: 6603 ae3d 8570 5cbd f36c 37be 95a7 91bd
000000f0: 91bc c13c 646a 9bbc bedb a2bd 5dc5 c7bd
00000100: aae7 3e3e 4135 54be 4716 143e 2c2f 16be
00000110: d1ea b93d 46ae 683d 058e 0fbd accb 3dbd
00000120: 077a 983d a46a 02be f437 023e 352b 873d
00000130: ae77 05be 6f6b df3d 89bb d0bc 9519 9a3d
00000140: 9e74 193e e6d4 46be 2607 da3d 8a1f 33bc
00000150: e82c 1fbe ed4d 7dbd 86e0 26bd a7f7 3d3e
00000160: a422 e2bd a8af 173e 418d 37be c887 c1bd
00000170: 54ab 833d 7c3c 62bd 1308 283e d121 d03d
00000180: e196 893c e604 18be 9fcf a5bd 4d2b 43bd
00000190: cb97 043e 0a6f d4bd 56d3 433d 54e5 e2bd
000001a0: a27f d8bd 466b b23d ca4c c43d e6a6 033c
000001b0: ff65 833d e614 333e 75a0 1dbe 3f67 03be
000001c0: 84ab 033e ef71 b7bd 377f 15bd e7ae 05be
000001d0: b073 1c3e 708b 2abe f613 263c 47e1 013d
000001e0: 76d7 b03d 02d4 7b3d 4fcb 203e d406 9d3c
000001f0: 39d9 2bbd 4576 0f3e 9517 a63d cd47 ccbd
00000200: 138b 92bd 3398 28be ef34 1d3e 48fc 18be
00000210: b0c4 d5bb 6ac0 5f3d 247f 023e 77db 09bd
00000220: aff3 9d3d 95ba 9bbd 8bee 04be 24e7 b2bd
00000230: bd55 03bc 8ae0 1e3e 4041 873d 173c 3bbd
00000240: 4699 613d be98 22be 19df b73d a3e0 0bbd
00000250: d647 fbbc a5f6 49be 3059 3f3d df6c 1a3e
00000260: 7356 18be aae6 4c3c dd09 cd3d c8e0 33bd
00000270: 2446 813d 6447 a4bd 0dc2 06be f274 bdbb
00000280: 9139 b83d 9959 203e 2050 143e 291d d2bd
00000290: 27af 9b3d 80d7 e5bd 6355 133d 4786 a5bd
000002a0: 8b87 013d 7035 adbd 29bd d23d 045e 053e
000002b0: bc83 563e 84c7 323d 0ff4 acbd fee0 30bd
000002c0: 8cc3 1d3d 55dc e63d 1331 18be 234e d3bb
000002d0: 2ebe d83d 8e83 c53d 79b1 613c 85b2 d03d
000002e0: 48d4 1bbe 7905 0bbd ae2d 12be 17f0 2cbe
000002f0: 9cda 50be 36b0 fbbc f4e3 90bd e6c5 31be
00000300: 7ca2 233e b125 98bd 91fb f2bd 29b4 82bd
00000310: a307 2a3c b7b6 91bb 38a6 093e bfbf 60bc
00000320: a481 a4bd 9609 94bd 11af 053e 3bbe 6a3c
00000330: 3fac 8dbd f983 f2bd a4eb 02be be3e 223e
00000340: ea17 b83c 533f 82bd 5fd1 6e3d 9628 08bc
00000350: 4016 343e a1bf 3b39 0b90 8d3d 7ec3 ffbb
00000360: 7477 6abd d7ad 4f3e ccee d93d 19ed 62bd
00000370: 92b4 d33c c4a8 0e3e 45da 0fbe cce8 39be
00000380: 16d5 e9bd 25ae 5abd c117 f03a cd8f babd
00000390: f933 0c3e c775 ed3d 1f34 833d 5a0d dbbd
000003a0: 9470 59be da39 e0bd 2496 403e d75e 0cbd
000003b0: 9a7a b63d 6c04 863d bb4e bc3d a613 083e
000003c0: e631 d33d e253 12bc 3f16 94bd 9d6d 59bc
000003d0: 5edd 5c3e 3af4 3a3d b885 01bd 8804 1f3e
000003e0: 514c 06bd c646 a7bd d077 be3d 9a2d 42be
000003f0: 62fc adbd e2e2 363e 95a9 52bd 1b6e 39be

recurrent_blocks.0.bias_ih_l0_reverse f4 [128]
0.080752224 0.14315034 0.08200191 0.12906924 0.015938368 -0.014739428 0.14071193 -0.032712545
0.08087457 0.15780401 0.017179826 0.12029828 -0.02412159 0.20416777 -0.06570649 -0.04838533
-0.088913925 -0.07302823 -0.1464267 -0.017562779 0.15210491 -0.045737088 -0.03818993 0.03752123
-0.16431312 -0.02791388 -0.08277889 0.08408148 0.081954055 -0.15396194 -0.16731109 0.15518813
-0.1059775 0.032830752 -0.14621891 0.11480633 0.06662469 0.1134873 0.1646732 -0.042132962
0.09424084 0.08285964 -0.110556096 0.035442952 -0.015940206 0.08437852 -0.082709014 0.18160987
-0.09759599 -0.029583273 -0.059784584 -0.11119045 0.17293413 0.015101691 0.010376515 0.096764095
-0.15717593 0.0991239 -0.121982984 0.11428791 0.13077356 -0.1603046 -0.15073828 -0.10426636
0.06117042 0.11706566 0.10861006 -0.05880137 0.074052066 -0.2119427 -0.2125428 -0.0002566571
-0.20871343 0.2154646 0.17024346 -0.20315552 0.17413667 0.12092101 -0.14302248 0.17055772
0.022242531 0.06478075 -0.17860423 -0.14803068 0.18121366 -0.076911844 0.10941268 0.0042656353
0.06553333 0.15479071 0.062168967 0.05037692 -0.0013830797 0.13489813 0.08143383 -0.05303422
-0.10783081 0.1101627 -0.058355384 0.16561306 0.0821019 0.1402981 -0.07741219 0.10284906
0.094793886 0.05358756 0.0623647 -0.08603636 0.15629727 0.048804644 -0.020859983 0.079409115
0.020749414 -0.10387361 -0.15213783 0.14554195 -0.074761756 0.19545236 -0.039060276 -0.01640894
0.14420485 0.07843215 0.0055570086 -0.038483165 -0.068836205 -0.053540975 0.018046603 0.06285559
00000000: 6c61 a53d 0196 123e 9ef0 a73d ba2a 043e
00000010: 2e91 823c a47d 71bc ca16 103e 97fd 05bd
00000020: 91a1 a53d 6097 213e b5bc 8c3c f25e f63d
00000030: a49a c5bc 5b11 513e 2091 86bd b22f 46bd
00000040: 8118 b6bd d38f 95bd e1f0 15be d1df 8fbc
00000050: 64c1 1b3e d056 3bbd 0b6d 1cbd dcaf 193d
00000060: b341 28be a6ab e4bc fb87 a9bd e932 ac3d
00000070: 87d7 a73d 33a8 1dbe 9953 2bbe a3e9 1e3e
00000080: bb0a d9bd 8a79 063d 69ba 15be 951f eb3d
00000090: 8772 883d 086c e83d 17a0 283e 9d93 2cbd
000000a0: 5701 c13d 51b2 a93d 3c6b e2bd a12c 113d
000000b0: 0995 82bc a5ce ac3d 5863 a9bd f0f7 393e
000000c0: 68e0 c7bd 9f58 f2bc aee0 74bd d2b7 e3bd
000000d0: a515 313e 156d 773c 4202 2a3c 412c c63d
000000e0: baf2 20be 7901 cb3d 37d2 f9bd c80f ea3d
000000f0: 81e9 053e e426 24be 235b 1abe 9a89 d5bd
00000100: d68d 7a3d 1fc0 ef3d f36e de3d b5d9 70bd
00000110: 9ca8 973d 8207 59be d2a4 59be ef8f 86b9
00000120: f9b8 55be c1a2 5c3e 4d54 2e3e 0008 50be
00000130: e250 323e 6fa5 f73d 7c74 12be afa6 2e3e
00000140: f835 b63c c5ab 843d 07e4 36be 5b95 17be
00000150: 1390 393e f583 9dbd c113 e03d bec6 8b3b
00000160: 5736 863d 7581 1e3e e3a4 7e3d 0758 4e3d
00000170: 7448 b5ba bc22 0a3e c8c6 a63d 693a 59bd
00000180: 66d6 dcbd fb9c e13d 0e06 6fbd 7896 293e
00000190: 0a25 a83d 4eaa 0f3e 488a 9ebd 87a2 d23d
000001a0: 4c23 c23d a17e 5b3d 2172 7f3d d533 b0bd
000001b0: 640c 203e 61e7 473d 8ee2 aabc 3fa1 a23d
000001c0: adfa a93c b0bb d4bd 05ca 1bbe f308 153e
000001d0: b11c 99bd aa24 483e abfd 1fbd 0b6c 86bc
000001e0: 70aa 133e 09a1 a03d 9117 b63b 86a0 1dbd
000001f0: fff9 8cbd c84d 5bbd 78d6 933c 6eba 803d

recurrent_blocks.0.bias_hh_l0_reverse f4 [128]
-0.05555059 -0.0836478 -0.13041419 0.050084837 -0.09930158 0.08799433 -0.030915307 -0.1003985
0.075397454 -0.0780594 -0.06806958 -0.116320595 -0.0048804954 -0.029175498 -0.11758279 -0.039497763
0.0017627237 0.08576894 0.040630776 -0.05824241 -0.043452587 -0.09107831 0.116648786 0.09067927
0.023650907 -0.02393363 0.021052508 -0.03942348 -0.0924943 0.087430716 -0.1860638 0.057164565
0.1954216 -0.12613076 -0.031871103 0.12826975 0.14432566 0.109359875 -0.11011233 -0.06183297
0.06613915 0.012795798 -0.015955936 -0.12305844 0.13138339 0.13233994 -0.115939334 -0.045207243
-0.08415719 -0.004016613 -0.072302796 0.067972384 -0.056215413 -0.11466157 0.11707457 -0.016740391
-0.08894914 -0.17641638 0.07444098 0.16820347 -0.10637493 0.024469104 0.097863585 0.049792044
0.19775485 -0.1413873 -0.013887098 0.20483074 0.1780112 -0.0103656845 0.055075966 -0.14481024
0.050866902 -0.04081422 0.0022569236 0.1151826 -0.07971839 0.058027614 -0.1744769 0.14883171
-0.14371867 -0.10854717 0.089149535 -0.015985465 -0.12611449 -0.022000307 0.00693848 0.10427101
-0.110384546 -0.07037237 -0.09301702 -0.19919312 -0.21072926 -0.09296895 -0.020776995 0.048931755
0.124465026 0.11979907 -0.010948369 0.1808528 0.015059757 -0.0895621 -0.018601844 -0.09226363
-0.09486384 0.2070208 -0.11090733 -0.08810947 -0.031382494 0.0035964316 -0.09267021 -0.026033483
0.06100531 0.116512194 0.14065516 0.062368505 0.14256798 0.17897764 0.0144744245 0.21395944
-0.019795842 -0.04803139 -0.020682588 0.19397883 0.2009298 -0.011114091 0.039679084 -0.10761444
00000000: 0489 63bd 8a4f abbd 4c8b 05be c225 4d3d
00000010: a05e cbbd 5f36 b43d 1942 fdbc bb9d cdbd
00000020: fb69 9a3d 9bdd 9fbd 1068 8bbd 7e39 eebd
00000030: 90ec 9fbb 7401 efbc 3fcf f0bd 68c8 21bd
00000040: 310b e73a a0a7 af3d 756c 263d 988f 6ebd
00000050: 57fb 31bd 4487 babd 8fe5 ee3d 0eb6 b93d
00000060: 8cbf c13c 7610 c4bc 4f76 ac3c 847a 21bd
00000070: a76d bdbd e00e b33d 8287 3ebe 6425 6a3d
00000080: 9a1c 483e 6c28 01be 468b 02bd 2559 033e
00000090: 1bca 133e 12f8 df3d 9382 e1bd 9144 7dbd
000000a0: f673 873d 77a5 513c 06b6 82bc 1006 fcbd
000000b0: 5e89 063e 1f84 073e 9a71 edbd 3b2b 39bd
000000c0: 9b5a acbd cb9d 83bb 7d13 94bd 1b35 8b3d
000000d0: 2242 66bd afd3 eabd cbc4 ef3d 2523 89bc
000000e0: f72a b6bd 7fa6 34be 8374 983d 883d 2c3e
000000f0: 19db d9bd 6e73 c83c b46c c83d bef2 4b3d
00000100: 3f80 4a3e d5c7 10be b686 63bc 26bf 513e
00000110: 9148 363e d5d4 29bc 5697 613d 2349 14be
00000120: d059 503d d02c 27bd e5e8 133b dbe4 eb3d
00000130: 6543 a3bd 5dae 6d3d 13aa 32be 5767 183e
00000140: fd2a 13be fb4d debd 0894 b63d f3f3 82bc
00000150: 2824 01be fd39 b4bc 305c e33b 0a8c d53d
00000160: 4b11 e2bd 641f 90bd b57f bebd 48f9 4bbe
00000170: 69c9 57be 8166 bebd 8434 aabc aa6c 483d
00000180: 85e7 fe3d 3759 f53d ca60 33bc 7a31 393e
00000190: 33bd 763c 566c b7bd e562 98bc b7f4 bcbd
000001a0: f947 c2bd 43fd 533e 6223 e3bd bd72 b4bd
000001b0: ee8a 00bd 1cb2 6b3b e1c9 bdbd 2c44 d5bc
000001c0: b4e0 793d f29d ee3d e807 103e 1e76 7f3d
000001d0: 57fd 113e ea45 373e 2326 6d3c 2f18 5b3e
000001e0: e42a a2bc 90bc 44bd 886e a9bc 63a2 463e
000001f0: 8bc0 4d3e e017 36bc 8986 223d f664 dcbd

recurrent_blocks.1.weight_ih_l0 f4 [128, 64]
0.14217743 -0.084853314 0.09118492 0.058588617 -0.13414405 0.004275027 -0.13849205 0.058349833
-0.077548 -0.14900126 0.091429114 -0.002547191 0.06318549 -0.035512198 0.11714326 0.08506143
0.021511879 -0.013765201 -0.17317289 -0.093075536 -0.08455508 -0.0902345 -0.003895271 -0.18688118
0.02643413 -0.13907294 0.061175495 0.09526192 -0.102383725 0.06946373 -0.18558437 -0.121093795
0.016652023 0.029527104 -0.15297851 -0.09258898 0.031836476 -0.0037168893 -0.047585502 -0.06140355
0.20695837 -0.06720215 -0.11631209 0.0522241 -0.028962124 0.048364617 0.038697623 -0.08344302
0.1378834 0.11381828 -0.07453212 -0.1345396 -0.07168266 -0.055691194 -0.09009184 -0.022428503
0.18783952 -0.13467224 0.1282012 0.1932636 0.02784773 -0.13107854 0.07584439 -0.026431322
-0.14161214 -0.0313631 -0.002918846 -0.109467395 -0.12816638 0.037743997 0.009865786 -0.062312715
0.1536049 0.011723944 -0.015744438 0.02736341 0.11512828 -0.13401936 0.1745684 0.0390841
0.06385259 -0.110319175 -0.15341488 0.111676715 0.06519816 0.021966586 0.07339547 0.06469951
-0.08278934 0.108431675 -0.11053576 0.05299996 0.11873277 0.1261598 -0.026922606 -0.09224798
0.046252605 -0.082615726 0.006979201 0.10262975 0.08150189 0.10566786 0.074230395 0.052312378
0.19204183 -0.07114122 0.036096808 0.01997367 -0.10444386 -0.19265214 -0.12545916 -0.11525407
-0.1328862 -0.040480293 0.07029578 -0.14775221 -0.090518974 -0.14889063 -0.14329322 -0.1980829
-0.07661883 0.14310221 -0.10370241 0.16810182 -0.08552052 -0.1398192 0.05435285 -0.17473805
-0.08834911 -0.08709777 -0.02801926 -0.056680765 0.1590214 0.11845104 -0.0005062331 -0.07024438
0.07944095 0.1832868 -0.052922722 -0.13332558 0.08072386 -0.09190241 0.11093856 -0.04128872
0.09926966 -0.12277182 0.014515397 0.049468014 0.11757603 0.029594164 -0.18039823 -0.0052080895
-0.087616 0.04504579 0.078451276 -0.0036555969 0.09536653 0.0005614151 0.18642649 0.116931565
0.083535455 -0.012000778 -0.12615542 -0.08225429 0.12977742 -0.18296589 -0.09247938 -0.09848997
-0.013122795 0.16933794 0.1273098 -0.16098224 0.046458013 0.18784533 -0.012453463 0.0411043
0.13355401 -0.13536888 0.12987417 -0.056559812 0.066397004 0.028448578 -0.0083191525 0.049900226
-0.111652225 0.12993672 -0.11112055 0.076212555 -0.053825997 0.046458658 0.17756036 0.09044616
0.12953897 -0.05877999 -0.059234906 0.049447197 0.09806649 -0.10472258 -0.07998138 0.058272295
-0.053607013 -0.080615945 0.13225597 -0.014318002 0.07067637 -0.15433232 0.1101734 0.18228243
-0.14804563 0.0853021 -0.080777936 0.20546111 0.08824276 0.057827663 0.01873745 -0.09112535
0.12832776 0.03686452 0.0963139 -0.16044874 -0.12407615 0.07290938 -0.0653297 0.13238604
-0.017172227 0.02145399 -0.12738107 -0.041882284 0.12733273 0.13852295 0.048249364 -0.09691307
0.057330042 0.11756411 -0.013132621 -0.101006426 0.11730904 0.025432901 -0.18581532 -0.02487532
-0.09427604 0.07922577 0.00072735973 -0.0045356946 0.16400723 -0.07155518 0.064146206 0.20398884
-0.003761989 -0.14968997 0.14671864 0.031022783 -0.15633196 -0.11048869 -0.15382192 -0.03454919
00000000: f696 113e 93c7 adbd 29bf ba3d 9efa 6f3d
00000010: 0f5d 09be 8715 8c3b dcd0 0dbe 3c00 6f3d
00000020: 7cd1 9ebd c993 18be 303f bb3d c6ee 26bb
00000030: 6567 813d 3d75 11bd cee8 ef3d b034 ae3d
00000040: ae39 b03c 7087 61bc 3c54 31be 639e bebd
00000050: 372b adbd decc b8bd ce47 7fbb c85d 3fbe
00000060: 638c d83c 2369 0ebe 2893 7a3d ae18 c33d
00000070: 8fae d1bd 0043 8e3d d409 3ebe 0600 f8bd
00000080: d369 883c d3e2 f13c 66a6 1cbe 4b9f bdbd
00000090: f766 023d 0e97 73bb 04e9 42bd 4a82 7bbd
000000a0: e5ec 533e 48a1 89bd 0835 eebd f0e8 553d
000000b0: fa41 edbc fa19 463d 6681 1e3d 2de4 aabd
000000c0: 4e31 0d3e 8f19 e93d 4ca4 98bd c0c4 09be
000000d0: 5cce 92bd 731c 64bd 1282 b8bd fbbb b7bc
000000e0: 0159 403e 85e7 09be 2d47 033e e5e6 453e
000000f0: ec20 e43c 7439 06be 4e54 9b3d 8086 d8bc
00000100: c602 11be 9876 00bd 1c4a 3fbb 7130 e0bd
00000110: 0c3e 03be 7399 1a3d 1ba4 213c 9e3b 7fbd
00000120: 9a4a 1d3e c915 403c 7bfa 80bc 3b29 e03c
00000130: 60c8 eb3d 5f3c 09be 0fc2 323e a616 203d
00000140: 26c5 823d 05ef e1bd ca18 1dbe c3b6 e43d
00000150: 9d86 853d 45f3 b33c 5d50 963d 2d81 843d
00000160: 758d a9bd 6d11 de3d 9360 e2bd 7c16 593d
00000170: 2b2a f33d 0930 013e cc8c dcbc 82ec bcbd
00000180: 5f73 3d3d 6f32 a9bd c8b1 e43b 8c2f d23d
00000190: 77ea a63d 6468 d83d 1b06 983d 8145 563d
000001a0: 9da6 443e 7db2 91bd 3fda 133d d29f a33c
000001b0: aae6 d5bd 9a46 45be 5e78 00be 530a ecbd
000001c0: 5213 08be aace 25bd 3cf7 8f3d 5b4c 17be
000001d0: 0362 b9bd c976 18be 75bb 12be 3ed6 4abe
000001e0: 55ea 9cbd 6389 123e ee61 d4bd e222 2c3e
000001f0: 6225 afbd c42c 0fbe 18a1 5e3d 88ee 32be
00000200: 61f0 b4bd 5160 b2bd a688 e5bc 172a 68bd
00000210: 82d6 223e 7596 f23d bab4 04ba 49dc 8fbd
00000220: f0b1 a23d 89af 3b3e 7fc5 58bd 8086 08be
00000230: 8d52 a53d 5537 bcbd c133 e33d 5c1e 29bd
00000240: e44d cb3d cb6f fbbd fdd1 6d3c f99e 4a3d
00000250: b4cb f03d 766f f23c 50ba 38be 9fa8 aabb
00000260: 0470 b3bd ef81 383d 10ab a03d bd92 6fbb
00000270: 874f c33d ee2b 133a 96e6 3e3e d179 ef3d
00000280: a314 ab3d e99e 44bc e32e 01be f074 a8bd
00000290: 5fe4 043e 695b 3bbe d465 bdbd 1cb5 c9bd
000002a0: fe00 57bc ed66 2d3e 805d 023e 87d8 24be
000002b0: c24a 3e3d 875a 403e 9c09 4cbc fc5c 283d
000002c0: 62c2 083e 249e 0abe bcfd 043e 43ab 67bd
000002d0: 27fb 873d fe0c e93c 0e4d 08bc 2e64 4c3d
000002e0: eca9 e4bd 220e 053e 2c93 e3bd 5415 9c3d
000002f0: a678 5cbd 6f4b 3e3d 62d2 353e d63b b93d
00000300: dda5 043e 49c3 70bd 4da0 72bd 2589 4a3d
00000310: 15d7 c83d cb78 d6bd 47cd a3bd eeae 6e3d
00000320: 0793 5bbd f919 a5bd 1c6e 073e 0e96 6abc
00000330: c6be 903d 4b09 1ebe 97a2 e13d 3fa8 3a3e
00000340: 4699 17be deb2 ae3d e76e a5bd 6664 523e
00000350: 9fb8 b43d b3dc 6c3d 487f 993c ed9f babd
00000360: 5a68 033e 40ff 163d 3940 c53d ad4c 24be
00000370: a31b febd 8351 953d 94cb 85bd 3590 073e
00000380: c5ac 8cbc 47c0 af3c 2f70 02be c28c 2bbd
00000390: 8363 023e f6d8 0d3e 20a1 453d 5c7a c6bd
000003a0: e8d2 6a3d 74c5 f03d 342a 57bc 75dc cebd
000003b0: b93f f03d a958 d03c 5f46 3ebe 54c7 cbbc
000003c0: cc13 c1bd 1f41 a23d 49ac 3e3a 2aa0 94bb
000003d0: 83f1 273e 868b 92bd 165f 833d 73e2 503e
000003e0: b48b 76bb 5448 19be 693d 163e 7e23 fe3c
000003f0: 7c15 20be e547 e2bd 7e83 1dbe 7483 0dbd

recurrent_blocks.1.weight_hh_l0 f4 [128, 32]
-0.11521845 -0.120944776 -0.034076907 -0.095858596 -0.07139103 -0.19025749 0.055167597 -0.061875843
0.09783112 -0.088219196 0.16593207 -0.08692498 0.0361879 -0.055037647 0.12301738 0.1324459
0.17567693 0.028389543 -0.112139404 -0.09263483 0.058171444 -0.01904126 -0.056419086 -0.056197155
-0.044170175 0.09768311 0.07286186 -0.10831821 -0.04180679 -0.1833288 0.09575279 -0.045216303
-0.08909295 0.1002261 0.032155886 -0.13096714 -0.036450755 -0.02029329 0.059201185 -0.13100027
-0.059616193 -0.08953672 0.009216777 -0.027480936 0.11751803 -0.01836554 0.013941694 -0.016505003
0.04446715 0.028347502 -0.17836809 0.16495888 0.0984506 0.08308881 0.11060546 0.1204197
0.06898013 0.12907378 0.026614737 0.15941362 -0.12659532 -0.17943631 0.0225753 -0.07634071
0.15125415 0.16957398 0.21275994 -0.18109715 -0.0001857755 0.11672233 -0.096373454 -0.1206351
0.12234874 -0.02487044 -0.0023695081 -0.084467724 0.093735196 -0.058818124 0.115779854 0.105095334
0.027130486 0.061691005 -0.15524216 0.08558116 0.09347582 -0.10187463 0.11559637 0.0029585885
-0.16900596 -0.0702349 0.014771506 0.10858751 0.011406745 0.052762058 0.041454248 -0.020738095
0.10758311 -0.054033246 0.07100269 -0.1609276 0.009011081 0.12108259 -0.1532249 -0.10248538
0.101704985 -0.061092187 -0.15540029 0.059451643 0.08152821 -0.03323076 0.0749123 -0.0062726275
-0.15328754 -0.0698673 -0.034103733 0.006870506 -0.05493459 -0.0724113 -0.006524394 -0.17390186
0.08457943 -0.18655142 0.09535646 -0.09809732 -0.12379784 0.21219015 0.093337655 0.10520752
0.06421074 -0.14393528 0.095261246 -0.041029878 0.10781407 -0.12667389 -0.12713677 0.19001849
0.10335833 0.17388225 0.07941582 0.072720245 0.07621858 0.14075178 -0.15723392 0.14019682
0.045457114 -0.03757684 -0.20729522 0.14161323 0.026068797 -0.05928008 0.1376243 0.14849573
-0.08000514 -0.10831445 0.14272252 0.13112246 -0.1235086 -0.057736594 0.09621704 -0.117951035
0.0097951265 0.041969966 0.08578352 -0.10416203 -0.09244402 0.09865188 0.007112773 -0.01623917
-0.177317 0.11226652 -0.10314008 0.05574746 0.1331278 -0.07801174 0.08345331 0.11503301
-0.1264682 -0.14279197 -0.16421539 0.010047527 -0.12018207 0.028501889 0.08228477 -0.14153823
0.11392427 -0.12387524 -0.0010604911 -0.12825246 -0.06201672 0.076986544 -0.16159992 0.108082704
0.0015668723 -0.03325972 0.09443996 -0.032431744 0.06757564 -0.1540686 -0.07909335 0.04164338
0.0514703 0.020916363 -0.023816584 0.16084367 -0.13574712 0.086702235 0.11755048 -0.073887125
-0.0965865 -0.023887374 0.03218941 -0.17389944 0.047228977 0.09760556 0.10924255 -0.14855911
-0.17591012 -0.03305353 0.084654294 -0.018622382 0.007816289 0.10753637 0.010015137 0.13398767
-0.08059086 -0.1429424 0.0810602 0.118973255 -0.13405791 -0.00044501238 -0.008529716 -0.11438306
0.15025122 0.10076166 0.15825658 0.111348204 0.041720286 0.110120006 -0.039575405 -0.17314325
0.025568746 -0.10004639 0.02706721 0.055866495 -0.062721476 0.14905512 0.10410411 0.02901817
0.13250645 -0.02823865 0.007961534 0.092244975 0.09578817 0.03498736 -0.0424661 0.084815
00000000: a7f7 ebbd e5b1 f7bd 3a94 0bbd 8351 c4bd
00000010: 7635 92bd dcd2 42be 6bf7 613d 8671 7dbd
00000020: af5b c83d 44ac b4bd 19ea 293e b905 b2bd
00000030: c339 143d 286f 61bd 89f0 fb3d e69f 073e
00000040: a7e4 333e 3091 e83c 58a9 e5bd 54b7 bdbd
00000050: 2e45 6e3d 6bfc 9bbc b317 67bd fd2e 66bd
00000060: c9eb 34bd 150e c83d 9938 953d f0d5 ddbd
00000070: 993d 2bbd 8cba 3bbe 0a1a c43d bb34 39bd
00000080: 5d76 b6bd 5743 cd3d e4b5 033d 401c 06be
00000090: 634d 15bd 1d3e a6bc f17c 723d ef24 06be
000000a0: 1c30 74bd 075f b7bd f701 173c b31f e1bc
000000b0: 4bad f03d 5473 96bc b46b 643c 8035 87bc
000000c0: 3023 363d 0539 e83c 20a6 36be fbea 283e
000000d0: 78a0 c93d 772a aa3d 1e85 e23d 9b9e f63d
000000e0: 7445 8d3d eb2b 043e 2607 da3c 533d 233e
000000f0: 34a2 01be 27be 37be d6ef b83c 8558 9cbd
00000100: 5ee2 1a3e cda4 2d3e bedd 593e 8871 39be
00000110: bbcc 42b9 1e0c ef3d 725f c5bd 890f f7bd
00000120: fa91 fa3d 18bd cbbc c049 1bbb 6afd acbd
00000130: 3df8 bf3d 46eb 70bd fd1d ed3d 393c d73d
00000140: c140 de3c b5af 7c3d cdf7 1ebe 2d45 af3d
00000150: 4070 bf3d a5a3 d0bd cabd ec3d e1e4 413b
00000160: e60f 2dbe 51d7 8fbd 3004 723c 2163 de3d
00000170: 5be3 3a3c 071d 583d eecb 293d f0e2 a9bc
00000180: 8954 dc3d f751 5dbd dc69 913d 34ca 24be
00000190: 37a3 133c 26fa f73d fde6 1cbe dbe3 d1bd
000001a0: b44a d03d cd3b 7abd 4121 1fbe 9183 733d
000001b0: 43f8 a63d fa1c 08bd 9f6b 993d 9d8a cdbb
000001c0: 69f7 1cbe 9616 8fbd 5bb0 0bbd fb21 e13b
000001d0: 1803 61bd 604c 94bd 95ca d5bb 5413 32be
000001e0: fb37 ad3d 5607 3fbe 3f4a c33d 3fe7 c8bd
000001f0: b989 fdbd 6048 593e d027 bf3d 0a77 d73d
00000200: ec80 833d c563 13be 5418 c33d f20e 28bd
00000210: a0cd dc3d cdb6 01be 2430 02be 3594 423e
00000220: 88ad d33d 300e 323e c3a4 a23d 5aee 943d
00000230: 7d18 9c3d 3c21 103e ee01 21be c18f 0f3e
00000240: 3d31 3a3d 2cea 19bd 3345 54be 0f03 113e
00000250: 3b8e d53c abcf 72bd 62ed 0c3e 440f 183e
00000260: bcd9 a3bd f7d3 ddbd da25 123e f744 063e
00000270: 14f2 fcbd 357d 6cbd 710d c53d 5090 f1bd
00000280: bd7b 203c b3e8 2b3d 45af af3d e752 d5bd
00000290: 4a53 bdbd ff09 ca3d 4412 e93b 0208 85bc
000002a0: 9692 35be fdeb e53d 1b3b d3bd 7357 643d
000002b0: a752 083e 9fc4 9fbd 92e9 aa3d 6d96 eb3d
000002c0: e180 01be 0f38 12be 1428 28be 629e 243c
000002d0: 0422 f6bd cb7c e93c eb84 a83d 66ef 10be
000002e0: 2151 e93d 4db2 fdbd 2d00 8bba 9d54 03be
000002f0: 3f05 7ebd 1fab 9d3d 737a 25be 775a dd3d
00000300: 835f cd3a 583b 08bd bd69 c13d 26d7 04bd
00000310: 1965 8a3d 29c4 1dbe b2fb a1bd 4092 2a3d
00000320: 85d2 523d cb58 ab3c ff1a c3bc 34b4 243e
00000330: 4b01 0bbe f190 b13d 4ebe f03d 2252 97bd
00000340: 25cf c5bd 74af c3bc 0bd9 033d b212 32be
00000350: 2c73 413d 6de5 c73d 8fba df3d e11f 18be
00000360: c821 34be 2363 07bd 3b5f ad3d f78d 98bc
00000370: e40f 003c 073c dc3d 8716 243c 1034 093e
00000380: d20c a5bd 7e5f 12be e402 a63d 40a8 f33d
00000390: 7a46 09be 8d50 e9b9 39c0 0bbc aa41 eabd
000003a0: 75db 193e 215c ce3d 030e 223e 870a e43d
000003b0: e4e2 2a3d 9986 e13d d219 22bd 774c 31be
000003c0: 8c75 d13c 1fe5 ccbd 0ebc dd3c 44d4 643d
000003d0: 1e74 80bd e8a1 183e 8934 d53d 83b7 ed3c
000003e0: c5af 073e be54 e7bc 1871 023c efea bc3d
000003f0: 972c c43d e84e 0f3d eff0 2dbd 7db3 ad3d
