model/model_checkpoints.pth (torch_old, 266852 bytes, 40 tensors)

lstm1.weight_ih_l0 f4 [128, 2]
000000 39 9b 1e be 0d 95 63 bd 15 5e e2 bc c9 d2 ee 3c
       -0.154889 -0.055562068 -0.027632752 0.029153245
000010 23 89 d0 bb c3 4e 8a 3d a1 8c 41 bd 06 38 0a 3e
       -0.006364004 0.06753304 -0.047253255 0.13497934
000020 70 2f 49 3d 71 45 78 bd 4a da a8 bd 78 61 35 3e
       0.049117506 -0.0606131 -0.0824476 0.17712963
000030 b8 28 62 3c e7 1a ce 3d 7e 1c 70 3d 0b c0 f7 bd
       0.013803653 0.10063725 0.058620922 -0.12097176
000040 87 f4 2c be d5 32 e7 bc 7e 91 e5 3d 9a 0d 6c bd
       -0.16890155 -0.02822248 0.11209391 -0.05763016
000050 d1 91 86 3d 97 e4 c2 bd 40 de 54 3d a7 29 51 bd
       0.06570781 -0.09516256 0.051969767 -0.051065113
000060 cb f4 e5 bd b8 91 16 be 1f 81 06 3c 9b 68 11 3d
       -0.11228331 -0.14704025 0.008209496 0.03550015
000070 9d 2c 0c 3e 5a 12 f4 bc 41 97 43 3c be 9e cb 3d
       0.13688894 -0.029793907 0.011937917 0.09942387
000080 4c f7 8b bd be f2 20 3c 63 75 06 be 59 2a 3b 3d
       -0.068342775 0.009823499 -0.13130717 0.045694683
000090 cc 3f 16 3e 4a 9a 12 be 64 7a 19 be 75 c0 09 be
       0.14672774 -0.14316669 -0.14988095 -0.13452323
0000a0 20 3e 2f be c1 64 fc 3d 64 c9 eb bd 8e 65 1e be
       -0.17113543 0.12323905 -0.115130216 -0.15468428
0000b0 04 99 85 3d 0e ab d9 3c 41 65 eb 3d d7 45 0a 3e
       0.06523326 0.026570823 0.11493922 0.13503204
0000c0 7f 31 74 3d c4 0b 16 3e 88 83 bf bd c7 19 2e bc
       0.059617516 0.14652926 -0.093512595 -0.010626263
0000d0 9f 68 a4 bd 96 35 8a bd 2a a6 30 be cc b1 1b 3e
       -0.080277674 -0.06748502 -0.17250887 0.15204543
0000e0 f7 61 f8 3d 27 eb a2 3d f9 59 fb bd d6 ae 09 be
       0.1212806 0.07955008 -0.1227302 -0.13445601
0000f0 d7 e7 e1 bd 57 15 9f 3d 4f cc 20 3e 0b b5 b8 bc
       -0.11030548 0.07767742 0.15702938 -0.022547266
000100 2d 85 d4 3d 27 42 89 3d 3f 1e a1 3d 6e a3 1f 3e
       0.10376964 0.06702071 0.07867097 0.15589687
000110 6b 52 04 be d4 0a 66 bc 39 f0 04 be bf 9a a0 bd
       -0.12922065 -0.014040668 -0.12982263 -0.078420155
000120 36 dc 0c 3e 8e 45 fc 3c 56 00 d3 3d b4 de f0 bc
       0.13755879 0.030794885 0.103027984 -0.029403068
000130 84 77 be bc 9f 2a c1 3d 3f 77 ba bb a7 d3 f3 3d
       -0.023250349 0.094319575 -0.005690485 0.11905604
000140 a9 18 96 3d 36 80 18 be 68 e2 ab 3d bb 55 4a 3d
       0.07328922 -0.14892659 0.08392793 0.049398165
000150 b4 51 a3 3d 64 2a 6f 3d 64 73 d3 bd 81 22 58 3d
       0.07974568 0.058390036 -0.103247434 0.05276728
000160 03 9b ec bd 40 b0 ad 3d e7 e1 17 3e 19 07 5e 3d
       -0.11553004 0.08480883 0.14832269 0.054205988
000170 84 79 c6 3d d1 71 c2 bd cc 22 b4 3d 65 1d 1f 3d
       0.09691146 -0.09494365 0.087956995 0.038846392
000180 cb 21 14 be ed 30 15 be da fb f5 bd 2c 6c 4f bd
       -0.14466016 -0.14569445 -0.120109275 -0.05064027
000190 bc 27 2c bd e0 56 93 bd 25 7e c2 bd ac 2c 01 3e
       -0.04203008 -0.071943045 -0.094967164 0.12614697
0001a0 91 a1 2f 3e ab d3 80 3d 84 0c e4 3d 19 24 9b 3d
       0.17151476 0.062903725 0.111352 0.075752445
0001b0 4b 75 23 3d e9 7e 87 3d ff 76 ad bd a9 46 b8 3d
       0.03990678 0.06616003 -0.08469962 0.08997852
0001c0 6e 88 95 3d a0 f8 b2 bc 44 d1 9b 3d d2 fa 25 3d
       0.073014125 -0.02184707 0.076082736 0.040522404
0001d0 28 d7 e9 bd 0e 7d 0f 3e 17 96 8c 3c bf 5a 0f 3e
       -0.11417991 0.14012548 0.017161412 0.1399946
0001e0 92 1d 74 3c 0d 45 25 3e ec ac 80 3d df 80 ea bd
       0.014899628 0.16139622 0.06282982 -0.114503615
0001f0 af 5e a3 bd 13 a2 c0 bd 35 e3 c1 bd 00 6c 0c 3e
       -0.07977044 -0.09405913 -0.094671644 0.13713074
000200 17 75 d8 3d df 3b 0c 3e a9 c0 30 bd 8c 7c 30 be
       0.10569208 0.13694714 -0.043152485 -0.17235011
000210 ff 92 af 3c dc 3d c1 3d 49 ef d2 38 e3 fa 4b bd
       0.021432398 0.09435627 0.00010058151 -0.04979981
000220 09 8c ea bd ec 5e fa 3d 6a 14 97 3d 98 30 17 be
       -0.11452491 0.12225136 0.073769405 -0.14764631
000230 4d ce e8 3d 7e 21 c3 bd 09 35 4b 3d ad 77 06 be
       0.11367474 -0.095278725 0.049611125 -0.1313159
000240 d6 99 ad 3d 28 24 8d 3d 95 42 a1 3d 8f 6d cf bd
       0.084766075 0.06891662 0.07874028 -0.101283185
000250 dc 23 5c 3c 3c 5a b9 bc f0 92 9f bd a7 27 3d bd
       0.013436284 -0.022626035 -0.07791698 -0.046180394
000260 ce f0 02 bd eb 80 8c bd 38 00 60 3d b4 ec 62 bd
       -0.03196793 -0.06860527 0.05468771 -0.05540152
000270 02 75 3a 3c 3d b1 e7 bd 77 56 24 3e 87 6e c2 bd
       0.011380436 -0.113131024 0.16048609 -0.09493738
000280 96 12 1f 3e 65 04 b0 3b b9 9d 0d be 9a 52 d4 bd
       0.15534434 0.0053716176 -0.13829698 -0.103673175
000290 ef 02 d2 3d bc cb 32 3e 1f 63 02 be 01 84 c1 bd
       0.10254466 0.17460531 -0.12733124 -0.09449006
0002a0 4a 91 ac 3c 58 fa 0b 3e 89 95 bd 3d bf a8 53 3b
       0.021065373 0.13669717 0.09257037 0.0032296625
0002b0 b3 8f 12 3e 11 03 2e be c5 22 df 3d ed 0d f2 3d
       0.1431263 -0.16993357 0.10895304 0.118190624
0002c0 6e 6c f8 bc 32 1d 0a 3e 90 cb 28 bd 71 ac 36 be
       -0.03032514 0.134877 -0.041209757 -0.17839219
0002d0 8f 02 2e be 1d a2 6a 3d 19 26 c3 bd 08 74 1e 3e
       -0.16993164 0.05728351 -0.09528751 0.1547395
0002e0 bc 22 f0 bd 72 57 c1 3d a7 43 12 3e 7a 57 30 3d
       -0.11725375 0.09440507 0.1428362 0.043052174
0002f0 27 d5 17 be 6a 92 97 bd ba 28 d4 bd 06 e9 75 3d
       -0.14827405 -0.07400973 -0.103593305 0.06003668
000300 4b 7b b7 3c ef d4 7a bd 1a c8 03 3b 8a 7b 2a 3e
       0.022397658 -0.061238226 0.0020108283 0.16648689
000310 7d f2 bd 3d ce 92 e4 3b f8 fa b7 3d 3d d0 dd 3d
       0.092747666 0.0069755083 0.08983415 0.10830734
000320 36 f0 8a bd b7 f6 e4 bd f2 cc d3 bc 92 da 1a 3e
       -0.06784098 -0.111798696 -0.025854561 0.1512244
000330 c2 6b ae bc ed ff e4 3d c8 ff 16 3e 50 42 98 bc
       -0.021291617 0.111816265 0.1474601 -0.018586308
000340 0f 8a 12 3e d2 5e f2 bd e8 a9 16 3e a3 de a1 3d
       0.14310478 -0.11834492 0.14713252 0.07903793
000350 e3 35 ee bd 7d c6 f8 3d bc 2a 18 3e d7 f1 17 3e
       -0.11631372 0.12147234 0.14860052 0.14838348
000360 73 00 17 3e 8f ec a4 bb 4a 6a b0 3d fb ec a1 bd
       0.14746265 -0.005033083 0.08614023 -0.079065286
000370 88 99 ca bc b2 af a6 bd b5 e5 85 bd 2b c5 92 3d
       -0.024731413 -0.0813898 -0.06537954 0.07166513
000380 be e0 89 bd 48 c1 40 bd 70 43 0e be 08 19 08 3d
       -0.06732319 -0.047059327 -0.13892913 0.033226997
000390 44 df 84 3d de f6 da bd 55 93 01 3d a8 f0 26 be
       0.06487897 -0.106916174 0.031634647 -0.1630274
0003a0 4c 00 91 bd 8b 0a a4 bd d7 b3 17 be 84 c0 0e be
       -0.07080135 -0.080098234 -0.14814697 -0.13940626
0003b0 81 58 60 bd f4 06 eb bd 80 80 14 3e a3 2c f0 3d
       -0.054771904 -0.114759356 0.14502144 0.11727264
0003c0 f3 1b 1b be d1 6c 5a bd 35 34 a6 3c 6b cd 10 3a
       -0.1514738 -0.05332643 0.020288566 0.0005523774
0003d0 f2 42 d6 3d 0a d1 f3 bd 35 84 07 bd 6c f6 ec bd
       0.104619876 -0.119051054 -0.033085067 -0.11570439
0003e0 a2 5f 2e be c1 d5 80 bd 7b 15 95 bd 08 70 35 3d
       -0.17028669 -0.0629077 -0.07279488 0.044296294
0003f0 4a 06 c3 bc 21 6b b3 3d ec e2 38 3d 44 42 a5 3d
       -0.02380671 0.087606676 0.045138285 0.0806928

lstm1.weight_hh_l0 f4 [128, 32]
000000 16 d9 2a 3e b6 91 15 be de 51 09 be 2e 92 0f be
       0.16684374 -0.14606366 -0.13410136 -0.14020607
000010 9c c8 fd bc d5 5c 8e bd 9c 69 34 3c c3 0b a6 3c
       -0.030979447 -0.069513 0.011011507 0.02026928
000020 d8 14 ca bd 92 f3 17 be 05 66 14 3e 64 a6 11 bb
       -0.09867257 -0.14839008 0.14492042 -0.002222442
000030 dd d3 85 3d a8 14 b4 bc 26 10 9b 3d df f2 1f 3e
       0.0653455 -0.021982506 0.075714394 0.15619992
000040 da 9c f0 bc 25 83 0b be 2c 9a 39 3d 6e ef a9 bd
       -0.029371668 -0.13624246 0.045313045 -0.08297621
000050 81 91 1c be ac 71 d5 3d da 1b e6 3d 23 b0 0d 3e
       -0.1528988 0.10422072 0.11235781 0.13836722
000060 12 b0 2c 3e 47 8c a5 3c ec 0b 25 3e 42 37 b9 3d
       0.1686404 0.020208491 0.16117829 0.09043743
000070 25 f1 8c 3d 0b 8c 74 3d 3a e7 06 be b0 f3 e4 3d
       0.06881932 0.059703868 -0.13174143 0.11179292
000080 e3 d9 2a be f0 a5 ea bd cb 5e 0f 3e ef 8d db bd
       -0.1668468 -0.11457431 0.14001004 -0.10720431
000090 38 63 c2 bd 7f 2c 02 3e 1e a3 23 be 68 c7 87 bd
       -0.09491581 0.12712286 -0.15980193 -0.066298306
0000a0 80 32 b3 3d 5b 33 31 3e 9b 00 81 bd 07 a4 68 bc
       0.087498665 0.17304747 -0.062989436 -0.014199263
0000b0 d9 21 18 3e 8b 1f 0f 3e b4 c0 9a bd 30 03 15 3e
       0.14856662 0.13976876 -0.075562865 0.14551997
0000c0 e9 07 02 3d f4 1f e0 3d 4c ee 32 3e ad ad bb bd
       0.031745825 0.109435946 0.17473716 -0.091639854
0000d0 19 f6 72 3d 00 2c 2e bd ba 15 28 3e bc dc 5d bd
       0.05931673 -0.04252243 0.16414538 -0.054165587
0000e0 24 ba b1 bd 6b 57 08 be 63 8e b1 bd 92 7d 68 3b
       -0.08678082 -0.13314597 -0.08669736 0.0035475236
0000f0 74 e2 fa bc e8 44 f0 3d 17 fa b9 3d a8 2c 26 3e
       -0.03062556 0.11731893 0.09080904 0.16227973
000100 2d 96 0f 3d 0e 98 2b bd 74 5f 36 3e 63 16 10 be
       0.03505533 -0.041893058 0.1780985 -0.1407104
000110 e3 2e 2b be 34 21 ad 3d 0d 79 8b 3d fc 2b 07 bd
       -0.16717105 0.084535986 0.06810198 -0.03300093
000120 a6 83 d6 bd 78 e6 cb 3d 58 ff ac bd 67 41 0d be
       -0.10474329 0.09956068 -0.084471405 -0.1379448
000130 6d 22 9f 3d 8d 71 34 3e 65 8f 8a 3c 02 3d a6 3d
       0.07770238 0.17621441 0.016914079 0.08117105
000140 5e 8b a6 bd 2b 48 dd bd 93 63 18 be 46 60 b6 3d
       -0.08132051 -0.108047806 -0.14881735 0.089050815
000150 b5 c6 18 be 16 9f ab bd dd 9e 9f bd ee 1a c5 bd
       -0.1491955 -0.083799526 -0.07793973 -0.09624277
000160 08 ee 54 3d 41 a3 1b 3e 19 c8 1f 3d af a2 bc bd
       0.051984817 0.15198995 0.039009187 -0.09210717
000170 e5 3f 41 bc 2b 1d 80 bd 1f 71 6a 3d 07 4c 57 3d
       -0.011795019 -0.06255563 0.057236787 0.05256274
000180 07 91 4f 3d 3a 1c 73 3c 5c 32 c0 bd 93 ee df bc
       0.05067542 0.014838273 -0.09384605 -0.02733544
000190 37 57 23 3e 33 2e 38 bd 35 79 88 bc 53 93 aa 39
       0.15951239 -0.044965934 -0.016659359 0.00032534692
0001a0 85 74 bb bd 4a ee ad bd 23 bd 7e bd fe 86 74 3b
       -0.09153084 -0.08492716 -0.062192094 0.0037311907
0001b0 ee a8 f4 bd bc 4c 20 be 82 8d 67 3d 80 c5 91 bd
       -0.11946283 -0.15654272 0.056531437 -0.07117748
0001c0 ce 67 15 3e af a4 6e 3d cb 86 7b 3d da 8b b0 bd
       0.1459038 0.058262523 0.061407845 -0.086204246
0001d0 d3 cc d4 bc 89 85 2c 3e f4 39 99 bd a5 c9 ca bd
       -0.025976574 0.16847815 -0.07481757 -0.09901742
0001e0 9a a7 78 bc 8e b3 2e bc c7 3d c2 bd ce 8a 0d be
       -0.015176678 -0.010662926 -0.09484439 -0.13822481
0001f0 07 d7 1f be 73 38 8d 3d 41 e7 94 bd 31 43 04 be
       -0.1560937 0.068955325 -0.07270671 -0.12916256
000200 c6 a9 68 3d 3e c0 cf 3d 13 e5 49 bd d9 78 2c be
       0.056802534 0.10144089 -0.049290728 -0.16842975
000210 dd d3 73 bd 5b 37 6b 3b 56 30 d6 3d db fb 0d 3d
       -0.05952822 0.0035891149 0.10458438 0.034664016
000220 8b 09 e7 bd 92 85 ed 3d 8f e9 a9 3c db 07 4c bd
       -0.11281117 0.11597742 0.020741252 -0.04981218
000230 a7 a1 62 bd 06 46 33 be fa 3b 0c be d9 f5 fb bd
       -0.055329945 -0.1750718 -0.13694754 -0.12302751
000240 ea 90 25 be e5 20 a3 bc 78 f8 a3 bd 1f 5d 00 be
       -0.16168562 -0.019913146 -0.08006376 -0.12535523
000250 89 3c e9 3d 9c 5b aa bd 0c d3 50 3c be 15 89 bd
       0.11388499 -0.08318254 0.01274563 -0.066936
000260 45 89 cd 3d 5d 2f 02 3e 3f 24 58 bd 26 fc d8 3d
       0.10035948 0.1271338 -0.052768942 0.105949685
000270 5b a1 ac 3d 68 65 e9 bd 25 2b 28 3d 79 1e 22 3e
       0.084292136 -0.11396295 0.04105677 0.15831937
000280 90 86 29 3e c6 8b b6 3d 94 86 ef 3d ef cd 0d be
       0.16555238 0.089133784 0.116955906 -0.13848089
000290 89 95 0d bc cc fc aa 3d cf 3c 21 be 45 3d 1a 3e
       -0.008641609 0.083489984 -0.15745853 0.15062435
0002a0 b8 50 c5 3c fe 9f 9c bb d9 b8 12 3e c1 93 a9 3d
       0.024086341 -0.0047798147 0.14328326 0.08280135
0002b0 89 0e c8 bd 51 1f 0c 3e 3c 2f 40 bd 86 6e c3 3c
       -0.09768397 0.13683821 -0.046920046 0.023856413
0002c0 9d 17 c4 3d 73 59 11 be 2b 9c 06 be f4 80 d8 3d
       0.095748164 -0.14194278 -0.13145511 0.10571471
0002d0 be b8 26 bd 3e 91 b5 3d a8 b2 3b 3d 13 2f 14 be
       -0.040703528 0.088655934 0.045824677 -0.14471082
0002e0 1e 71 29 be fa ed 3d bd 5f 47 eb 3c a4 6e 24 be
       -0.16547057 -0.04636953 0.028720556 -0.16057831
0002f0 cd fd 25 3e ea 90 14 be a5 e4 01 3e 0b a2 aa 3d
       0.16210099 -0.14508405 0.12684877 0.083316885
000300 7c 9b 5e bd f1 fc c8 3d 8d 13 16 3e 1f 1b f2 bc
       -0.0543475 0.0981387 0.14655896 -0.029553948
000310 62 9a 49 3c ff fe da 3d ec e5 35 3d 88 aa eb bc
       0.012304874 0.10693168 0.044408724 -0.02876784
000320 c7 a9 77 bc 8a 95 bc 3c b2 16 2a bc 00 6e e8 bd
       -0.015116162 0.023020525 -0.010381388 -0.11349106
000330 a5 2d c0 3d 3b 37 b0 3d 2e 16 17 3e 03 da 90 bd
       0.09383706 0.086042844 0.14754555 -0.070728324
000340 4e fa b4 bd bf a4 29 be 15 b5 df bd d2 fb 94 bd
       -0.08836804 -0.16566752 -0.109232105 -0.072745934
000350 70 dd bc bd cd 4e 35 bd b2 7c df bd 55 15 30 3e
       -0.09221923 -0.044264603 -0.109124556 0.17195638
000360 ff 21 09 be 97 4a c8 bd f8 1b 18 be 7f 36 cf bd
       -0.13391875 -0.09779852 -0.14854419 -0.10117816
000370 51 ca 9e 3d 2c 09 50 3a e4 07 05 be d2 9f 35 bd
       0.077534325 0.0007935937 -0.12991291 -0.04434187
000380 e5 bb b9 3b eb 5c d5 39 52 02 06 be 92 3a b6 bd
       0.0056681507 0.00040695755 -0.13086823 -0.0889789
000390 30 00 19 3c 15 77 c8 bd 65 c4 28 3e 24 3d 9a 3d
       0.009338424 -0.09788338 0.16481169 0.07531193
0003a0 8f 64 e9 3d 46 6e 2b 3d cf 34 06 be d8 89 61 bd
       0.11396133 0.04185321 -0.13106082 -0.0550631
0003b0 ea 69 d3 3d a3 24 a9 3d 0c 00 29 bc c0 52 f7 bd
       0.10322936 0.08258941 -0.010314953 -0.1207633
0003c0 fb 70 aa bd 09 88 1f be 63 df 1d be e8 90 a2 3d
       -0.083223306 -0.15579237 -0.15417247 0.07937795
0003d0 58 0e 44 bc c7 22 ca 3d 74 6b 4c bd 1f 29 55 bc
       -0.01196631 0.098699145 -0.049907163 -0.013010292
0003e0 22 74 93 bd 27 79 25 be 8f 83 d8 3d a7 98 bf bc
       -0.07199885 -0.16159497 0.10571968 -0.02338822
0003f0 01 6e 28 3e a3 77 ac bd 04 c7 80 3d 47 f2 fa bd
       0.16448213 -0.084212564 0.06287959 -0.12253242

lstm1.bias_ih_l0 f4 [128]
000000 b6 c5 97 3a 73 02 85 bd d6 2a 82 bd 91 93 17 3e
       0.0011579308 -0.06494608 -0.063558266 0.14802386
000010 8d d0 81 3d 66 39 91 3d fe 1f 30 3e 34 dd 27 3d
       0.06338606 0.07091026 0.17199704 0.04098244
000020 16 3a 6b 3d 76 46 31 be dc 1d 13 3e 7b cd 1e 3e
       0.057428442 -0.17312035 0.14366859 0.15508072
000030 3d 7f 1f 3e 6d 0d f3 bd 92 15 67 3d 27 30 e8 bb
       0.15575881 -0.11867795 0.056417055 -0.0070858183
000040 69 9e 15 3e 9c aa 01 be fe 46 d8 3d 23 e8 43 3d
       0.1461121 -0.12662739 0.10560416 0.047828805
000050 9d e5 ad 3d b2 27 24 be 75 d9 8a bd 3d 76 9a 3c
       0.08491061 -0.16030768 -0.06779758 0.018855209
000060 62 ac 17 be dc 2d 51 3d 0e 8e 45 3d c3 62 83 3d
       -0.14811853 0.051069126 0.048231177 0.06415322
000070 48 50 09 3e f8 4b 61 3c f1 dd b6 3d 41 74 8e bd
       0.13409531 0.0137510225 0.08929051 -0.069557674
000080 72 83 fc bd 75 b8 08 3c 7d 3a b7 bd c1 0a 06 be
       -0.12329759 0.008344759 -0.08946703 -0.1309004
000090 07 52 f1 bd da cd 22 3e 8f 91 32 3e 3c ae ac bd
       -0.117832236 0.15898839 0.17438339 -0.0843167
0000a0 38 ca ef 3d 6a 67 74 3b ff 07 df 3c 3f 30 e1 3d
       0.11708492 0.0037293085 0.027225493 0.1099553
0000b0 54 4e a6 3d ac 1e 11 be 04 b7 c3 bd 79 6d c5 bd
       0.08120409 -0.14171857 -0.09556392 -0.09640021
0000c0 c7 03 f9 3d f4 08 26 3e aa 00 9b bd 50 14 56 3d
       0.121589236 0.16214353 -0.07568486 0.052265465
0000d0 cb 63 7b 3d 92 57 2a bc 1c 4a ae 3d d2 d3 0e 3e
       0.061374467 -0.010396855 0.08510229 0.1394799
0000e0 dd 2c fb 3d 78 e7 1e bd b6 23 f8 bd 86 4b 67 3a
       0.12264416 -0.038794965 -0.12116186 0.00088232046
0000f0 c7 5c ba 3d 61 e1 3f bd 3c ef 32 3e 64 7b bc 3d
       0.09099727 -0.046845797 0.17474073 0.092032224
000100 a9 ee 92 bd 1c b5 81 bc 15 3f 3e 3d f5 f6 b3 bc
       -0.07174427 -0.01583343 0.04644688 -0.021968344
000110 f0 fa e0 bd 59 d9 07 3e 0c 94 33 3e b2 2f a3 3c
       -0.109853625 0.13266505 0.17536944 0.019920204
000120 6e 9c c6 3d bf f2 2f bd 04 11 da 3c 1c 04 1f 3a
       0.09697805 -0.04295611 0.026619442 0.0006065981
000130 1c b1 dc bd e9 08 2a 3e 9f 4b 02 3e 63 0d 24 3e
       -0.107759684 0.16604961 0.1272416 0.16020732
000140 9c a9 26 3d 2c 8f e9 3b 77 27 61 3b 26 36 01 3e
       0.040689096 0.007127663 0.0034355798 0.12618312
000150 04 4c 07 3e 23 92 17 be cb 56 02 3e cd 27 a7 3a
       0.13212591 -0.1480184 0.12728421 0.001275295
000160 52 a5 9a bd b6 84 cb bc cd 39 de bd ce 7f 4a bd
       -0.075510636 -0.024843555 -0.108508684 -0.04943829
000170 07 bb 1b be cc 42 81 bd ff 44 88 3d ea 4b 9d 3d
       -0.15208064 -0.063115686 0.06653785 0.07680495
000180 d8 24 c5 bc 0e 6b a3 bc 0b 7c de bc b4 2e 28 bd
       -0.02406542 -0.019948509 -0.027158758 -0.041060165
000190 70 04 a9 3d 0e 0c c1 3d 80 18 e7 bd 46 ec 15 3e
       0.082527995 0.094261274 -0.1128397 0.14640912
0001a0 b3 a5 9c bd 26 45 3a bd 3c 59 06 3d b3 2d b2 3c
       -0.07648792 -0.0454761 0.032799944 0.021750307
0001b0 c0 cd 18 3e 1e d8 a7 bd 79 18 a3 bd 0f be 53 3d
       0.14922237 -0.08195518 -0.07963652 0.051694926
0001c0 3a d9 92 3c 3b 8d e6 bd 17 b0 bb bc ba 92 bf 3d
       0.017925847 -0.11257406 -0.022911115 0.09354158
0001d0 bf 48 46 bd 76 40 21 3d fa c1 2b be 9a 84 71 bd
       -0.04840922 0.039368115 -0.16773215 -0.05896435
0001e0 80 65 be 3b 72 03 d0 3d f8 67 09 3e cf 7e 2f 3e
       0.0058104396 0.10156907 0.13418567 0.17138217
0001f0 b5 36 26 bd 0c 34 f9 3d be 88 c7 bd 4f bb 18 3e
       -0.040579516 0.1216813 -0.097428784 0.14915203

lstm1.bias_hh_l0 f4 [128]
000000 fe d8 24 3d 81 be 36 3e d8 c4 01 be b7 c6 16 3e
       0.040246002 0.17846109 -0.12672746 0.14724241
000010 c8 45 31 3e 0d 61 0a be 17 ca 0f be 74 2e 3f 3d
       0.17311776 -0.13513584 -0.14041935 0.04667516
000020 ca f0 85 3d f3 f8 d1 bd 8f 62 8a 3a 15 f7 cd bd
       0.065400675 -0.102525614 0.0010557937 -0.10056893
000030 92 85 8f 3d b7 9b b1 3d f6 fd 71 bd f7 88 e3 3c
       0.070078984 0.086722784 -0.059080087 0.02777527
000040 c4 3a 4d bd d4 27 19 3e 22 51 a1 3d b1 af bf 3d
       -0.05010487 0.149566 0.07876803 0.09359682
000050 b5 63 2c be 2e cb e8 bd 1e 1c 1b 3e 37 31 95 bd
       -0.1683491 -0.113668784 0.15147445 -0.072847776
000060 4b 69 b7 3d 4e e5 10 be 96 c1 a1 bd fc 27 08 3e
       0.0895563 -0.14149973 -0.07898252 0.13296503
000070 92 3a 18 3e bc 78 b8 3d 16 0a bb bd f1 67 8a bd
       0.14866093 0.09007403 -0.09132783 -0.067581065
000080 48 fe 7d 3d 71 9b 53 3d b1 a5 16 3e 70 87 e0 3d
       0.06201008 0.051661912 0.14711644 0.10963333
000090 c8 06 44 bb b0 61 6f bc da 30 b5 bd 76 7b 09 be
       -0.0029911269 -0.014610693 -0.08847208 -0.13426003
0000a0 47 35 68 bc 3d a0 1a 3d e4 5a 2f 3e 43 58 bf 3d
       -0.014172859 0.03775047 0.17124516 0.093430065
0000b0 20 41 b7 3d 68 0f d9 3d f5 19 04 bc 2b b1 80 bd
       0.089479685 0.10598642 -0.008062829 -0.06283792
0000c0 74 af 8a ba fe 1d 13 be f2 13 0d be 48 b3 0e 3d
       -0.0010580854 -0.1436691 -0.1377714 0.034838945
0000d0 93 5e b6 bd 0e 32 a3 bd e6 e0 2a 3d 9b 34 1f be
       -0.08904757 -0.079685315 0.041718386 -0.15547411
0000e0 bd 37 bf 3d e3 41 f2 bd 02 e3 a4 bd d9 f7 09 3e
       0.09336803 -0.11828973 -0.08051111 0.13473453
0000f0 c8 bb 1b be 0f 38 05 be c5 62 fe bd 95 0d 03 3e
       -0.15208352 -0.13009666 -0.124211825 0.1279815
000100 66 bb 2c 3e 35 04 60 3c af 1a ce bc 08 a7 9f bd
       0.16868362 0.013672878 -0.025159208 -0.077955306
000110 67 d3 2d 3e b6 8a bd 3d 1e e7 2d bd 2c 03 31 3e
       0.16975175 0.09254973 -0.04245674 0.17286366
000120 9e 8c c7 3d a5 80 2a 3d 90 01 fc bd 68 85 27 be
       0.097436175 0.04162659 -0.123049855 -0.16359484
000130 9d 61 3c bd de 30 95 bd 41 6a 16 be b3 2c 2e bb
       -0.04599153 -0.07284711 -0.1468897 -0.0026576936
000140 84 d4 4e 3d 35 4a c2 3d c3 26 13 3e aa 4c 29 3e
       0.05049564 0.0948681 0.14370255 0.16533151
000150 65 33 27 bd 2a a4 92 3d 9c 75 f6 bd 69 d5 3f 3c
       -0.040820498 0.07160218 -0.12034151 0.011708596
000160 42 97 a8 bd 53 de 05 3e ee 5f 50 3d d3 1c 98 3d
       -0.08231975 0.13073091 0.050872736 0.07427373
000170 e8 44 bf 3d 53 4a b1 3d a1 3a 57 3d 8e 11 ca 3d
       0.09339315 0.08656754 0.052546147 0.098666295
000180 83 5e a6 3d 01 f6 28 3e 2e 75 8a 3c 8d 37 f1 bd
       0.081234954 0.16500093 0.016901579 -0.117781736
000190 03 48 95 bd 4d a5 46 bd ae 5f 27 3e ec 24 b8 bd
       -0.07289126 -0.048497487 0.16345093 -0.08991417
0001a0 2f 59 fc 3d 0b ec 8d 3d 5f 2f 9d bc 7e 52 09 be
       0.12321698 0.06929787 -0.019187627 -0.13410375
0001b0 de 53 a3 bd be 97 24 3e 1c 8e d5 3d 11 f1 1c 3e
       -0.07974981 0.1607351 0.10427496 0.15326335
0001c0 9c c0 d2 bd ee 66 0b be 2f 23 dc bc 90 9c 83 3c
       -0.102906436 -0.13613483 -0.026872246 0.016065866
0001d0 b9 f8 30 be 56 5d e8 3d 9a ff cc 3d 66 66 03 bd
       -0.1728238 0.113459274 0.1000969 -0.032080077
0001e0 e5 44 5c 3d 63 0b 1d 3e b0 4c 15 3e 18 3d 30 bc
       0.05377664 0.15336375 0.14580035 -0.010756753
0001f0 6e e9 e4 bd 9d 46 02 be b5 89 26 be f6 1e 03 bd
       -0.11177336 -0.1272225 -0.16263469 -0.03201195

lstm1.weight_ih_l1 f4 [128, 32]
000000 fd 90 88 3d f7 21 f4 3c cf ab ec 3d 0e 8a 0a be
       0.06668279 0.029801352 0.115562074 -0.13529226
000010 4c 31 b8 bd 54 35 09 bd 3c 7a 20 be b9 2a 0e bd
       -0.08993778 -0.033498123 -0.15671629 -0.034708712
000020 5e 13 16 be 11 cd 0a 3e 68 a1 d3 bd 1d b6 fa 3d
       -0.14655825 0.13554789 -0.1033352 0.122417666
000030 87 c5 1f be 1f a1 13 3e 2f ca 2c be 50 24 fa bc
       -0.15602694 0.14416932 -0.16874002 -0.030534893
000040 16 67 01 3c 92 35 b2 3d 74 f9 a9 3d ec 89 c9 bd
       0.007898113 0.08701624 0.082995325 -0.0984076
000050 18 e0 fe 3d c7 74 f4 3d 12 fe c0 3b f0 30 17 be
       0.12445086 0.11936336 0.0058896625 -0.14764762
000060 1b bc a8 3c dc 3e c4 3b 3e 15 14 be 04 a5 b3 bd
       0.020597508 0.0059889387 -0.14461228 -0.087717086
000070 74 df d9 3d 23 cc 16 be f5 04 9f 3d 46 a4 43 3c
       0.106383234 -0.1472631 0.07764617 0.011941021
000080 b5 69 11 3e 92 17 07 3e 87 89 9b bd 65 38 c4 3d
       0.1420048 0.13192585 -0.07594591 0.09581069
000090 47 7f fa bd b3 4b cd 3d 6c 6a 0b 3d a4 c5 21 3e
       -0.122313075 0.10024204 0.03403704 0.1579805
0000a0 68 fc 22 be 22 52 a5 3d 6b 40 30 3e b6 6a 89 bb
       -0.15916598 0.08072306 0.17212074 -0.004193629
0000b0 a6 d6 dc 3d 31 e6 22 3e ef 8f c8 bd de a9 97 3d
       0.107831284 0.15908124 -0.09793078 0.074054465
0000c0 d9 be 90 bd 58 90 cb bd db 45 50 bd ae 70 d6 bd
       -0.07067651 -0.09939641 -0.05084787 -0.10470711
0000d0 80 98 81 3c cb a1 66 3d 90 90 ea 3d d2 70 f0 bb
       0.015819788 0.05630664 0.11453354 -0.007337668
0000e0 db ac 09 3e 89 7a 35 3d 98 e6 2a 3e fc e9 25 3d
       0.13444845 0.04430631 0.16689527 0.040506348
0000f0 17 db d9 3d 14 a6 c0 bd c8 6b 9d bd e3 3d 26 3d
       0.10637491 -0.09406677 -0.07686573 0.040586364
000100 c7 41 68 3d 8b 85 dd 3d 71 01 33 3e 6e 83 84 3c
       0.056703355 0.10816487 0.17481019 0.016175952
000110 ad 55 0b 3e a7 39 53 bd 29 37 9c bc 60 9d fb 3b
       0.13606901 -0.051568653 -0.019069271 0.0076786727
000120 9c d1 75 bb 36 ab cb bd 2e b5 6d bc 7c a6 a3 bd
       -0.003750897 -0.09944765 -0.014508529 -0.07990739
000130 4f fc 9e bc 3f 7b 10 3e f0 a6 a6 bd d3 31 b8 bd
       -0.01940742 0.14109515 -0.081373096 -0.08993878
000140 ec 3c dc bc 36 2f 09 3e fb ae 1e 3e 45 50 1c 3e
       -0.026884519 0.13396916 0.15496437 0.15264995
000150 7d 25 d9 3d d7 05 0a be 59 31 98 3d 63 69 d5 bd
       0.106028534 -0.1347879 0.07431287 -0.104204915
000160 f4 a8 33 3d 51 65 30 3e 14 ab bf bc 26 ff 76 3d
       0.043862298 0.17226149 -0.023397006 0.060301922
000170 56 43 31 3e 11 6d 15 bd fb a2 f9 bd c5 a0 60 ba
       0.17310843 -0.036480967 -0.12189289 -0.00085688784
000180 1a dd 1a be b1 38 af bd de 34 96 bd b3 a6 57 3c
       -0.15123406 -0.08555735 -0.07334302 0.013162303
000190 3e 94 e9 bd a3 1c 83 bd 8e d9 ad bc 71 f6 80 3d
       -0.11405228 -0.064019464 -0.021221902 0.06297005
0001a0 ff 25 c1 3b 19 3e 27 bd bf f5 97 3b 41 a6 8c 3d
       0.005894422 -0.040830705 0.0046374495 0.06867648
0001b0 8e c7 01 3d 6d 59 28 3d 94 82 98 3d ed 39 26 3e
       0.03168445 0.041100908 0.07446781 0.16233034
0001c0 86 69 bc 3c 2d 96 39 3d 1e 73 31 3e 6b 84 98 3b
       0.022999536 0.045309234 0.1732907 0.0046544573
0001d0 20 b2 24 be e5 8e 21 be c9 c5 cb 3d 2d fc 90 3d
       -0.16083574 -0.15777166 0.09949834 0.07079349
0001e0 2b ff 30 3e 80 f5 30 3e 30 37 30 be 3e 4e ff bc
       0.17284839 0.17281151 -0.17208552 -0.031165238
0001f0 d8 53 09 be 70 6b 64 3c 07 04 5c bd 87 80 03 be
       -0.1341089 0.013941631 -0.05371478 -0.12841998
000200 2c c1 81 bd 79 7f a3 bc 5e 81 8d 3d 0b f2 8e bc
       -0.06335673 -0.019958245 0.069094405 -0.0174494
000210 c1 0a b5 3b 6b b6 29 be e5 f8 a0 bd 92 83 0f 3e
       0.0055249636 -0.16573493 -0.07859973 0.14015034
000220 9d 0f ca 3d e4 31 9e 3b be db a9 3d 0c f4 24 3e
       0.09866259 0.004827725 0.082938656 0.16108721
000230 a6 7e 96 3d b8 f1 c1 bd 0f d0 a2 3d 20 9e 01 3c
       0.07348375 -0.09469932 0.0794984 0.007911235
000240 dd 20 93 bc 1f 0e 0e 3e 78 59 4f bd 69 9b 1d be
       -0.017960006 0.13872574 -0.050622433 -0.15391316
000250 42 ab 11 3d 8a 23 8b bd 22 b4 20 be 32 ab a8 bc
       0.035563715 -0.06793888 -0.15693715 -0.020589445
000260 54 0a 2e 3e 98 7b db bd 6e 12 4e ba 4f a9 42 3c
       0.16996127 -0.10716933 -0.00078610226 0.011881187
000270 d5 39 b6 bd b2 44 1a be 3f 92 23 be d5 2e c1 bd
       -0.08897749 -0.15065268 -0.15973757 -0.094327606
000280 5e b5 81 bd 5c b7 ed bd d4 11 d5 bc 67 09 05 bc
       -0.06333421 -0.11607239 -0.026009478 -0.0081199175
000290 1a 43 d7 3d 7f 92 0e bd 16 08 35 3e b2 51 8b bd
       0.105108455 -0.03480768 0.17678866 -0.068026915
0002a0 dc b0 1f be e7 a2 84 3d 2e c2 2e 3e cc a1 1a be
       -0.1559481 0.06476384 0.17066261 -0.15100783
0002b0 b0 f5 34 3e be ca aa 3d fa b8 a8 bd cf 74 bf bd
       0.17671847 0.08339451 -0.082384065 -0.09348451
0002c0 67 a8 27 3e 45 9d d0 3d df f7 8e bd 5e 68 28 bd
       0.16372834 0.10186247 -0.069808714 -0.041115157
0002d0 76 99 1a be e1 34 19 3d 63 e0 1d be b8 a9 10 3e
       -0.15097603 0.037403945 -0.15417628 0.14127243
0002e0 6c c1 09 be 26 5d ce bd 7e 53 19 3e 00 00 41 3b
       -0.13452691 -0.100763604 0.14973256 0.0029449463
0002f0 8b 40 89 3d b5 13 c9 bd c1 c6 9d ba ce ce 07 be
       0.06701764 -0.09818212 -0.0012037383 -0.13262483
000300 2a 93 80 bc 75 d6 a6 bd 6d 23 e9 3d 41 26 8f 3d
       -0.015695173 -0.08146373 0.1138371 0.06989718
000310 eb 43 15 be dd 67 a7 bc 38 39 8a bd 45 d0 bd bd
       -0.1457669 -0.020435268 -0.06749195 -0.0926824
000320 ee cb b7 bc 60 f9 1f be 03 9d dd 3d f2 46 06 3e
       -0.022436108 -0.15622473 0.10820963 0.13113001
000330 20 df 2e bc f5 71 41 3d ca 76 d7 bd 05 f5 7c 3d
       -0.010673314 0.04722782 -0.10520704 0.061757106
000340 9a 8f 85 bd 55 38 27 bc 1d 88 cb bc 6f ad 6a 3d
       -0.065215304 -0.010206302 -0.024845177 0.057294305
000350 ec 00 1d 3e 82 ce 90 bc c9 dc 1b 3e e0 94 97 3c
       0.15332383 -0.017676596 0.15220942 0.018503606
000360 6e 44 2f 3e c6 59 65 bd 32 14 c8 3d 0e e4 a5 bc
       0.17115948 -0.055993818 0.09769477 -0.020250347
000370 97 28 74 bc 2f e3 31 be 12 b1 06 3e 0f eb 7a bd
       -0.0149022555 -0.1737182 0.13153484 -0.061259326
000380 5c 6d c7 bd 36 ba f8 3d 0c 4c 20 be d4 78 27 3e
       -0.097376555 0.12144892 -0.1565401 0.16354686
000390 e5 38 9b 3d b7 d3 9a bd 1e 57 d7 3c 5f 56 a1 3d
       0.07579211 -0.07559913 0.026286658 0.07877802
0003a0 c4 1e 09 be e3 b9 d9 3d 73 6d d7 bd 3d f3 10 be
       -0.13390642 0.10631158 -0.10518923 -0.14155288
0003b0 41 69 d2 3d 43 75 9c 3d 93 4f db bb a7 54 4b 3d
       0.10273982 0.076395534 -0.0066928356 0.049641278
0003c0 6c 63 0b be ea 27 f4 3b fc 40 93 3c 24 42 2d bd
       -0.13612145 0.007451047 0.017975323 -0.042299405
0003d0 26 38 07 3d 10 a0 06 3c a4 63 e7 3d f6 9f 06 bd
       0.03301253 0.008216873 0.11298302 -0.032867394
0003e0 74 2c 96 3d 89 34 cf bb 99 95 1d be 82 d4 9e 3d
       0.073326975 -0.0063234014 -0.15389098 0.077553764
0003f0 1a 83 f6 3d 7e 83 16 3e 76 06 f6 bc 75 26 29 be
       0.120367244 0.14698598 -0.030032378 -0.16518576

lstm1.weight_hh_l1 f4 [128, 32]
000000 8e 30 fd bd 3b dc 2b bd 25 87 11 bd 54 4c 05 3e
       -0.12362777 -0.041958075 -0.035529274 0.13017398
000010 98 40 2c bc 34 4f 0a be 94 d0 1a bd c2 89 10 3e
       -0.010513447 -0.13506776 -0.03779657 0.1411505
000020 1a 49 8e bd c1 6a 63 bd df 65 f6 bd 39 b0 31 be
       -0.06947537 -0.05552173 -0.12031149 -0.1735238
000030 92 7b c2 bd 6e 36 91 3d 4d 74 28 3e 45 0b 26 3c
       -0.094962254 0.0709046 0.16450615 0.010134523
000040 4f fb 13 be 57 cc d7 3d a8 10 b9 bd c1 1f af 3d
       -0.14451335 0.105370216 -0.0903638 0.085509785
000050 ee ea 4a 3d 08 1a 15 3e 9f f8 2a 3e fa fb 0d 3e
       0.049540453 0.14560711 0.16696404 0.13865653
000060 21 52 89 bd b6 39 96 bd 30 1b d8 bd 26 a9 26 3e
       -0.06705118 -0.07335226 -0.105520606 0.16275463
000070 cb 54 9b 3d 51 23 72 3d 4b 5a 0b 3c fb 1d 9f bd
       0.07584532 0.05911571 0.008505414 -0.0776939
000080 dc 78 f1 bd b6 bb 28 be 3f f9 67 bd 9b 04 8e bd
       -0.1179063 -0.16477856 -0.056634184 -0.06934472
000090 0b ba 9b 3c 65 df cf bd a2 45 b9 bc fe fc 0f 3e
       0.01900961 -0.10150031 -0.022616211 0.14061353
0000a0 f6 49 3f 3d e8 de 27 3e b6 7b f6 3d e3 9c 0d bd
       0.046701394 0.16393626 0.12035315 -0.034573447
0000b0 5f 9b c6 bd b6 83 01 be d5 24 2f 3e 13 3e 18 bd
       -0.096976034 -0.126479 0.17103894 -0.037168574
0000c0 9d 61 d6 3d 0f f1 db bd 17 c0 e2 bd 97 d8 04 be
       0.10467837 -0.10739338 -0.110717945 -0.12973247
0000d0 4b 72 af 3d 9f 08 20 3e f9 6a 16 3e 4f cd 7a 3d
       0.085667215 0.15628289 0.14689244 0.061230954
0000e0 70 bd 2a bd 35 4e bb 3d 63 df 2c be f1 61 cc 3d
       -0.041684568 0.09145776 -0.1688209 0.09979618
0000f0 e0 45 86 bd a5 4b 6b 3c 6e c5 5e 3d 2b f7 de 3d
       -0.06556296 0.014361297 0.054387502 0.10886987
000100 8d 56 72 3d 97 f6 de bd dc 6a 18 3e a2 96 aa 3d
       0.059164573 -0.10886877 0.14884514 0.08329512
000110 73 d9 a9 3d 61 59 1c be 2c 59 12 be a1 8c 02 bd
       0.08293428 -0.1526847 -0.14291829 -0.031872395
000120 eb 38 04 bd 3a 01 1a 3c 50 e6 c8 bd 24 c4 28 bc
       -0.032280844 0.0093997065 -0.098095536 -0.01030067
000130 74 40 70 bd 73 26 42 3d 74 5f 9c bc 63 3b 62 3d
       -0.058655217 0.04739995 -0.019088484 0.055232417
000140 35 e7 06 3d 0d 7a 20 be 58 f7 6a 3c ca 8d b2 3d
       0.03293534 -0.15671559 0.014341198 0.0871845
000150 dd 1f c7 bd 9c c7 b3 bc 00 6d 16 be 42 2b 2f be
       -0.09722874 -0.021945767 -0.14690018 -0.17106345
000160 4e fc e3 bd 2f fa af bd 34 99 df bc b1 1d 24 be
       -0.11132108 -0.085926406 -0.027294733 -0.16026951
000170 fb 44 0b be 0d 8f 55 3c af 1f de bd 80 eb 04 bd
       -0.13600533 0.013034594 -0.10845887 -0.032451153
000180 98 e2 1a 3e 2c af 16 be df 6a aa bc 38 a6 80 3d
       0.15125501 -0.1471526 -0.020802913 0.06281704
000190 90 58 87 3d 01 67 99 bd e0 3e e3 bd 6e 24 8b 3d
       0.06608689 -0.074903496 -0.11095977 0.06794058
0001a0 cf c9 d4 3d 8e 33 ed 3d 0c ad 30 bd a7 03 9f 3d
       0.103900544 0.11582099 -0.04313378 0.077643685
0001b0 94 de 32 3d 52 e1 9f bc 4b 23 d1 3d 87 8f 9e 3d
       0.0436693 -0.01951662 0.1021181 0.077422194
0001c0 72 98 01 3d 53 0e a2 3d 09 3d 9f 3d 2a e8 27 be
       0.031639524 0.079128884 0.077753134 -0.16397157
0001d0 40 d7 5d bd 78 ac 66 3d a7 5a a0 3d 13 93 18 be
       -0.054160357 0.056316823 0.078297906 -0.14899854
0001e0 91 75 64 bc ba 32 ae 3d 0c ea 63 bd 79 1e 2c 3e
       -0.013944046 0.08505769 -0.055643126 0.168085
0001f0 37 fc c5 bd 47 2e 2c 3d b1 2a 6e bc 18 db 2a 3d
       -0.09667247 0.04203632 -0.014536546 0.04171285
000200 bb c6 0a be 1f 20 a4 3d a1 64 45 3c 48 29 01 be
       -0.13552372 0.08013939 0.012047918 -0.12613404
000210 90 43 4b bc 9a 5f 30 3e 89 c6 aa 3c 51 da da bd
       -0.012406245 0.17223969 0.020846622 -0.10686172
000220 8f 22 0d 3d 0e e5 2b be a7 46 ac 3d dd a4 03 be
       0.034456786 -0.16786596 0.08411913 -0.12855859
000230 48 bf eb bd 06 f5 16 bc ae 68 49 3b ef 97 56 bd
       -0.115110934 -0.009213692 0.003073256 -0.05239099
000240 47 7b 32 3c 88 6a 98 bd 0b d8 27 be 92 11 6a 3c
       0.010893649 -0.07442194 -0.16391008 0.014286416
000250 03 2d 7a bd bc 21 d5 3c cb 4d 0f be fe f0 ea 3d
       -0.061078083 0.026017062 -0.1399452 0.11471747
000260 d6 9c a2 3d 0d 35 aa bd 08 08 2a 3d d4 11 1b be
       0.0794007 -0.083109 0.041511565 -0.1514352
000270 9f bc 2b 3e 5c c1 7c 3d f0 92 34 3e de 5a 92 3d
       0.16771172 0.06170784 0.17634177 0.07146238
000280 b4 b4 26 3e 42 b9 80 bd 51 07 d9 bd 54 9b 8a 3d
       0.1627987 -0.06285335 -0.105970986 0.06767908
000290 9e d4 a6 bd a8 05 03 3e a0 83 b2 bd 78 c8 22 be
       -0.08146022 0.12795126 -0.08716512 -0.15896785
0002a0 82 a6 b7 3d b9 c6 e5 bb 71 0c 18 3d 5e 13 95 bd
       0.08967306 -0.007012215 0.03712124 -0.072790846
0002b0 32 39 1f be 93 8c 91 3d be 28 a7 bc 83 43 a7 bd
       -0.15549162 0.071068905 -0.02040517 -0.08167174
0002c0 5d eb 7c bc 27 18 14 3e 44 b4 00 be d7 02 0f be
       -0.015436974 0.14462338 -0.12568766 -0.13965927
0002d0 cc 81 15 3e 91 66 da bd cb dd 8b 3d 99 21 35 be
       0.14600295 -0.10664094 0.06829413 -0.17688598
0002e0 65 65 ec bc 38 d3 e6 bd 73 3a 0a bb e2 30 98 3d
       -0.028856942 -0.112707555 -0.0021091967 0.07431199
0002f0 51 1d 67 bd 9e ee 2d 3e 34 7b d7 bd b0 17 de bd
       -0.056424443 0.16985556 -0.10521546 -0.10844362
000300 59 68 95 3d 55 65 be bd f9 9d 9f bd 35 ac 5e bd
       0.07295293 -0.09296671 -0.07793803 -0.05436345
000310 f3 17 e2 3c 36 90 34 be b7 6e eb 3d ca 19 2f bd
       0.02759931 -0.17633137 0.114957266 -0.042749204
000320 62 e0 e8 bc b6 41 bc bd a1 21 aa 3d d2 db e2 3d
       -0.028427307 -0.09192221 0.083071955 0.11077084
000330 fa 5d 80 bd 70 a4 f1 3d 7a e6 2c be 96 a9 99 3d
       -0.062679246 0.11798942 -0.16884795 0.07503049
000340 2d 7c 6a 3d f7 6f b9 bc f4 2c 34 be 3e f2 34 3e
       0.05724733 -0.022636397 -0.17595273 0.17670533
000350 58 c7 36 bd 2f 94 b4 bd c4 a2 a4 bc e5 d5 0b 3e
       -0.044623703 -0.08817326 -0.020097144 0.13655813
000360 6c 7e f0 3d 4e 3d fb bd fa e5 1c 3e 8d 91 31 be
       0.11742863 -0.12267552 0.15322104 -0.1734068
000370 21 fa 71 bd 71 fe 04 3e cd 13 8f bd 73 3d ff 3d
       -0.059076432 0.12987687 -0.069861986 0.124628924
000380 e1 6d b6 bd 69 0a 75 3d 58 eb ad 3d b6 d5 97 3d
       -0.089076765 0.05982438 0.08492154 0.07413809
000390 f6 96 e7 bd 7f 3a ae bc 7a 32 21 3e 86 e4 99 3d
       -0.113080904 -0.021268127 0.15741912 0.075142905
0003a0 84 06 24 bc 2b c6 2f 3d 99 69 32 bc c1 d9 0e be
       -0.010011319 0.042913597 -0.010889434 -0.13950254
0003b0 1b 11 16 3e c2 64 0e 3e 60 c4 f0 3d 18 f5 a6 3d
       0.14654963 0.13905624 0.117562056 0.08152217
0003c0 c6 bb 25 3d 09 9c 39 3d f2 dd f1 3d 28 1c 6e 3d
       0.040462278 0.045314822 0.11809911 0.05813232
0003d0 22 fe 4b bd f1 d2 90 3d c2 0c 19 be 3c 98 ac 3d
       -0.049802907 0.07071484 -0.14946273 0.08427474
0003e0 8d d9 bb 3d 91 a1 0d 3c f0 ca cf bd 00 ea 08 3d
       0.09172354 0.008644477 -0.10146129 0.033426285
0003f0 18 ee 95 bd f9 d3 8d bd 03 0c b1 3d 63 67 55 bd
       -0.073208034 -0.06925196 0.08644869 -0.05210055

lstm1.bias_ih_l1 f4 [128]
000000 2a 7f a6 bc 52 1e a8 bd ff 9b 16 be 24 c2 84 3d
       -0.020324308 -0.08208908 -0.14707945 0.06482342
000010 6b 72 db 3d 6c d7 17 be 14 c1 1f 3e 20 6d f4 bd
       0.10715183 -0.1482827 0.15600997 -0.119348764
000020 ee 26 27 3e 16 82 88 bd 52 87 ae bc 9e 1e 2b 3e
       0.16323444 -0.06665437 -0.02130476 0.16710898
000030 d4 82 a2 3c 5c 3e 11 3e 9f e6 f4 3c 28 7f dc bd
       0.019837774 0.14183944 0.029895125 -0.10766441
000040 4c e3 25 3e 4f 11 96 3d 32 aa be 3c da a5 eb bc
       0.16199988 0.0732752 0.023274515 -0.028765608
000050 a6 7c 85 3d 9a 3c 80 3c 01 88 f9 3c 40 ef f3 3d
       0.065179154 0.015653897 0.03046036 0.11910868
000060 02 0f f4 bd 71 24 1e bb 16 bc 8b bd ae 72 e8 bd
       -0.11916925 -0.0024130607 -0.06822984 -0.113499984
000070 a8 1e 03 be d2 a6 16 be 53 6e 67 3b 43 39 64 bd
       -0.12804663 -0.14712074 0.003531356 -0.05571867
000080 72 73 2d 3e 66 92 18 be 5e 38 12 be 42 b8 16 3d
       0.1693857 -0.14899597 -0.14279315 0.036796816
000090 99 ba 07 bc 62 9a a1 bd 32 c9 f9 3c 9f 56 17 3e
       -0.008284234 -0.07890774 0.030491445 0.14779137
0000a0 66 b2 08 be fd ef e7 bd 4f c4 a7 bd dc 88 d0 3d
       -0.13349304 -0.11325071 -0.0819174 0.10182354
0000b0 ac 19 4c bd a9 5e 12 be 6b 76 d9 3d a8 28 e9 bd
       -0.04982917 -0.14293922 0.106182896 -0.11384708
0000c0 8f 6e ed 3b 5d ff ba bd 95 79 14 be 8a 16 e1 3d
       0.0072458456 -0.09130738 -0.14499505 0.10990627
0000d0 f0 ca 29 bd b3 37 40 bd 75 4b a5 3c 2c fb e8 3c
       -0.041453302 -0.04692812 0.020177582 0.02844008
0000e0 50 8b 19 3e 29 6c 39 bd f8 56 06 3e 48 a1 d6 3d
       0.1499455 -0.045269165 0.13119113 0.10479981
0000f0 eb 62 f5 3d 6a c3 c5 3d 6b 68 0c 3e 1b 9b d2 bd
       0.11981758 0.09656413 0.13711707 -0.1028349
000100 95 85 8e 3b ad 2f dd bd 33 cb 8a 3c 70 bf 7f bd
       0.0043494203 -0.10800109 0.016942596 -0.06243843
000110 a1 6a 20 3e 2d ee 0f be 3a 33 92 ba 02 a7 09 3e
       0.15665676 -0.140557 -0.0011154183 0.13442615
000120 ca 6e 4e 3d bb f3 a8 3d ce 97 ce bd 9b 7a 29 3e
       0.050398625 0.08249613 -0.10087548 0.16550677
000130 a2 61 5c bc bd b8 db bd 39 ec 0d be 49 58 29 be
       -0.013451012 -0.107285954 -0.13859643 -0.16537584
000140 24 48 35 be 90 8f 18 be 11 8c 82 bd ea f6 da 3d
       -0.177033 -0.14898515 -0.06374372 0.10691626
000150 2f c6 ab 3c bf a8 c8 3d a9 5b 18 be c4 8d 8b 3d
       0.020968525 0.09797811 -0.14878716 0.06814149
000160 41 62 8a 3d a0 dd b3 bc d3 36 05 3e 46 fd bc 3d
       0.06757022 -0.021956265 0.13009195 0.092279956
000170 60 64 04 3e cb 71 6e bd 43 fa 18 3e c0 1d 82 bd
       0.12928915 -0.05821399 0.14939217 -0.063533306
000180 8f 62 2e bd 6a 3b 19 3b 83 d6 34 3d f4 1e ee bd
       -0.04257446 0.002338136 0.044149887 -0.116269976
000190 5b d4 28 be 2d 1d 67 3b b3 cb 2d be 96 06 d9 3d
       -0.16487257 0.0035265193 -0.16972236 0.10596959
0001a0 48 99 f2 3d 92 28 b2 3d b1 7c b3 3d 77 98 fc bd
       0.11845642 0.086991444 0.087640174 -0.12333768
0001b0 28 d0 06 3e 9d 19 14 3e 0d 7e 4a 3c 84 0c ad 3b
       0.13165343 0.14462896 0.012359154 0.005281033
0001c0 d5 e8 f7 3c 7e e7 07 3e 3d 99 0d 3e ed 1a 6a bd
       0.03026239 0.13271901 0.13827987 -0.057154585
0001d0 b2 1f e1 bd 5b c4 96 bd a6 95 17 be 11 06 11 bd
       -0.109923735 -0.073616706 -0.1480318 -0.035406176
0001e0 70 cd 2c 3d d2 0e 15 3e bd 1d 04 3e 8a 53 22 3e
       0.042188108 0.14556435 0.12901969 0.1585218
0001f0 fd eb 53 3d 9c 0b bf 3d 9a 83 f1 bd 66 63 a4 3d
       0.051738728 0.09328386 -0.11792679 0.08026771

lstm1.bias_hh_l1 f4 [128]
000000 46 17 9c 3d ff 11 87 bd df 01 18 3e d7 57 9b 3d
       0.076216266 -0.06595229 0.14844464 0.075851135
000010 95 00 4d 3d eb d5 f3 3c 89 d8 0b 3d 5f 3c 02 be
       0.050049383 0.02976509 0.03414205 -0.12718342
000020 24 d1 92 3b 96 04 e5 bd 69 7e 0b be ce cb 21 3d
       0.004480498 -0.11182515 -0.1362244 0.039501004
000030 75 d6 1c be 87 3d 2c bd 2e f8 d4 3c c7 2f c2 bd
       -0.15316184 -0.042050865 0.025997248 -0.09481769
000040 40 c0 11 3e 08 13 29 bd ef 22 23 3e 7a e9 ea bc
       0.14233494 -0.041277915 0.15931295 -0.028675783
000050 7a ed 02 3d 0b 4d c8 3b 64 a8 1e 3d dd 99 29 be
       0.031964757 0.0061127 0.03873481 -0.165626
000060 4b ee 21 bc dd 28 74 bc 55 a3 39 3d 3d 0f 0f bd
       -0.009883474 -0.014902321 0.04532178 -0.03492664
000070 fe 8a 91 3d 3c d5 68 3d 4d 12 00 be 98 34 1c 3e
       0.07106589 0.05684398 -0.12506981 0.15254438
000080 e2 77 a0 3d 17 21 82 3b a9 bc 1b 3e da bd 3a 3e
       0.07835366 0.00397123 0.15208687 0.18236485
000090 b8 59 75 bc 63 07 ab 3d 6c df 0d be ed 91 94 3d
       -0.014975004 0.08351018 -0.1385476 0.07254396
0000a0 b4 5b 49 3d 21 f5 25 be 83 4c 29 be 3d 7c b6 ba
       0.04915972 -0.1620679 -0.16533093 -0.0013922524
0000b0 0c f6 e5 3d 13 d8 88 bc 21 90 56 3d 6e bb 4b 3c
       0.1122857 -0.016704595 0.052383546 0.012434823
0000c0 4d 05 29 3e 5a dd 2a 3e bd b4 e1 bb 86 e8 6f bd
       0.16505928 0.16686001 -0.0068880008 -0.05857136
0000d0 ff 56 0b be 5c f8 b7 3d 9b b9 89 bc 53 2c f2 ba
       -0.13607405 0.08982918 -0.016812136 -0.0018476344
0000e0 77 f0 2d bd df f6 08 3d b5 cb 97 3d 3c 72 b2 3d
       -0.042465653 0.03343856 0.07411901 0.08713195
0000f0 78 25 62 3c 68 4f fa bd 1a b1 f2 bc 7f ca e4 bd
       0.013802879 -0.12222177 -0.029625464 -0.111714356
000100 26 73 30 3e 86 c6 2c 3d 2b 20 ae 3c 43 ba 3a 3e
       0.17231426 0.042181514 0.021255573 0.18235116
000110 69 c5 fc 3c 9c 76 34 3d 68 dc 4d bc 6b 5b 4d 3b
       0.030855851 0.044058427 -0.012564756 0.0031335007
000120 d7 d9 ce bd 17 e5 28 be 6b 0e fc 3c c1 d0 17 3e
       -0.101001434 -0.16493641 0.030768594 0.14825727
000130 cf 73 97 3c 3b a4 1e 3d 5c 90 19 3e 5d 25 d0 bd
       0.018487839 0.03873084 0.14996475 -0.101633765
000140 fb a5 d3 3d 68 24 bc 3d a6 4b ad bd d0 6a 95 3a
       0.10334393 0.091866314 -0.084616944 0.001139963
000150 51 ef 24 3e e9 de 80 3d 48 51 75 bd 28 b2 cc 3d
       0.16106917 0.06292517 -0.05989197 0.09994918
000160 7c 6e 38 3c 78 72 34 bd c1 05 d1 bd 77 cf da 3c
       0.01125681 -0.04405448 -0.102061756 0.026710255
000170 f5 bf 86 3c db d5 74 3c 54 5d 1f 3c b6 e2 f6 3d
       0.016448954 0.014943565 0.009726841 0.120549604
000180 81 59 50 3d 5b 13 24 3d 9f ea 26 3e f4 80 ba bd
       0.050866608 0.04005752 0.16300438 -0.09106627
000190 05 94 12 be f9 de 9e bd 30 c4 9f 3d be 0e b8 3d
       -0.14314277 -0.077573724 0.07801092 0.08987187
0001a0 f4 c3 bb 3d a6 53 1f bc 89 c8 42 bd 45 5e 26 3c
       0.091682345 -0.009724533 -0.047554526 0.010154312
0001b0 32 90 c6 bc 75 6f 25 be c1 6d dc bd 47 c4 ef 3d
       -0.02423868 -0.16155799 -0.107631214 0.11707359
0001c0 0c d3 76 bd 44 6d 8b bd 83 88 14 3e 59 1f 08 be
       -0.060259864 -0.0680795 0.145052 -0.13293208
0001d0 a6 a5 ac bd a3 c2 07 bc f0 7e 9e 3d 1d d7 6d bd
       -0.084300324 -0.008286151 0.07739055 -0.058066476
0001e0 90 65 4d 3d aa ee 26 be 8f c4 34 3d c6 c3 28 be
       0.050145686 -0.1630198 0.044132765 -0.16480932
0001f0 a1 9a 21 be 0b e3 b9 bd ab 40 a8 3c 38 da 47 bd
       -0.15781642 -0.09076508 0.020538649 -0.048792094

lstm1.weight_ih_l2 f4 [128, 32]
000000 16 e0 72 3d 92 f1 00 be 48 ed 8a bd 69 d4 de bd
       0.059295736 -0.12592152 -0.06783539 -0.10880358
000010 6b 28 10 bd 09 8b 6a bc 4e da 22 be 1f ac 1a be
       -0.035194796 -0.014315375 -0.15903589 -0.15104721
000020 07 bf c1 bd 0c 55 ae 3d ed c5 f7 bc 20 c4 1f 3d
       -0.09460264 0.08512315 -0.030245746 0.0390054
000030 e8 32 0a 3e dd 42 b4 3c 71 5e 04 3e b1 0b 01 be
       0.13495982 0.02200454 0.12926652 -0.12602116
000040 20 a5 dd 3d 76 50 ee 3d a4 8b ca 3d 38 5e 43 3d
       0.10822511 0.116364405 0.098899156 0.047697276
000050 69 71 4e bc f1 f6 2a 3e d0 29 18 3e f0 77 2e bc
       -0.012600281 0.16695763 0.148597 -0.0106487125
000060 84 6c 9e bd d8 b5 f1 bd fe 61 33 3e 68 d5 82 bd
       -0.077355415 -0.11802262 0.1751785 -0.0638836
000070 92 dc 00 3e 2a 7b 58 bd 39 54 0d 3d 06 ba a1 bd
       0.12584141 -0.052851833 0.03450415 -0.07896809
000080 bd 19 89 bd 9b 1e 40 bd 7b 3f 50 3d 75 95 23 3d
       -0.06694362 -0.046904188 0.05084179 0.039937455
000090 23 26 20 3e c0 00 ed 3d a1 ca 9c 3b c3 24 03 be
       0.15639548 0.11572409 0.0047848974 -0.12806992
0000a0 9d 27 89 bd 8e a9 b7 3d ce e7 b0 bd 99 10 2d 3e
       -0.06697009 0.08967887 -0.08637963 0.16900863
0000b0 f5 39 f7 3d f7 1d 33 3e 21 76 6e 3d 34 c1 eb bd
       0.12071601 0.174919 0.058218125 -0.1151146
0000c0 05 b7 bc bd 61 a0 22 be 62 ac fa bc 40 34 6d 3d
       -0.09214596 -0.15881492 -0.030599777 0.057911158
0000d0 6f 35 a0 3d 3e c2 1e 3e 07 83 9a 3a 74 63 22 3e
       0.07822692 0.15503785 0.0011788317 0.15858251
0000e0 bd 8a 58 3d 18 ee 05 be f9 3c 85 3d 6f 49 1d 3d
       0.052866686 -0.13079107 0.0650577 0.03840011
0000f0 29 5c 20 be 78 9e a7 bc ed 8d da 3d 36 03 0f bd
       -0.15660156 -0.020461306 0.106716014 -0.03491517
000100 40 82 ff 3d bc d4 06 3e 58 bb e9 bc b7 5c 03 be
       0.12476015 0.13167089 -0.028531715 -0.12828337
000110 b4 6d 15 be 68 fb a6 3c 79 8e b7 3c 3a 6d c2 bd
       -0.1459263 0.020383552 0.022406803 -0.094934896
000120 f0 87 cc bd 93 36 2d 3e 5a 1a b9 bd 2d 24 6c 3d
       -0.099868655 0.1691535 -0.09038229 0.057651687
000130 77 f8 0d be fd a8 32 3e 07 42 0a 3e 7b 9d 2e 3e
       -0.13864313 0.17447276 0.1350175 0.17052262
000140 63 e9 12 3d 28 cf 54 bb ce 26 9e bc 54 70 e8 3d
       0.035867106 -0.0032472108 -0.019305613 0.1134955
000150 7f 89 00 be 2b 3e 06 3d 15 df 67 bd 14 d9 f6 bd
       -0.1255245 0.03277413 -0.056609232 -0.12053123
000160 7c 2e da bd 62 54 30 be f4 c0 06 be df a0 ec bd
       -0.106533974 -0.1721969 -0.13159543 -0.11554121
000170 39 97 e3 3c ac 9b f3 3d 4c f2 d3 bc 5c 94 08 3e
       0.02778207 0.118949264 -0.025872372 0.13337845
000180 c9 7f 8a 3c ac 68 97 3d 04 b9 10 3e 61 7e 1b be
       0.016906636 0.073930115 0.14133078 -0.15184928
000190 e5 1d f4 bc 91 f8 0c 3d 70 50 40 3c 2f 69 2f be
       -0.029799411 0.03441674 0.011737928 -0.17129968
0001a0 b3 8d d7 bd 84 06 e4 3c 48 4b 16 be 68 1d 36 be
       -0.10525074 0.027835138 -0.14677155 -0.17784655
0001b0 b0 90 0e be ed 09 e2 bd 28 fc 0a 3e dc e3 a4 3c
       -0.13922381 -0.110370494 0.13572752 0.020128183
0001c0 15 37 e3 bc a2 9b be 3d ba f8 0b 3d e1 3a b1 3b
       -0.027736226 0.09307028 0.03417275 0.0054086302
0001d0 29 b3 d1 3d 77 6a 23 3c e2 b2 33 3e 43 59 ce ba
       0.1023925 0.009974114 0.17548707 -0.0015743155
0001e0 4b 70 ad bd c1 a9 a7 3d 4a 8d 04 3e 52 1e e9 3d
       -0.08468684 0.08186675 0.12944523 0.11382736
0001f0 52 11 b2 bb 91 ea 17 be b3 90 46 3d 6a 6d f3 bd
       -0.0054341936 -0.14835574 0.04847784 -0.118861035
000200 15 27 8f bb 54 a6 9f bb 2d 3c 19 bd 2e 2d 85 bd
       -0.0043686726 -0.004872123 -0.037410904 -0.06502758
000210 4c bf 8a bd 33 f9 22 bd 1b 58 4b bd a0 94 1b 3e
       -0.06774768 -0.039788436 -0.04964457 0.15193415
000220 bc 6a 31 3e 27 01 17 bb 9a eb 1a be 66 8d 48 bd
       0.17325872 -0.0023041458 -0.15128937 -0.048962973
000230 49 88 b1 3d 75 e2 dc bd be ac 23 3e 3a b3 2e be
       0.086685725 -0.10785381 0.15983865 -0.17060557
000240 f5 aa 52 bd a5 12 ee bd 8c 45 83 bd 76 c4 e8 bd
       -0.05143257 -0.1162465 -0.064097494 -0.11365597
000250 e0 52 d9 3d 36 50 07 3e bd 76 19 be ae a4 10 be
       0.1061151 0.13214192 -0.14986701 -0.1412532
000260 e7 8b 9a 3d 70 4b b2 bd f6 ee 13 bd 93 4f 02 be
       0.075462155 -0.08705795 -0.036116563 -0.12725668
000270 92 3f 19 be e5 38 62 3c 71 67 f6 ba 4b c6 87 bd
       -0.14965656 0.01380751 -0.0018799138 -0.06629618
000280 03 d6 08 be 49 42 04 3e 1e 4f b1 3d 63 40 89 bd
       -0.13362889 0.12915911 0.086576685 -0.06701734
000290 1e 37 89 3d db 70 f4 3d 19 6d 21 3e 5b 3b af 39
       0.06699966 0.11935588 0.15764274 0.00033422824
0002a0 77 37 84 bc 4b f3 ca 3d d5 d2 75 bc 6a 55 cd 3d
       -0.016139729 0.09909686 -0.01500388 0.10026057
0002b0 4d 03 bc bd 55 ae 35 3e 8f b7 77 bc ef 6c a3 3d
       -0.09180317 0.17742284 -0.015119447 0.07979762
0002c0 09 ce 67 3c b3 f5 bb 3d b5 3b c6 3d 9b 99 5d 3d
       0.014148244 0.09177723 0.09679357 0.054101568
0002d0 45 7e 9e 3d 8c bf a9 3d 22 2c 81 3b f6 b9 b4 bd
       0.07738928 0.08288488 0.0039420286 -0.08824532
0002e0 c8 78 2a bd fc db 28 bd 3e d6 5f bd 86 cc b4 bd
       -0.041619092 -0.04122542 -0.054647677 -0.08828072
0002f0 39 6d 30 be f0 de 5d bd 71 9a e6 bb 6f 1e 8d bc
       -0.17229165 -0.054167688 -0.007037454 -0.017226426
000300 33 09 b2 bd 66 f3 47 bd fa 45 a4 bd 06 41 36 bc
       -0.08693161 -0.048816107 -0.080211595 -0.011123901
000310 29 39 04 bc e7 3e 04 3e 46 8a 3e 3d 68 bd 88 bc
       -0.008070269 0.1291462 0.046518587 -0.016691878
000320 db 3c fe 3d 4c 20 e6 3d c3 69 50 3d 6b ef 26 3e
       0.12413951 0.11236629 0.050882112 0.16302268
000330 f7 78 fd bd 5f d2 1d bd cf 3f 64 3d 6a 2b 61 3d
       -0.12376588 -0.038530704 0.055724915 0.054973044
000340 c2 01 f0 bd eb e9 ec bd e6 db 78 3d 99 ac 55 3b
       -0.11719085 -0.11568054 0.060756586 0.0032604097
000350 60 a1 4c 3c 0d 54 31 be df 42 35 bd 11 b0 2d be
       0.012489647 -0.17317219 -0.044253226 -0.16961695
000360 13 c2 10 3e 4f fb 28 be 48 fb 29 3e 8f d5 ed 3d
       0.14136533 -0.16502117 0.16599762 0.11612999
000370 1e b2 33 3d d9 9e 2e bd 78 af 73 bb 64 22 fd 3d
       0.043871038 -0.042631958 -0.0037183445 0.12360075
000380 42 1e ff 3d 11 4a 3c bd fb 25 18 bd 4a 5e 14 bd
       0.12456943 -0.045969073 -0.037145596 -0.036222734
000390 f2 15 b1 bd 8f b7 9a 3b 12 70 ee bd 2b d1 2d be
       -0.08646764 0.004721589 -0.116424695 -0.16974322
0003a0 10 63 ca bd a3 f2 8a bd 1c 97 c3 3c c7 f8 b7 3d
       -0.09882176 -0.067845605 0.023875766 0.089829974
0003b0 63 7c 33 3c 3b f8 e7 bc 52 75 21 3d 4f 24 e7 3d
       0.010954949 -0.028316608 0.039418526 0.11286222
0003c0 ab 43 19 bd ff ed ee 3d b4 89 b1 3d ca 4a 06 3e
       -0.03741805 0.11666488 0.08668843 0.13114467
0003d0 f1 dc c4 bd 81 0b 13 3e 2d ed 16 3e 8f 7a 12 be
       -0.09612454 0.14359857 0.14738913 -0.14304565
0003e0 fa e5 38 be f6 96 c7 bc 17 49 21 3c 21 b9 0c be
       -0.18056479 -0.024363976 0.009844086 -0.13742496
0003f0 0c 32 e5 bd 21 ec fe 3d e9 0b 0e bd 55 e3 06 be
       -0.11191186 0.12447382 -0.034679327 -0.13172658
