main/Depth/wandb/dryrun-20200913_084210-37h4m12z/checkpoint_best.pth (torch_old, 815187 bytes, 123 tensors)

recurrent_blocks.0.weight_ih_l0 f4 [96, 3]
000000 13 8b 5e 3e 94 46 0d 3e 9c 65 24 3e 92 1c bc bc
       0.2173274 0.13796455 0.16054386 -0.022962842
000010 0f fd 0a be be 76 67 3e de 85 22 3e 60 b1 26 be
       -0.13573097 0.2260389 0.15871379 -0.162786
000020 91 14 e4 3c 76 0e 7a 3d 78 b4 1e be a6 48 4f be
       0.027841838 0.061048947 -0.15498531 -0.20242557
000030 33 aa 94 bc c3 22 08 be 92 bf f3 b7 13 14 89 bd
       -0.018147564 -0.1329451 -2.9057064e-05 -0.06693282
000040 f5 e1 d9 3d 80 4d 92 be 8a a4 bc 3d be 2d 2e 3e
       0.10638801 -0.28574753 0.09211071 0.17009637
000050 b2 26 85 3d 44 23 16 3d 24 48 48 3e 0a 38 cf 3d
       0.06501521 0.036654726 0.1955877 0.101181105
000060 ac 30 fa bd 04 23 85 3e 9f 3e 1f 3d c1 a2 51 bd
       -0.12216315 0.26003277 0.03887808 -0.051180605
000070 24 32 80 bb e0 0d c5 3c 8e c6 37 be 14 ce b2 3c
       -0.003912227 0.024054468 -0.17946836 0.021826781
000080 c5 8f 82 3d 80 fe 54 3d 6d 73 87 bd df 6d a3 bd
       0.06375078 0.052000523 -0.066138126 -0.079799406
000090 f2 29 5e 3d 7d c3 a4 3d 9c 58 7a be 60 48 0e 3e
       0.05423922 0.08045099 -0.24447864 0.13894796
0000a0 46 73 b5 3d fe e7 a5 be 04 73 c4 bc 33 f6 37 3d
       0.08859877 -0.32403558 -0.023980625 0.04491253
0000b0 89 b8 24 bd f2 c0 f0 bd 11 ea 2a be eb cc 89 be
       -0.04021505 -0.117555514 -0.16690852 -0.26914153
0000c0 fc 9e 4c 3e 60 e9 47 3d b6 e1 13 be 76 2b a6 3d
       0.19982523 0.048806548 -0.1444157 0.08113758
0000d0 b7 4f 4f 3e 06 65 01 3e 0b c9 24 3e 38 e8 df 3c
       0.20245253 0.12636194 0.16092317 0.02733241
0000e0 2f 6a a8 be c6 49 85 3e 3a 55 2b 3e 1a c3 58 be
       -0.32893512 0.26032847 0.1673173 -0.21168175
0000f0 dc 8c e1 bd bd 76 3f bd ce 73 5c 3d d7 db 28 be
       -0.11013195 -0.046744097 0.053821377 -0.16490112
000100 1d 81 51 bc 08 f4 a9 be 98 38 ce bb e3 68 46 bd
       -0.012787131 -0.33193994 -0.0062933676 -0.04843987
000110 cf 47 a7 3d bc cf fa bd 50 59 8e 3d bd fc 8d 3d
       0.08167993 -0.122466534 0.06950629 0.069329716
000120 6c ec fd 3d 86 d9 1e 3d 04 54 4c be 53 40 e3 bc
       0.123986095 0.038781665 -0.19953924 -0.027740633
000130 3d 55 b4 bd 47 91 0c be f4 20 2a be 74 ef 2d 3d
       -0.088053204 -0.13727294 -0.16614133 0.04246469
000140 61 db 8a be b1 6a 43 3d 34 ed 8c bb e1 20 05 3d
       -0.27120498 0.04770917 -0.0043007378 0.03250206
000150 31 80 29 3e a9 6f 59 3e dc eb 5f be 47 f2 01 be
       0.16552807 0.21234001 -0.21867317 -0.12690078
000160 a9 f4 73 bc 98 92 6e be db a5 52 be 62 03 84 3d
       -0.0148898745 -0.23298109 -0.20571081 0.06445958
000170 e7 91 0c be 2e 73 ff 3d e5 e5 2e 3e 4e db 41 be
       -0.13727532 0.12473141 0.17079885 -0.18931314
000180 1a 43 6c be e8 c4 e2 bd f4 ea 16 3d c7 f0 2b be
       -0.23072472 -0.11072713 0.036845163 -0.16791068
000190 1e d7 bb 3d 7c ce c0 bd e7 e3 42 be b7 51 7c 3c
       0.0917189 -0.09414384 -0.1903225 0.015400342
0001a0 3a 49 a1 3d bf ff 45 3c e0 dc 1f be 3f 4e 1f bd
       0.07875295 0.0120849 -0.15611601 -0.03889298
0001b0 71 f7 a2 be 3f ff 22 be ae 68 1e 3e 81 8d d8 bd
       -0.31829408 -0.15917681 0.1546962 -0.10573865
0001c0 10 5e 8a 3d a8 60 43 3d eb 64 2e 3d ba 0d d3 bd
       0.06756222 0.0476996 0.04257671 -0.103053525
0001d0 fd 8f 18 be fa 5c 62 be db be 52 3e 5f cf 2c be
       -0.14898677 -0.2210578 0.20580618 -0.16875981
0001e0 da a5 ba bd 83 ed 7d be 6d 31 39 3d 0b e9 b6 3d
       -0.09113665 -0.24797635 0.04521315 0.08931168
0001f0 a0 4b 13 be 99 58 47 be c1 dd c5 3c 36 ca 00 3e
       -0.14384317 -0.19467391 0.024153592 0.12577137
000200 3f b0 a9 bc a3 3c 1b 3d d9 77 b1 3d 8c 22 68 be
       -0.020713923 0.037899625 0.08665437 -0.22669429
000210 f9 3b 7a 3e 59 cc 15 3d 13 9a af bd 5c f7 3d 3e
       0.2443694 0.036571834 -0.08574309 0.18551391
000220 de 7f 17 be 37 4d e0 bd 26 1b d9 bd 0c 02 a6 3d
       -0.14794871 -0.109522276 -0.10600881 0.08105859
000230 b1 e7 71 be ee 16 90 3e ec 81 d1 bd 9e 24 40 3e
       -0.2362354 0.28142494 -0.10229859 0.18763968
000240 a2 ec 1c be 49 ff 30 be 21 3c 30 bd 90 c7 19 be
       -0.15324643 -0.17284884 -0.043026093 -0.15017533
000250 21 db 04 be a7 51 66 bd 40 63 36 bc be 2a ca 3d
       -0.12974216 -0.056230213 -0.0111320615 0.09871434
000260 29 8d 16 be 8c 95 f5 3d e9 fb 55 3d 0c e8 c6 be
       -0.14702286 0.119914144 0.052242193 -0.38848913
000270 81 f4 de 3d 44 59 00 be b6 44 37 3e 8c 09 c0 bd
       0.10886479 -0.12534052 0.17897305 -0.09376821
000280 80 26 99 bc f8 9c eb 3d a6 8e 83 be ec 3a 7c bd
       -0.018695116 0.11504549 -0.2569477 -0.06157963
000290 f5 e6 26 3e 1a c4 e4 3d cd 49 b2 bd d2 fa 6a bd
       0.1629904 0.11170216 -0.08705483 -0.057368107
0002a0 17 e7 46 3e e6 38 42 bd 2b 7a a1 bd 5a 27 62 3e
       0.19424091 -0.047417544 -0.0788463 0.22085324
0002b0 0e b8 4a 3e a0 02 34 3e d7 1c af 3d 09 01 62 be
       0.19796774 0.17579126 0.08550423 -0.22070707
0002c0 86 09 be bd 51 17 61 3e c4 8c c4 bd e7 4c c7 3d
       -0.0927916 0.21981551 -0.095971614 0.09731465
0002d0 86 d8 1e 3e 2e 86 c5 bd 20 8c 8a 3e f9 d6 d8 bd
       0.15512285 -0.09644733 0.27060032 -0.10587878
0002e0 8f 09 e2 bd fc 44 a5 bd bc b7 3a be 22 9a 41 3d
       -0.110369794 -0.08069798 -0.18234152 0.047266133
0002f0 38 8d 2c 3e c9 66 a2 3d 3a 2a 12 be 1b d7 00 3d
       0.16850746 0.07929761 -0.1427392 0.03145514
000300 c6 5d 1c 3e 7d 6b 2d 3d fe ab 3d be bf 67 e8 3d
       0.15270147 0.042338837 -0.18522641 0.11347913
000310 9a a7 dc 3d ee 86 c7 be 81 43 91 3d 14 55 e5 bc
       0.10774155 -0.3897013 0.070929535 -0.02799467
000320 d8 32 16 be 41 6d 25 be 76 d3 f2 3c 66 67 14 3d
       -0.14667833 -0.16154958 0.029641848 0.03623142
000330 10 20 ac bc 2a 0e c0 3d 8b 6d 35 3e 22 a7 84 ba
       -0.021011382 0.093777016 0.17717569 -0.001012061
000340 24 a3 34 be 69 96 c5 3d 3b d1 18 bd 7e 1f ab 3d
       -0.17640358 0.09647829 -0.037308913 0.08355616
000350 f6 0b 2b 3d 84 f9 ab 3d e8 e3 32 3e dc 6b 7e be
       0.041759454 0.08397201 0.17469752 -0.24845833
000360 74 8a 47 be 89 cf c0 bd d4 8a b4 bd 19 94 01 3e
       -0.1948641 -0.09414584 -0.08815542 0.12654151
000370 34 1f 21 be 75 c8 49 be 39 f2 97 bd 19 07 84 bd
       -0.1573456 -0.19705375 -0.07419247 -0.06446666
000380 f1 59 b9 3d b3 61 03 bd 7c ad 00 3e 16 4d 42 be
       0.09050358 -0.032075595 0.12566179 -0.18974718
000390 ca 27 79 be d5 0f ab bd 17 b9 34 be bf 0a 63 be
       -0.24331585 -0.08352629 -0.17648731 -0.22172068
0003a0 9d 54 80 3e 2b 81 64 3c ad cd 02 bd 97 6e 26 be
       0.25064555 0.013946812 -0.03193443 -0.16253124
0003b0 6a 43 9f 3e 22 d5 b7 bd fc 13 c9 bd d9 07 08 3c
       0.3110612 -0.08976199 -0.09818265 0.008302652
0003c0 25 a0 3a be e6 f9 6b bd e3 1d d3 3d 2c 4d d0 3d
       -0.18225153 -0.05761137 0.10308435 0.10170969
0003d0 03 e6 d8 3c e4 63 47 bd db 38 50 bd 2f 02 52 3e
       0.026476866 -0.048679247 -0.05083547 0.20508645
0003e0 40 b4 95 be a1 0b 33 bd 96 10 8c 3e 89 b5 a5 be
       -0.29239082 -0.043712262 0.27356404 -0.32365063
0003f0 34 2f 2d 3e b0 0c a0 bd 92 09 a4 3b e8 eb ba bd
       0.16912538 -0.0781492 0.0050060237 -0.09127027

recurrent_blocks.0.weight_hh_l0 f4 [96, 32]
000000 90 e5 95 bd 1c fc 3a 3e 7f b6 09 3e 41 ba 24 be
       -0.07319176 0.18260235 0.13448523 -0.16086675
000010 07 80 c3 3d b7 b3 00 3d 69 df dd 3c 95 d8 12 3e
       0.09545904 0.03142139 0.02708407 0.14340432
000020 84 92 c2 3d e4 21 00 bd 90 d8 54 bd 84 c2 d7 3d
       0.09500602 -0.03128232 -0.051964343 0.10535148
000030 89 c8 d2 bc 52 51 06 3e 9a 84 f6 bb 8f 96 5b bd
       -0.025730388 0.13116959 -0.0075231316 -0.05361038
000040 2a 02 96 bd 0d 6e 52 bd 67 d4 a5 3d f8 65 9f 3c
       -0.073246315 -0.051374484 0.08097153 0.019457802
000050 d8 57 95 3d 42 95 22 3e a2 f9 85 bc 7d 0d e5 3d
       0.072921455 0.1587725 -0.016354386 0.11184213
000060 32 51 b4 39 ad 75 d6 bd 59 84 c5 bd 4d b2 38 3d
       0.0003439277 -0.104716636 -0.09644384 0.045091916
000070 ba a3 21 3e 9b 9c 9d bd 67 c8 0c 3e b6 9f bf 3d
       0.15785113 -0.07695886 0.13748322 0.09356634
000080 a7 18 fc 3d 73 c4 06 bd 70 1b 44 3e ec 07 0b be
       0.123093896 -0.032902192 0.19151092 -0.1357724
000090 af 7d 32 bd da 9e 12 3e e6 8e 9b bd b6 0b 40 3d
       -0.043576892 0.1431841 -0.07595615 0.04688617
0000a0 32 f6 79 bd 8f a6 2c 3b 31 2d 2d be 6c 54 30 be
       -0.061025806 0.0026344394 -0.1691177 -0.17219704
0000b0 e4 60 92 be 4c cd 12 be 7e 21 dc bd ee b9 b9 bd
       -0.28589547 -0.14336127 -0.10748576 -0.090686664
0000c0 91 31 96 be 45 b8 03 3e dc 90 64 bd f9 0a 03 be
       -0.2933469 0.12863262 -0.05580221 -0.12797154
0000d0 88 ca 92 3d 5c e4 fd bd 1b d9 31 be 78 a8 6b 3d
       0.07167536 -0.12397072 -0.17367975 0.05753371
0000e0 d4 6c 49 be 40 82 4c 3e 61 ff 9a 3e 5e 06 de 3d
       -0.19670421 0.19971561 0.30272964 0.10841058
0000f0 b2 28 17 3d bb c9 2d 3e a5 97 8e 3c 35 1e 98 bd
       0.036904044 0.16971485 0.017406294 -0.074276365
000100 64 50 e2 bd f6 f1 7b 3d bb 10 84 3d 10 fd 5e bd
       -0.110504895 0.06151005 0.064485036 -0.054440558
000110 78 e0 d1 bd 9f 02 03 3e 4e 13 ed 3c af e5 24 3d
       -0.10247892 0.12793969 0.02893987 0.040258106
000120 a8 81 82 bd 21 ec 75 3d 36 e6 4a 3e dd 60 da bc
       -0.06372386 0.060039643 0.19814381 -0.026657516
000130 a1 63 be 3d ce b6 05 bd 44 7d 16 be 5d 69 00 bd
       0.092963465 -0.03264504 -0.14696223 -0.031350482
000140 fa 7e b6 3d 7d 99 aa 3d 5b a0 23 be 01 19 89 bd
       0.089109376 0.08330057 -0.1597914 -0.06694222
000150 e1 3b dc bd 55 d8 d2 bd e3 26 86 bd 12 dd 27 3c
       -0.107536085 -0.10295168 -0.06550386 0.010245578
000160 e2 f0 a0 bd d9 55 4e 3e 69 0b e4 bc c7 a1 bb bd
       -0.07858445 0.20149936 -0.027837472 -0.09161716
000170 8d f4 d8 bd 9b 8e ae bd 04 c8 a3 3d 88 13 80 be
       -0.10593519 -0.085232936 0.07997134 -0.250149
000180 b0 48 96 3b 3b 03 3c 3e f6 17 eb 3c 48 30 df bd
       0.0045863017 0.18360607 0.028697949 -0.10897881
000190 a4 5e 71 bd 53 84 65 3e ef 16 1a be ff 21 27 bd
       -0.058928147 0.22413759 -0.15047811 -0.040803906
0001a0 b3 3f 03 3d 39 00 fc bb d1 7a f7 bc c0 b2 77 bd
       0.03204317 -0.007690456 -0.03020993 -0.060473204
0001b0 d1 c1 06 3e d2 5b ed bd 0a 7d 6e 3e 74 b2 92 3e
       0.13159873 -0.11589779 0.23289886 0.28651774
0001c0 47 69 52 bd cc a7 1c 3e c8 a0 6c be 95 cc 76 be
       -0.05136993 0.15298384 -0.23108208 -0.2410148
0001d0 d7 00 89 3e 74 de 82 bd 2e 89 49 3a 12 3c ab 3d
       0.26758453 -0.06390086 0.0007687983 0.08361067
0001e0 d6 38 41 bd c6 24 23 bc 12 cd 42 3d 48 59 08 bd
       -0.047173344 -0.009957498 0.04755885 -0.03328827
0001f0 e4 0a 89 bc 33 b7 7e bd b0 0f ce 3d a0 fb 1f be
       -0.016728826 -0.06218643 0.10061586 -0.15623331
000200 b3 a3 91 3d eb c0 a1 3d c4 92 80 3d 58 cb 69 be
       0.07111301 0.07898124 0.06277993 -0.22831476
000210 7a 8a cc bd 93 0a db bd 74 1b d3 bb 22 53 cf 3d
       -0.0998735 -0.10695376 -0.0064424817 0.10123278
000220 f5 bf 5d be 45 78 80 3b 1e 2d 0c bc cc 75 bb 3d
       -0.21655257 0.0039205872 -0.008555679 0.09153327
000230 26 08 88 be bf 12 07 3d d3 32 e5 bd f9 52 cd 3d
       -0.26568717 0.032976862 -0.111913346 0.100255914
000240 b2 f1 01 3d 34 f9 d6 3c 1b 4c 88 3d 4f 3b f5 bb
       0.03172464 0.026241876 0.06655141 -0.007483877
000250 be 97 e4 bd 9c a5 87 3c a5 d1 ab 3d 1d 6e 49 3d
       -0.11161755 0.01655846 0.08389596 0.049177278
000260 2a f1 39 be 92 77 23 3e 1a 55 04 3e b9 75 8b 3c
       -0.18158403 0.15963581 0.12923089 0.017023908
000270 25 a6 59 bd 36 38 f6 3d b5 79 44 bd 0d 2b be bd
       -0.053136963 0.1202244 -0.04796763 -0.09285555
000280 bb e0 e7 3d 03 aa f2 bd 37 3b 18 bd 18 2a 87 3e
       0.11322161 -0.118488334 -0.037165847 0.26399302
000290 de 93 a0 bd bf 34 f3 bc dc c5 12 bd c8 a5 e4 3d
       -0.078407034 -0.029688237 -0.035833225 0.11164433
0002a0 38 de 43 3e 99 c0 cc 3c 9b 8b 18 3c 3d d4 80 bb
       0.19127738 0.024994181 0.009310628 -0.003931551
0002b0 71 7e af 3b 1d 98 62 bd 81 c9 a9 bd 85 95 94 3d
       0.005355649 -0.055320848 -0.08290387 0.07255081
0002c0 59 25 e9 bd bf 6e 16 3d e9 f2 d8 3d 6b f0 f1 3d
       -0.113840766 0.03672671 0.105932064 0.11813434
0002d0 13 38 9b 3d 77 18 8a 3e 95 b2 d5 bd d2 d3 34 be
       0.07579055 0.2697179 -0.104344524 -0.17658928
0002e0 86 48 8d bb d6 df 0d 3c f4 62 92 bc e1 c3 16 be
       -0.004311624 0.008659324 -0.01786945 -0.1472316
0002f0 60 77 8e bd 36 f7 8e bd b3 b9 7b 3e 94 2f 5c be
       -0.06956363 -0.069807455 0.24582557 -0.21502525
000300 4a a2 b2 3c 2f b7 41 bd 65 92 d6 bd b9 67 34 be
       0.021805901 -0.047293838 -0.10477141 -0.17617692
000310 0f d8 1d be b1 b8 9e bd 1d 09 5e bd f8 29 05 3e
       -0.15414451 -0.07750071 -0.05420791 0.13004291
000320 04 b2 65 be e2 f9 a8 3d 14 57 2a be a3 98 48 3e
       -0.22431189 0.08250786 -0.1663478 0.19589476
000330 fb 9c f9 bd 3a a8 0e be be 4f b2 bc b0 5f 19 3e
       -0.12188145 -0.13931361 -0.02176654 0.14977908
000340 f6 9d 9f 3d 0e 68 0e bc d7 24 06 3e be 22 68 3e
       0.077938005 -0.008691801 0.13099991 0.22669503
000350 43 c4 0d 3e 8a 7e 0a be 62 07 37 be 89 ea 61 be
       0.13844399 -0.13524833 -0.1787391 -0.22062124
000360 f7 b8 20 3e 32 20 d9 3c 7a d8 80 bd ed e0 32 3d
       0.15695558 0.02650461 -0.0629129 0.043671537
000370 bb b2 b5 bb 69 c1 23 3e 0c 17 78 3e fe 92 8a 3d
       -0.005544988 0.15991749 0.24227542 0.06766318
000380 af ae 67 3e a6 f7 1e 3e 51 58 85 3d 15 0a 87 be
       0.2262523 0.15524158 0.06510986 -0.2637488
000390 9d c1 f6 3d 73 92 b9 3d 55 8f bb bd 78 82 d9 bc
       0.120486476 0.09061136 -0.09158198 -0.02655147
0003a0 ad 55 0e bc e9 45 b9 3d 0c 7f 2f 3d fb 99 ee bc
       -0.008687419 0.090465374 0.04284577 -0.029126158
0003b0 7f 4d f0 bd b1 9e 35 bd a4 53 83 be 11 a4 77 bc
       -0.11733531 -0.044340793 -0.2564975 -0.0151148
0003c0 35 01 1d be d1 fd af 3d c9 af f8 bd 14 b0 14 be
       -0.15332492 0.085933335 -0.12142903 -0.14520293
0003d0 47 cf 3b bd c2 72 55 3b aa 77 e6 bc fb 0b 2a 3d
       -0.045851972 0.0032569622 -0.028133232 0.04151533
0003e0 ca c5 cf bc 43 23 2b 3d e7 0f 7f 3e 5e 26 69 bd
       -0.025362868 0.041781675 0.2490841 -0.056921355
0003f0 e9 9d 10 be dd fa f9 3d 5c 82 53 3c 37 e3 4c be
       -0.14122738 0.122060515 0.012909498 -0.2000855

recurrent_blocks.0.bias_ih_l0 f4 [96]
000000 91 b5 a9 bd 8e f2 25 3e 6c ab 97 bd 66 d2 c3 3d
       -0.08286584 0.16205809 -0.07405743 0.09561615
000010 9b 6a fb ba 6d 07 c7 bd 3f b2 35 be a6 88 0b bd
       -0.0019181551 -0.09718213 -0.17743777 -0.034065865
000020 58 81 05 be 38 56 b9 be 67 66 4e 3c 5d fb 09 3d
       -0.13037622 -0.36198592 0.012597657 0.033686984
000030 31 8b 69 be 46 9d 2f 3c a7 13 5f be b4 e2 3c be
       -0.22807004 0.010718649 -0.2178484 -0.18445855
000040 99 21 26 be 61 df 07 be 54 d9 95 bc 15 de b6 3d
       -0.16223754 -0.13268806 -0.018292107 0.089290775
000050 66 b4 25 3e dc 26 ff 3b ba fe c9 bd e1 61 5f 3e
       0.16182098 0.007786615 -0.09863038 0.21814682
000060 59 59 63 be 4b f8 2b 3c f6 0a f3 3d fe 9c 61 be
       -0.22202052 0.010496209 0.11867325 -0.22032544
000070 c6 c7 e9 3b 49 2a 29 be 91 d7 5b 3d 31 44 74 3d
       0.0071344106 -0.16520037 0.053672377 0.059635345
000080 71 67 43 3e 92 06 9f 3e 37 b2 30 3e 3d 57 19 be
       0.19082429 0.310597 0.17255484 -0.14974685
000090 92 fe c3 bd f7 ff c7 bc 2e ba 20 be bd 9a 91 3e
       -0.0957004 -0.024414046 -0.15696022 0.28438368
0000a0 c3 30 8e 3d 20 d7 8c 3d 29 5d ae 3c b1 71 6d 3e
       0.06942894 0.06876969 0.021284657 0.23187901
0000b0 31 9b ac bd 58 d0 c0 3d 76 ad fc 3d 65 8a 60 3e
       -0.08428038 0.094147384 0.123377725 0.21927793
0000c0 84 00 e5 3b b4 d8 95 3d 90 7a ca bc 4b e1 27 3e
       0.006988587 0.073167235 -0.024716645 0.16394536
0000d0 3f fc 30 3e 0e 5b 5c 3e 58 d9 1a 3e fd 48 1f 3e
       0.17283724 0.2151911 0.15121973 0.15555187
0000e0 2c bb 1a 3e c2 78 93 3d ce 6c 3f be 87 8b 2a 3d
       0.15110463 0.07200767 -0.1869385 0.04163697
0000f0 6d 24 9d 3e 86 75 a1 3c 4a 90 a5 bd 10 01 26 be
       0.30691853 0.01970936 -0.080841616 -0.16211343
000100 09 d9 0e be dc dc 06 3e d2 e4 11 3e b8 3b d0 bd
       -0.1394998 0.13170189 0.14247444 -0.101676404
000110 cd c3 09 3e b8 b0 88 3d d3 c5 2f be b3 b0 14 bd
       0.13453598 0.066743314 -0.17165308 -0.036301326
000120 cd be 31 3b 91 fa 0a be 09 bd 63 bd ca d4 41 be
       0.0027121783 -0.13572146 -0.0556002 -0.18928829
000130 69 e2 6d bd ed 6e d8 3c 2b f7 4c 3d 3c 33 5f bd
       -0.05807725 0.026420081 0.050040405 -0.05449222
000140 35 da f0 3c ca 49 99 bd 41 25 11 be 32 43 f3 3d
       0.029400924 -0.07484777 -0.14174367 0.11878051
000150 5a 21 ea bd ba 44 b7 bd dc f2 01 3e ee a7 85 3d
       -0.114321426 -0.089486554 0.126903 0.06526171
000160 d3 18 ea 3d f7 69 86 3d 8b 73 1f 3e ee f5 02 3e
       0.11430516 0.0656318 0.1557142 0.12789127
000170 0e b6 e4 bd bc a8 c0 3d 10 dc 05 be 79 cb 4a 3e
       -0.11167537 0.094071835 -0.13072228 0.19804181

recurrent_blocks.0.bias_hh_l0 f4 [96]
000000 ce 68 dd 3d 10 a8 23 3e e0 37 db 3d b4 d6 98 bd
       0.108110055 0.1598208 0.10704017 -0.07462826
000010 66 04 41 be 10 df b1 3a c6 15 23 3b 52 37 02 3e
       -0.18849334 0.0013570506 0.0024884804 0.12716416
000020 71 ec 15 bd 3c 09 0b bd b3 da d9 3d ee 5f fc 3d
       -0.03660244 -0.033944353 0.10637417 0.12322985
000030 73 e2 00 be 5f cb 8d bc bb de 55 3c bb 77 7e bd
       -0.12586384 -0.017308889 0.013053591 -0.062125903
000040 89 8e 91 3d e6 cb 7a 3c b3 c0 3e bd 0b 4e 9c bc
       0.071072645 0.015307402 -0.04657049 -0.019080183
000050 bb 6e 01 3c d1 11 59 bc 8b 48 b5 3d 3a d5 bd 3d
       0.007899935 -0.013248877 0.08851727 0.09269185
000060 00 f1 62 be 4c cd 6a 39 d8 22 fe 3d bb 76 0b be
       -0.22162247 0.00022392458 0.1240899 -0.13619511
000070 12 24 cc 38 16 bf a2 3d af d4 90 3d f8 29 c5 bd
       9.734197e-05 0.07946603 0.07071816 -0.096271455
000080 9f 1f 41 3e 20 49 b1 3e 81 1d 68 bd 9f 5a 87 bd
       0.18859719 0.34626102 -0.056668762 -0.066090815
000090 d9 70 d2 3d 92 2d 24 3e 4c 56 f6 bd cd cc c1 3d
       0.1027543 0.16033009 -0.120281786 0.09462891
0000a0 3a 6d 71 bd a9 9c 95 3d 81 5e f1 3d b3 1d 87 bd
       -0.058942057 0.07305271 0.11785603 -0.065974616
0000b0 d5 0e e5 bd 63 01 64 3d b1 96 af 3e 36 cb 6e 3e
       -0.111844696 0.055665385 0.34294656 0.23319706
0000c0 3f 83 2d be 99 93 3e 3e 1e b0 8f 3e 49 34 91 3e
       -0.16944598 0.18610992 0.28064054 0.28360203
0000d0 b7 83 58 bd 57 93 20 3d df 38 33 3e c1 eb 92 3e
       -0.052859988 0.039203014 0.17502163 0.2869549
0000e0 9e 00 2d 3e 38 35 33 3d b3 00 6e be d7 b0 90 3e
       0.16894767 0.043751925 -0.23242454 0.28259918
0000f0 7e 4b 2a 3d d2 38 4c bd 7d 7a a2 be 3a 37 64 be
       0.0415759 -0.049858876 -0.31734076 -0.22286692
000100 c9 31 db bd a3 d5 20 be 7b 3d d9 3d ce 9f 10 bd
       -0.10702855 -0.15706496 0.106074296 -0.03530865
000110 15 97 d1 3d 83 0c 47 bd 26 bd 1c 3e e2 15 5c be
       0.10233895 -0.048595916 0.1530653 -0.21492723
000120 84 d1 c1 3c 31 06 53 3d ae c9 b8 bd 3a be 4b be
       0.023659475 0.051519576 -0.09022842 -0.19896784
000130 f7 e7 f2 bc c4 2a 56 bd 1d 77 01 be 30 3f 2f bc
       -0.029651625 -0.05228688 -0.12643094 -0.010696217
000140 b7 21 e3 bd 8f 80 63 bd cf 9c e2 3d d0 5b 80 3d
       -0.11090415 -0.055542525 0.11065065 0.06267512
000150 ab ee 3a bd 44 0f 77 bd 98 66 d9 3d 09 30 22 3e
       -0.045637768 -0.060317293 0.10615271 0.15838636
000160 a1 2a 06 bd c3 3e 45 3e f0 eb 79 bc 67 99 52 bd
       -0.032755498 0.19262223 -0.015254006 -0.051415827
000170 b5 fc 0b 3e 35 af 1b 3e a6 e5 34 be 70 9e 0c be
       0.13670619 0.15203555 -0.17665729 -0.13732314

recurrent_blocks.0.weight_ih_l0_reverse f4 [96, 3]
000000 2c e3 73 bd 40 b4 3a 3d e8 ce a9 bd ee 39 5c be
       -0.05954282 0.045582056 -0.08291417 -0.21506473
000010 4d 8e 3a be c0 02 2a be d9 49 d8 bb f3 e2 40 be
       -0.18218346 -0.16602612 -0.0066006 -0.18836574
000020 f0 46 2e be 04 d6 10 be 24 b7 39 be 1c ab f3 bd
       -0.17019248 -0.1414414 -0.18136269 -0.11897871
000030 9d dd 80 be 8f 62 32 be a8 10 2c be 05 00 50 bd
       -0.25169078 -0.1742041 -0.16803229 -0.05078127
000040 11 80 91 bd 06 2d 02 bc 2a 3a 32 bd b7 ed 87 be
       -0.07104505 -0.007945305 -0.0435125 -0.2654855
000050 44 bd fb 3d 72 43 c1 bd c5 f9 34 be 17 64 00 be
       0.12291959 -0.09436692 -0.17673405 -0.12538181
000060 fd a1 cc bd 49 1f ea bd be 82 04 be e9 a7 6a bd
       -0.09991834 -0.114317484 -0.12940499 -0.057289038
000070 73 e0 46 be fb 0e f3 bc a4 27 f4 bc 4d 28 5e be
       -0.19421558 -0.02967023 -0.029804058 -0.21695061
000080 d9 56 bf bd 64 85 3d bb b9 3a 0a be ca f1 a5 3c
       -0.09342737 -0.0028918618 -0.13498963 0.020256896
000090 56 1e 97 3e 04 fe 2d 3d d9 96 5a be e8 d0 62 3d
       0.29515332 0.042478576 -0.21346606 0.05537501
0000a0 55 eb 68 be f2 2a 1e bd 2b 52 12 be de 79 09 bc
       -0.22746022 -0.038615175 -0.14289157 -0.008390872
0000b0 6b 7a e4 ba 04 7c 43 3d 8d 3a 2f bd b8 38 f8 3d
       -0.0017431503 0.047725692 -0.042780448 0.12120193
0000c0 cb 35 b7 bd 5d ff 60 3d 97 3b 26 3e 23 91 29 3e
       -0.08945807 0.054931033 0.16233669 0.16559272
0000d0 f9 1f b1 bd ca 98 2e 3e fd 90 8a bd 15 aa bf bd
       -0.086486764 0.17050472 -0.067659356 -0.093586124
0000e0 13 02 26 3e d6 5c af bd c6 c0 0b be c0 95 2b 3d
       0.16211729 -0.08562629 -0.13647756 0.04189086
0000f0 04 cc e5 3d 6c 27 40 be 50 2e 0e be ad c5 f7 3c
       0.112205535 -0.18765038 -0.13884854 0.030245626
000100 98 7d e5 3a 9c 0b 78 be 6c 95 84 3d 10 68 c4 3d
       0.0017508743 -0.24223179 0.064738125 0.09590161
000110 d7 3f d9 3d d8 3d ae 3d d4 33 7c bd c8 3a 11 be
       0.106078796 0.085078895 -0.061572865 -0.1418258
000120 83 26 82 3d 48 fb 0e be a8 59 11 be 37 46 b6 3d
       0.06355002 -0.13963044 -0.14194357 0.08900111
000130 57 4c 57 be 10 37 a7 bc fe 81 3b 3e 0c c1 1d 3e
       -0.21025215 -0.020411998 0.18311307 0.15405673
000140 d5 41 f0 bd ad cc 0b be 29 43 82 3e cd 2f 7f 3e
       -0.117313065 -0.13652296 0.25441864 0.24920578
000150 bf 4e a9 3d bb ce a1 3d e4 7e 6c be a0 e2 03 3e
       0.08266973 0.07900759 -0.2309528 0.1287942
000160 a2 99 e9 3c a3 69 f3 3d 3c c3 45 be f1 15 05 bb
       0.02851564 0.11885383 -0.19312757 -0.0020307268
000170 3d 07 f4 3c 41 fe f5 3d 24 5d 83 3d fd fd 56 3d
       0.029788608 0.12011386 0.064142495 0.052488316
000180 a2 54 d9 bd 67 da c5 3d 5b b5 bd 3d a8 ee 3f be
       -0.106118456 0.096607976 0.092631064 -0.18743384
000190 07 bd 8c bd 37 f9 37 bd 10 64 9c 3d 49 aa 9e be
       -0.068719916 -0.044915404 0.07636273 -0.30989292
0001a0 09 e9 04 3e ff 8e 05 3e 7a ab 5b 3c 06 17 96 3e
       0.12979521 0.1304283 0.013407582 0.2931444
0001b0 5f eb 1f bd ff 05 99 bc 90 48 5c 3e 1d 32 5e 3e
       -0.039042827 -0.018679617 0.21512055 0.21698804
0001c0 59 b6 17 3e da 1e 03 3e f6 be 57 be a9 42 79 3d
       0.14815654 0.12804738 -0.2106894 0.060854588
0001d0 55 73 f7 3d 45 54 07 3d 04 a4 45 38 cc 39 82 3e
       0.12082545 0.03303935 4.712121e-05 0.2543472
0001e0 b2 c7 19 3b 2d 18 c4 3b d0 a8 26 be dc cb 15 be
       0.0023464975 0.0059843273 -0.16275334 -0.14628547
0001f0 4c 9c df bd 96 d6 89 3d f5 6f bf 3d 36 a0 61 bd
       -0.10918483 0.06730382 0.09347526 -0.05508443
000200 18 34 a8 3d 64 d6 d8 bd 89 40 0c 3e a2 00 7b 3d
       0.08213061 -0.10587767 0.13696493 0.0612799
000210 10 8f 0d 3d e7 97 a4 bd 36 a3 5a 3d eb b0 b2 bd
       0.034560263 -0.080367856 0.053378306 -0.08725151
000220 da bf 31 be 54 a1 b0 3e 2c de 98 bd b2 ad 9c bb
       -0.17358342 0.34498084 -0.07464251 -0.0047814483
000230 1c 4e 92 3e 76 fb 6b 3d 78 00 4b bc 60 a5 2e 3d
       0.28575218 0.05761286 -0.0123902485 0.042638183
000240 cc 27 84 3d 05 25 27 3d 3e a8 6b 3e a2 d3 2a be
       0.06452903 0.04080679 0.23013398 -0.16682294
000250 a0 c5 df 3d 8f 31 7a bd 78 53 34 be 05 7f 45 3a
       0.10926366 -0.06108242 -0.17609966 0.0007533881
000260 3c 93 e9 3d 6a bf ae bd 2f 0f fc 3d cf 00 01 3e
       0.11405036 -0.08532603 0.123075835 0.12597965
000270 e9 b9 61 bc ee dd c9 3d 63 31 bd bd 72 1a 96 bc
       -0.013777235 0.09856783 -0.092379354 -0.018323157
000280 ff 92 84 bd 47 64 b5 3d 35 0f c3 3d 81 19 95 bd
       -0.0647335 0.08857017 0.09524385 -0.07280255
000290 b9 dc 91 3d 66 21 1f bd cd 77 3b 3e db 2e 7a be
       0.07122178 -0.03885021 0.18307419 -0.24431936
0002a0 e1 db ff 3d 3f 16 f0 3d db 8a 6d 3e 81 61 9e 3d
       0.124931104 0.11722993 0.231975 0.07733441
0002b0 be a1 11 3e af 04 fa 3d 2f 70 80 be bd 63 42 3d
       0.14221856 0.122079246 -0.2508559 0.0474584
0002c0 d5 49 eb 3b be 90 f4 bd 45 b1 72 3d e0 dc a5 be
       0.0071804323 -0.1194167 0.05925109 -0.32395077
0002d0 d4 2b 1d be 1a 4e b3 bd 68 c7 a8 3d 78 33 36 be
       -0.1534875 -0.08755131 0.08241159 -0.17793071
0002e0 73 3e 3c 3e 42 b7 0d 3e 50 f6 95 bc ea 7d e2 3c
       0.18383197 0.13839439 -0.018305928 0.027647931
0002f0 ac 47 d4 3d 9e a3 83 3d 28 75 47 bd 0b c1 2c bd
       0.10365233 0.06427692 -0.048695713 -0.042176288
000300 6e af 4b bd 18 77 0c 3e ea fe 39 bd 5a 7e e7 bd
       -0.04972785 0.13717306 -0.04540912 -0.113033965
000310 39 d2 82 3d dc 7e 0e 3e fa 6f ed bd 0b 18 a5 bc
       0.06387753 0.1391558 -0.115936235 -0.020153066
000320 75 86 b1 bd fb df cc 3d 81 c7 79 3d f1 ce 49 3d
       -0.08668224 0.100036584 0.060981277 0.04926962
000330 b0 9e 07 3e c5 79 20 be 20 2b 97 bc d0 44 cd bb
       0.13244128 -0.15671451 -0.01845318 -0.0062643066
000340 95 e8 17 3e fb b7 9d 3c 9f ff fb bb 47 27 55 3a
       0.14834817 0.019252768 -0.0076903845 0.0008131158
000350 ed 7a b8 3d 4a bc bd 3b 3a 0e ab bd 51 3c 15 bc
       0.09007821 0.005790268 -0.08352323 -0.009108619
000360 93 2a ed bd 9d b4 58 be da c4 5e be 11 c7 89 3d
       -0.11580386 -0.21162648 -0.2175478 0.06727422
000370 17 a9 2a be 28 eb 70 3d 3e ba ee bd 5b a4 4e 3e
       -0.16666065 0.058818012 -0.11656617 0.20179884
000380 45 49 ab 3d 43 33 08 be 3b a7 1d be 41 5b aa 3c
       0.083635844 -0.13300805 -0.15395825 0.020795466
000390 8a a9 13 3e e0 7e ac 3d 06 38 31 3c d8 c9 b8 bd
       0.14420143 0.08422637 0.01081658 -0.09022874
0003a0 23 c4 10 3d f6 73 8d be d4 d1 8a 3c 43 2c 05 be
       0.0353433 -0.27627534 0.016945757 -0.13005166
0003b0 92 13 09 3a 87 77 10 3e 0d d7 0a be 62 6e c6 bc
       0.00052290515 0.14108096 -0.13558598 -0.024222557
0003c0 bd 5d 26 3e aa cb cc bd 77 d1 67 3e 3a 51 b5 3c
       0.16246696 -0.09999783 0.22638498 0.022133458
0003d0 f9 b0 35 3e 0c bc 83 3e 07 bb a3 3d 6b 36 fb bc
       0.17743291 0.25729406 0.07994657 -0.030665597
0003e0 3c ff 20 3e 46 a8 28 3e 53 5f 2d 3d 2a 0d e5 bd
       0.15722364 0.16470441 0.042327236 -0.111841515
0003f0 ed 38 87 bd ba 89 64 be 76 72 85 bd 26 13 f9 3c
       -0.066026546 -0.22318164 -0.06515972 0.030404638

recurrent_blocks.0.weight_hh_l0_reverse f4 [96, 32]
000000 a7 85 22 be 93 9b 7a be e9 58 98 3d 91 07 7f 3e
       -0.15871297 -0.2447341 0.07438833 0.2490523
000010 ac 32 15 be bc 74 a9 bd d1 f3 3a 3e 8a 3f b0 bd
       -0.14570111 -0.082742184 0.18257071 -0.08605869
000020 3f 2e 40 3e 64 5d 19 3e 6a 6b 30 3b 18 51 b9 3d
       0.18767641 0.14977032 0.0026919493 0.090486705
000030 72 62 b6 3d ec 28 e9 bd f2 45 2f 3e 38 46 14 3e
       0.08905496 -0.11384758 0.17116526 0.14479911
000040 ab cd 6d 3d e1 6d 4b be 82 28 8f bd 44 0c 32 3e
       0.05805747 -0.19866134 -0.06990148 0.17387491
000050 e3 b9 09 3e 9c 9f 2a be a9 f3 3e 3e 68 d2 43 3d
       0.13449816 -0.16662449 0.18647636 0.04780808
000060 2f 88 01 3e e4 7f 34 be f5 32 00 3e 24 72 17 be
       0.12649606 -0.17626911 0.12519439 -0.14789635
000070 f9 1a 67 3e 58 f8 68 3e e4 b9 04 be a7 ca b9 3c
       0.22568883 0.22750986 -0.12961537 0.02267964
000080 7a 47 6a bd 5f 21 91 3d 6a 91 5b bd a9 d4 83 bc
       -0.05719707 0.07086443 -0.053605475 -0.016092615
000090 7d 90 26 bd 8b 79 90 be 2f 88 11 3e 16 6f 61 bd
       -0.04066514 -0.2821773 0.14212106 -0.05503758
0000a0 aa cd b2 3d b4 b3 61 3e 84 cf 93 bc 9d 35 1d 3e
       0.087306336 0.22041208 -0.018043287 0.15352483
0000b0 30 df 9b bd c6 fb c9 bd 28 47 c7 3d 5a 02 08 3c
       -0.07610929 -0.09862475 0.09730369 0.008301342
0000c0 e4 2f 4f bd 62 64 51 be 77 0e 0d be 5e c3 84 be
       -0.05058278 -0.20448449 -0.13775049 -0.25930303
0000d0 2d b3 cc 3d 12 68 d7 3c 72 87 ae 3d 34 96 f2 3c
       0.099951126 0.026294742 0.08521928 0.029612638
0000e0 d6 30 ac bc db e1 f2 bd 02 34 d9 3d 21 1f 59 3e
       -0.02101938 -0.11859485 0.10605623 0.21203281
0000f0 fd 4f 69 3d 99 9c bd 3d e4 be 26 3e 4e d8 8a bd
       0.05696105 0.09258384 0.16283756 -0.06779538
000100 6b 3e 10 be e2 ca d1 bc d9 1a 71 3d de 92 3d bc
       -0.1408631 -0.025609437 0.058863495 -0.01157066
000110 00 4a 9f 3e 3d b4 35 be ec bb 3a 3e b6 7a 53 3e
       0.31111145 -0.17744537 0.18235749 0.2065228
000120 9f 92 22 3e aa 16 89 3e 50 9d 6b be 79 7f 16 bc
       0.15876244 0.26775104 -0.23009229 -0.009185665
000130 b5 26 f5 3b 66 9b 68 bc 54 3f 4d 3d 5d 4c b6 3d
       0.007481421 -0.014197206 0.050109223 0.08901284
000140 c3 1c ef 3d 64 eb b2 bd b7 5a 41 bd 5f cd d7 3d
       0.11675408 -0.087363034 -0.047205653 0.10537218
000150 fc ff b2 3d e2 f7 51 bd db ee 13 3e f2 26 6d 3d
       0.087402314 -0.05126179 0.14446585 0.05789847
000160 0c 3a 72 bd 9b 56 23 bb 43 7d be 3d e1 b2 fe bd
       -0.05913739 -0.0024923447 0.093012355 -0.12436462
000170 4e 40 47 3e d5 58 77 3e fb cc a9 bc d0 78 26 3e
       0.19458124 0.2415498 -0.020727625 0.16257024
000180 cf 16 1f 3e 87 1e e6 3d ac 9a ba 3d 44 ad 5b bd
       0.15536045 0.112362914 0.091115326 -0.053632036
000190 83 c3 fa 3c bc d3 3e be ab 4a 9e 3b e7 7c 0f 3e
       0.030610805 -0.18635458 0.0048306785 0.1401249
0001a0 c8 3f 41 3e e5 1a 0c 3d 14 e8 d1 3d 41 8f 1b 3e
       0.18871987 0.034205336 0.102493435 0.15191366
0001b0 b5 ba 19 be ec 6c f4 bd e3 20 32 3d e8 af b6 3d
       -0.1501263 -0.11934838 0.043488394 0.0892027
0001c0 cb 51 2b be 04 df 45 be 61 74 1b bd d8 c7 0b 3e
       -0.1673042 -0.19323355 -0.037952784 0.13650453
0001d0 c4 b6 9b bd e8 21 54 be 7d 0d e5 3c 65 55 5b bd
       -0.07603219 -0.20716059 0.027960533 -0.053548235
0001e0 aa 37 4a bd d6 7d 9e bd 3f 27 2f 3e 78 c6 ad bd
       -0.04936949 -0.07738845 0.17104815 -0.084851205
0001f0 f7 68 72 bd 61 31 f0 3d cc f5 e3 3d b7 69 06 3d
       -0.059182134 0.11728168 0.111308664 0.03281566
000200 cb 9a c7 3d 90 32 8f 3d bb 16 55 3e 1d 0d dc 3d
       0.09746321 0.06992066 0.20809452 0.10744689
000210 95 e6 ec bd b3 0e a4 bd 17 c6 c8 3d 6a a3 2b bc
       -0.115674175 -0.08010616 0.09803408 -0.010475973
000220 80 54 d3 3d 9c 63 11 3e 0a 0a b9 3d 61 72 66 3d
       0.103188515 0.14198154 0.09035118 0.056261424
000230 e5 5d cf bd 1e 96 4f be 1c aa 20 be 22 81 c0 3b
       -0.10125331 -0.20272109 -0.15689892 0.005874769
000240 75 bc 3a bd cf 54 88 3b 3f 79 1c be dd 10 25 3d
       -0.045589883 0.0041605006 -0.15280627 0.040299285
000250 e3 cc f1 3d 68 74 40 3d 43 8d 8b 3d 3c b7 0a be
       0.11806657 0.046986014 0.06814053 -0.13546461
000260 f7 1d 34 3c 95 a4 dc 3c 24 4e 0c bd b0 b5 38 3e
       0.010993472 0.026933948 -0.03425421 0.18038058
000270 da c6 85 3d a4 ec 83 3d 9d 64 81 3c a8 91 0b be
       0.065320686 0.0644162 0.015795046 -0.13629782
000280 4c 85 24 bd 16 ab 04 be d7 e3 21 3e bd bf d4 3c
       -0.040166184 -0.12955889 0.1580957 0.025970334
000290 95 5b c6 bd a0 f8 02 be cd 3b be bd 4e 06 0f 3d
       -0.09685437 -0.12790155 -0.0928875 0.034918122
0002a0 40 fc 0a 3c 14 cb e6 bd 28 28 00 be 95 ad 11 3e
       0.008482993 -0.11269203 -0.12515318 0.14226373
0002b0 14 68 60 be 13 66 05 be 5a 3b 5b 3e d9 56 d5 3d
       -0.21914703 -0.1302722 0.2140936 0.104169555
0002c0 c7 3a 93 3d 24 ca 6b be ef e3 33 bc 09 f9 24 be
       0.07188945 -0.2302633 -0.010979637 -0.16110624
0002d0 c5 a5 2f 3e d3 46 bc 3c 10 7f 4c 3d d9 b1 61 3e
       0.1715308 0.02298299 0.049925864 0.220405
0002e0 9f ed ac 3d 26 e5 97 bc 44 f8 c1 bd 0c 7a 68 3d
       0.0844376 -0.018541884 -0.09471181 0.056757018
0002f0 f9 7c f7 3d 62 56 28 3e 27 09 3b 3e 00 1a 88 3e
       0.120843835 0.16439202 0.1826521 0.26582336
000300 f6 2a e5 bd 1c 9c 22 bc 82 69 9f 3d 0f 3a 45 bd
       -0.11189835 -0.009924915 0.07783796 -0.048151072
000310 07 be 16 bd b6 a4 ff bd 09 5b 40 3d d2 be 81 3e
       -0.036802318 -0.12482588 0.046961818 0.25340897
000320 c2 80 c9 3c 1b ae 92 3e 48 56 8f be 9c a2 d9 bd
       0.02459753 0.28648457 -0.27995515 -0.106267184
000330 c2 17 b5 3d 79 81 a2 3d bb 1a 74 3e 8c c7 8a 3e
       0.08842422 0.07934851 0.23838322 0.27105367
000340 ec 09 86 3e 99 cc 31 be ab 59 89 bd b9 66 78 39
       0.26179445 -0.17363204 -0.06706556 0.0002368939
000350 d1 cd 1b 3e 69 9d fe 3c 2a a7 c5 3d 96 e4 8a bc
       0.15215231 0.031080918 0.09651025 -0.016954701
000360 fe 28 2e 3e fa e9 af bd 30 22 46 3d a1 40 12 be
       0.17007825 -0.08589549 0.048372447 -0.14282466
000370 de 44 47 3e 65 91 20 3e a6 97 35 be 6d a5 3f bc
       0.19459864 0.15680464 -0.1773363 -0.011697155
000380 c4 7f 9e bd c8 e2 b5 bd 9f 00 45 be b8 d7 34 bd
       -0.07739213 -0.08881146 -0.19238518 -0.044151038
000390 df 24 9d 3d 1d 01 13 3e 98 35 38 3e f3 bb 8b bd
       0.07673048 0.14355893 0.17989194 -0.06822958
0003a0 19 09 ef 3d b0 a2 ec bd b1 d6 31 bc 78 5c 9e bd
       0.11671657 -0.11554468 -0.010854409 -0.07732481
0003b0 7c 92 b5 3a 78 e6 4c be 69 d5 b8 bc 11 6e 03 3e
       0.001385286 -0.20009792 -0.0225627 0.12834956
0003c0 73 da 4d bc 15 cb 1c bd 0c a6 23 3e 33 4f 5c bd
       -0.012564289 -0.03827961 0.1598131 -0.053786468
0003d0 8a cb c0 bd 77 f9 02 be 3f 1c 7b bd 14 8d c3 3a
       -0.09413822 -0.12790476 -0.061306234 0.0014919364
0003e0 f1 0b af 3d f4 c3 0f be 2c 63 91 3e 55 eb 3b be
       0.085471995 -0.14039594 0.28395975 -0.18351491
0003f0 e5 c0 06 be 73 20 ce 3d 24 90 89 3d 5a 59 14 be
       -0.13159521 0.10064783 0.06716946 -0.1448721

recurrent_blocks.0.bias_ih_l0_reverse f4 [96]
000000 ef 61 f9 bd 4d a7 91 3d a2 17 a4 ba 98 ae 55 be
       -0.121768825 0.07111988 -0.001251925 -0.20867383
000010 b6 15 00 3d 51 39 09 3e 11 b4 e4 bb 11 95 81 be
       0.031270705 0.1340077 -0.0069794734 -0.2530904
000020 f2 d9 83 bd 4e 5e f7 bd fa 30 c8 3c fa fa 36 be
       -0.06438054 -0.12078534 0.024437416 -0.17869177
000030 c4 b3 77 3d d8 9c ba bd 73 80 01 3e dc 83 ac 39
       0.060474172 -0.09111947 0.12646656 0.0003290464
000040 6b 33 0c be c7 e9 e1 3d 74 a0 fc bd 1e 9e 5c bd
       -0.1369149 0.110309176 -0.123352915 -0.05386173
000050 ab 5c d9 3b 05 60 96 bd fa d0 96 bd 8e 45 20 be
       0.0066333613 -0.07342533 -0.07364078 -0.15651533
000060 c0 fc 3e 3c a2 92 ca 3d bb 0a 1f be a3 51 8a bd
       0.01165694 0.09891249 -0.15531437 -0.06753852
000070 10 68 8a 3c 84 1c 92 ba 2a 49 fb bd 4e 9e d5 3c
       0.016895324 -0.0011147414 -0.12269814 0.026076462
000080 f6 45 8c 3e ed 31 ad 3d 32 01 bf 3d b6 b5 a8 3d
       0.27397126 0.08456788 0.093264 0.082377836
000090 2e cc 5b 3e 9f c6 a2 bd 54 e0 72 3e 19 66 a9 3e
       0.21464607 -0.0794804 0.23718387 0.33085707
0000a0 b9 be 3f 3d 4f b7 79 bd 0f a4 8b 3d 5d 84 31 be
       0.046812747 -0.060965832 0.06818401 -0.17335649
0000b0 5a af 81 bd 59 f0 10 3e 10 88 06 3e 46 20 1e 3e
       -0.06332274 0.14154185 0.13137841 0.15441999
0000c0 b1 63 ad 3d b6 b2 95 3e fe 44 86 3e 3f e7 86 bc
       0.0846628 0.29237908 0.26224512 -0.016467689
0000d0 32 b9 c7 bc 69 aa 02 3e d0 3c 3e 3e 07 6b 39 3e
       -0.0243803 0.12760319 0.18577886 0.18107234
0000e0 97 4f 9e 3d f7 0a 97 bd 2a 6a 89 bc 3c 1b 50 bd
       0.07730024 -0.07375138 -0.016774256 -0.050807223
0000f0 a6 b3 52 3e a0 b0 38 be 50 a8 2d bd 13 37 07 3d
       0.20576343 -0.18036127 -0.042396843 0.033011507
000100 3b bd fd bd 1a a9 8d 3d bb ab 0d bd d2 b2 66 be
       -0.123896085 0.06917019 -0.034587603 -0.22529152
000110 cd d3 3a 3e 3d 3e a6 bd df 89 21 be ff 7b 21 3e
       0.18244858 -0.0811734 -0.1577525 0.15769957
000120 43 ea 9d 3d 6a b9 15 be a5 4a f3 bd bb 5e af 3d
       0.077106975 -0.14621511 -0.11879472 0.0856299
000130 f0 56 d0 bc d1 de 3f 3e 30 97 cc 3d bb 0e 90 3d
       -0.02543208 0.18737341 0.09989774 0.070340596
000140 f0 7a 3d be 74 94 ea bd f4 1a 1b be c7 a7 9b 3d
       -0.18503928 -0.114540964 -0.15147 0.0760036
000150 a9 ce df bd eb 31 1c 3e bd 87 48 be 7c 69 e6 3d
       -0.10928089 0.15253417 -0.1958303 0.11250588
000160 ff 9c ae bd 08 53 8e 3d 68 8c 1c be 70 4d ac 3d
       -0.085260384 0.06949431 -0.15287936 0.084132075
000170 73 02 a1 3c 93 a3 21 be 4b fa 49 3e f7 c9 06 3e
       0.019654488 -0.15785055 0.19724385 0.13162981

recurrent_blocks.0.bias_hh_l0_reverse f4 [96]
000000 d6 4c 64 be ca 74 34 be 18 73 05 bd c7 23 2c be
       -0.22294936 -0.17622676 -0.032580465 -0.16810523
000010 6d 69 16 bd 2c 9e b6 bd 95 88 cb bd 63 3a 1f bc
       -0.036721636 -0.08916888 -0.0993816 -0.00971851
000020 90 7d 9d 3d 28 fd 5d 3b ac 63 b6 bd 96 7b a6 bd
       0.07689965 0.0033872817 -0.0890573 -0.08129041
000030 1a 31 a7 bd fe 89 e9 bd 78 dc 42 3c 85 67 fe bd
       -0.08163662 -0.11403273 0.011893384 -0.124220885
000040 d3 a9 40 be 1a 72 40 be 3b 01 90 be 36 9d 74 3d
       -0.18814783 -0.18793526 -0.2812594 0.05972024
000050 4b 26 e0 3c bc 78 56 be c8 31 1a be 49 18 0b bc
       0.02736201 -0.20944494 -0.15058053 -0.008489677
000060 1f 5b 85 3d 3d 63 c6 bd 29 cf 31 be 9a ac f1 3c
       0.065115206 -0.09686897 -0.17364182 0.029501248
000070 37 52 24 be b2 e6 12 3d 9a d3 40 be d4 d8 86 be
       -0.16046987 0.03586454 -0.1883072 -0.26337302
000080 cc 3d db 3d f6 32 2c be e5 9f bd 3d 89 50 af bd
       0.10705146 -0.16816315 0.09259013 -0.08560283
000090 3e e6 a6 3d 85 3f 53 3d d9 88 9f bd 61 58 0c 3e
       0.08149384 0.05157425 -0.077897735 0.13705589
0000a0 fd 66 39 3d dc 1f 6b 3e f2 b0 82 3e b9 5f 12 be
       0.045264233 0.22961372 0.25525624 -0.14294328
0000b0 7a f1 30 3e 68 32 44 3d d5 59 37 3c ec bf 0f 3e
       0.17279616 0.047899634 0.011190851 0.14038056
0000c0 8a 8c 0c bc 78 4f 54 3e 53 d3 98 3e db 07 d0 bc
       -0.008578429 0.2073344 0.29848728 -0.02539437
0000d0 08 84 93 3d 58 66 2f 3e 18 65 7d 3e 9c f2 af 3d
       0.07202917 0.17128885 0.24745595 0.08591196
0000e0 2a 02 16 3e de d9 40 bd 86 86 92 3c 8b e1 02 3c
       0.14649263 -0.047082774 0.017886411 0.007988344
0000f0 69 a4 6d bd ae 6f 83 bd eb 60 82 bd 21 8d 62 3e
       -0.058018122 -0.064177856 -0.06366142 0.22124149
000100 f1 3a 14 3e e8 6c 54 3d 33 0d 40 3e 86 30 0e 3c
       0.1447561 0.051861674 0.18755035 0.008678561
000110 46 b4 72 3d 01 f6 d6 3c cb 3b 19 be 09 a1 f4 bd
       0.059253953 0.02624035 -0.14964215 -0.119447775
000120 95 b1 f4 bc c9 97 09 3e a1 8a 4e 3d 72 93 63 bc
       -0.029869834 0.13436808 0.050425176 -0.013890134
000130 59 f9 06 3e 8e f1 46 3e b5 f6 cf 3d fa a7 2f be
       0.13181056 0.19428083 0.101544775 -0.17153922
000140 ac 81 4a 3c 87 cf ca 3d 6f d8 ff bb 94 28 8a 3d
       0.012360018 0.09902864 -0.0078077833 0.06746021
000150 34 ed e1 3d c6 20 2e 3e 97 a4 60 3d cf 24 ae 3d
       0.11031571 0.1700469 0.054844465 0.085031144
000160 d0 1e ed bd 95 84 18 3e 1e d5 d6 bd 9e 0a bb 3c
       -0.11578143 0.14894326 -0.10489868 0.022832211
000170 3c 13 95 3c 39 2f ce bb 6b 1d 59 bd 29 aa db bd
       0.018197648 -0.0062922505 -0.05300657 -0.10725815

recurrent_blocks.1.weight_ih_l0 f4 [96, 64]
000000 74 4b 0d be f1 a6 19 be 60 d2 3c be 9b 72 35 be
       -0.13798314 -0.1500509 -0.18439627 -0.177195
000010 cc 6d a8 3d 37 a8 b2 3d fe 97 87 bd 42 50 8c 3d
       0.08224067 0.08723491 -0.06620787 0.068512455
000020 97 7f 34 3e ad cf 7e 3d a7 1f fc bd c8 73 ea 3d
       0.17626797 0.062209774 -0.12310725 0.11447865
000030 c3 7b 9f 3d 1a 1a 17 be 07 8d dd 3d a3 bd 50 be
       0.077872775 -0.1475605 0.108179145 -0.2038484
000040 7b 36 91 3d 90 0a 03 be a5 7f e5 bd ed e3 c9 3d
       0.070904694 -0.12796998 -0.11205987 0.098579265
000050 13 85 b5 3d f2 6c c7 3b dc d8 12 3e b0 cc 14 3e
       0.088632725 0.0060859853 0.14340538 0.14531207
000060 ba 3f d6 bd 41 68 ed 3d 07 fc 82 3d 5f 50 d8 3d
       -0.104613736 0.115921505 0.06395727 0.105622046
000070 76 05 f0 3c 66 3b 0e be b6 3b a6 3b 4b 32 c7 3d
       0.029299479 -0.13889846 0.005073036 0.097263895
000080 a2 23 43 be 07 0c fd 3c fb 59 bd 3d 7c 9c b4 3d
       -0.19056562 0.030889524 0.09245678 0.088189095
000090 1e 8b a3 3c ae 7f 0a 3e 62 cf d5 bd 4d bd 85 bd
       0.019963797 0.13525268 -0.10439946 -0.06530247
0000a0 a2 9a ce bd 2e 79 2b be 89 33 05 3e 2e 7f 08 be
       -0.100880876 -0.16745445 0.1300794 -0.13329765
0000b0 d8 d3 19 be ba 4c fa 3d 47 fc 05 3e 54 f0 0c 3e
       -0.15022218 0.12221666 0.13084517 0.13763553
0000c0 13 c7 97 bd 0a 15 8c 3d 39 0b 9d bd 3e f4 43 3d
       -0.07411017 0.068399504 -0.07668156 0.04784035
0000d0 71 22 20 3e 94 66 17 bb 51 15 3b 3c 00 ba ab 3d
       0.15638138 -0.0023101913 0.011418656 0.08385086
0000e0 47 13 af bd 87 26 58 3e bd 33 0f be ac 6a 37 3d
       -0.08548599 0.21108447 -0.1398458 0.044779465
0000f0 2a da be 3d 90 a5 d6 bd 74 0a 75 3e e1 7a 49 3e
       0.09318955 -0.10480797 0.23929769 0.19675781
000100 03 57 ae bc ad 66 98 bd 31 3d 3c bd a6 d4 df 3d
       -0.021281725 -0.07441459 -0.045956794 0.10929231
000110 4f 73 59 3c de 3e 62 3e 61 18 80 3d 91 27 02 3e
       0.013272121 0.22094294 0.0625465 0.12710406
000120 3d 4a 08 be 3a af ba bc 3a 43 55 3e 6b 04 36 3d
       -0.1330957 -0.022788633 0.20826426 0.044437807
000130 fe e2 97 3d 34 d2 b9 3b c2 1f ee bc b2 75 26 be
       0.07416342 0.00567081 -0.029067878 -0.16255835
000140 13 64 bc 3d 83 0f 0d 3d b1 c7 30 be 68 99 02 be
       0.09198775 0.03443862 -0.17263676 -0.12753832
000150 69 6d c7 bc e7 4b 02 be 28 3a ad bd 0d 06 99 bd
       -0.024344163 -0.12724267 -0.08458358 -0.07471857
000160 48 28 5b bd 91 b8 2b 3e ed 4b 3b 3e 22 93 00 be
       -0.053505212 0.16769625 0.18290682 -0.12556127
000170 17 a9 79 bd 93 d5 23 3e 9d e4 bd 3d 53 dd 2e 3d
       -0.060952272 0.15999441 0.0927212 0.04269154
000180 16 63 01 bd b3 60 a9 bc 66 49 71 3d f3 92 09 3e
       -0.031588636 -0.020675993 0.05890789 0.13434963
000190 6d 5c 18 3e 7d 27 00 be e6 e4 e1 3c 2b 50 da bc
       0.14879008 -0.12515064 0.027574968 -0.026649555
0001a0 11 ca 3c bd 10 83 58 3e 2e cd c6 3d 74 da 03 be
       -0.046091143 0.21143746 0.09707104 -0.12876302
0001b0 ef fd 70 3d 9f 21 37 be 81 c9 13 be eb 73 e7 3d
       0.05883592 -0.17883919 -0.14432336 0.113014065
0001c0 74 95 45 bd eb 82 a1 3d 5d bd 56 3d 65 d0 04 be
       -0.048238233 0.07886299 0.052426685 -0.12970121
0001d0 8b 14 83 3c 91 55 3d be bf 59 c3 3d 96 f5 3d 3d
       0.016001007 -0.18489672 0.09538602 0.046376787
0001e0 c7 d8 c6 bd f7 6b b8 3d 5d 5a 2b 3e 2b 9f df 3c
       -0.09709316 0.09004968 0.1673369 0.027297577
0001f0 12 8d 78 bd d4 4e ab bd 90 1b ee 3d a1 83 a4 3d
       -0.06068141 -0.08364645 0.11626351 0.08032919
000200 c4 b0 07 bd 64 1c 13 3e 82 45 f9 bd 50 46 19 3d
       -0.03312756 0.14366299 -0.12171461 0.03742057
000210 54 1e 77 be ea e7 01 3e b5 7a b0 3d 68 98 40 3c
       -0.24132663 0.12686124 0.086171545 0.0117550865
000220 4d 76 fc 3d 92 a4 6a 3e 7e b9 10 3d f6 65 d2 3d
       0.123272516 0.22914341 0.03533315 0.10273354
000230 13 c9 78 bc a6 00 48 3c 19 8d 0f be f6 ae 60 3e
       -0.015184659 0.012207186 -0.14018668 0.21941742
000240 b0 4f ee bd fe 48 c6 bd 60 b1 fd bd ef 59 9d be
       -0.11636293 -0.09681891 -0.12387347 -0.30732676
000250 e9 8b f1 3d fc e7 ea bd 78 31 7b 3d 45 17 10 3c
       0.11794264 -0.11470029 0.061326474 0.00879461
000260 71 87 7b be 5e 89 8f bd d3 98 ea 3c 61 f9 9c bd
       -0.24563386 -0.070086226 0.028637325 -0.07664753
000270 1f 62 25 3d b1 73 31 bc 05 d7 cc bd 32 e0 7f 3d
       0.04037678 -0.010830806 -0.10001949 0.06246967
000280 2a 15 81 bc 5d 6e 9c 3c 2b 38 f3 bd f8 de 08 3b
       -0.015757162 0.019095594 -0.118759476 0.0020884853
000290 00 b7 1d 3d 33 08 50 be 36 31 20 3e f9 07 be bd
       0.0385046 -0.20315628 0.15643772 -0.092788644
0002a0 40 34 58 bd 97 13 a8 3d 75 df a4 bd 26 48 63 bc
       -0.052784204 0.082068615 -0.080504335 -0.013872182
0002b0 3b 11 17 be ab 32 06 be ed 59 ee bd de 3e 81 3e
       -0.14752667 -0.13105266 -0.11638246 0.25243276
0002c0 45 a3 e2 3d 3e 75 87 3d a1 df 5c 3d c2 99 35 be
       0.110662974 0.06614159 0.053924207 -0.17734435
0002d0 8b b1 42 3d 5f d1 e3 bb 1c cd ab bd e2 ac 9f 3d
       0.0475326 -0.006952449 -0.08388731 0.07796647
0002e0 19 44 20 3e fa 1a 67 bd 9e ae a9 3d ac 02 96 3c
       0.15650977 -0.05642221 0.08285259 0.01831182
0002f0 89 a8 ad 3d df 76 e1 3d 25 8a 6c be 58 b2 5d 3d
       0.08479411 0.11009001 -0.23099573 0.05412516
000300 75 4f 1f 3e a6 46 3a bd 0c 32 11 be bc 04 6a 3e
       0.15557654 -0.04547753 -0.14179248 0.22853369
000310 6a c3 68 be 62 9b fa bd 55 59 b3 3d 97 db 95 3e
       -0.22730795 -0.12236668 0.08757273 0.29269096
000320 51 2e 1f 3d dd 83 82 bd 7c 4d 8f 3e 89 56 9a bb
       0.03886253 -0.06372807 0.27988803 -0.004710023
000330 ba 93 9a bb 3f 98 3b 3e f1 76 4f be 13 ae 30 3e
       -0.0047173174 0.18319796 -0.20260216 0.17253904
000340 50 41 af 3d 91 1b bc 3d 6f 6c 4b 3e b9 80 74 3e
       0.08557379 0.091849454 0.19865583 0.23877229
000350 cf 9d 81 3d 54 62 9f bc 86 4f 36 3d 5a 55 18 be
       0.06328928 -0.019456066 0.044509433 -0.14876309
000360 57 73 29 3e 02 71 81 3d b8 45 1c be b4 20 46 be
       0.16547905 0.06320383 -0.1526097 -0.19348413
000370 89 e6 86 3e 98 de 0f bd bf 61 83 3d 31 81 38 be
       0.2634776 -0.03512439 0.06415128 -0.18018033
000380 6e f2 fe bc ff c4 0d 3d fe 1a 8a bd da 17 ae 3b
       -0.031121459 0.0346117 -0.067434296 0.005312902
000390 b7 9b 7a bc be d2 27 3e d4 ea be bd 33 ba 23 be
       -0.015295914 0.16388986 -0.09322134 -0.15988998
0003a0 a9 95 87 bd 0f cd 5b be 63 47 e4 3d 40 44 56 be
       -0.06620342 -0.21464942 0.111464284 -0.20924473
0003b0 ad fc b6 bd ce 57 59 3d 0a 6f e6 bc 4f a2 52 be
       -0.08934913 0.053062253 -0.02812912 -0.20569728
0003c0 22 01 d3 3d a9 9e 51 3e d2 aa 3f 3d 03 1e c5 bd
       0.103029504 0.2047068 0.046793766 -0.09624865
0003d0 69 06 38 be 77 a0 5e be fb f0 97 3d 42 53 88 be
       -0.17971195 -0.217409 0.0741901 -0.2662602
0003e0 e0 c3 68 3e 50 31 61 be 05 78 09 3e 0e 9c 86 bb
       0.2273097 -0.21991467 0.1342469 -0.0041079586
0003f0 e3 5f 39 be ec 88 7f 3d ff c2 a2 bd 1f c5 6d be
       -0.18102984 0.06238644 -0.07947349 -0.23219727
