main/Depth/wandb/dryrun-20200913_082720-it1e53qd/checkpoint_best.pth (torch_old, 815190 bytes, 123 tensors)

recurrent_blocks.0.weight_ih_l0 f4 [96, 3]
000000 ed 88 c1 bd cc 51 b0 bd e5 1e 34 3c 53 f7 6d 3d
       -0.09449945 -0.086093515 0.010993694 0.058097195
000010 b2 93 aa 3d 20 2d 95 bd cf a6 16 3e be ab 40 be
       0.08328952 -0.072839975 0.1471207 -0.18815514
000020 4e dd 2d bc e5 4a cf bd 70 30 54 be b5 d3 ba 3d
       -0.010611845 -0.10121707 -0.20721602 0.09122411
000030 dd c8 0b be 03 0e ac 3b da 51 f3 bc 9b 0f e7 3c
       -0.13650842 0.0052506938 -0.029702116 0.028205683
000040 f4 0d c8 bd 8e ad 60 be c5 f4 81 bd 36 6f 0a 3e
       -0.09768286 -0.21941206 -0.06345514 0.13518986
000050 f6 e2 62 be a2 f8 19 3e 21 0d 4e 3d be 2e 01 be
       -0.22156891 0.15036252 0.05030549 -0.12615487
000060 27 f0 38 bd 50 e6 81 bb 69 04 88 bd ce b6 6b 3b
       -0.045150902 -0.003964223 -0.06641466 0.0035967114
000070 2b 74 16 3e 56 39 31 3e a4 61 4a be 10 44 f0 bd
       0.14692752 0.17307028 -0.1976381 -0.11731732
000080 6e 55 dc bd 0e 2e c7 3d ec 40 0c 3b c4 ec ca 3d
       -0.10758482 0.09725581 0.0021401 0.09908441
000090 00 06 f8 bd 1e ec 96 be 90 8a ed 3d 6f 68 4c 3d
       -0.121105194 -0.29477018 0.11598694 0.049904283
0000a0 68 55 1b bd a3 46 38 be d1 4b 69 3c 05 78 3f 3e
       -0.037923247 -0.17995696 0.014239267 0.18698128
0000b0 25 c0 96 bd 9a 57 df bc a8 18 bd 3b 38 1d f2 bb
       -0.073608674 -0.027263451 0.0057707615 -0.007388737
0000c0 03 20 38 be a4 24 d5 bd 73 30 ed bd 3a 5e 42 3c
       -0.17980962 -0.10407379 -0.115815066 0.011863286
0000d0 c5 d9 e1 bd 8b 8c 2f 3e cc ee c8 bd 3d 14 07 3e
       -0.11027864 0.17143457 -0.09811172 0.13191314
0000e0 af a5 78 be 06 50 63 bd c5 2f 76 bd 12 fc 6b 3d
       -0.24281953 -0.05549624 -0.06010415 0.05761344
0000f0 9d 88 35 be cc 30 08 be d4 63 20 3e 3a 81 0d 3d
       -0.17727895 -0.13299865 0.15663081 0.03454707
000100 26 f3 69 be 9a c8 08 3e ce ac a0 bd 78 17 1a 3e
       -0.2284666 0.13357773 -0.0784546 0.15048015
000110 8e 8b cb 3d 16 3f 08 be 0d f0 86 be a3 f4 0e bd
       0.09938727 -0.13305315 -0.2635502 -0.034901273
000120 6c ad 2d 3e d9 84 2d bd f3 83 2a 3d 92 d9 d7 3d
       0.16960686 -0.04236302 0.041629743 0.10539545
000130 7b 65 92 bd 85 bc 46 3d 3d 68 e2 bd c8 92 18 be
       -0.07148262 0.04851963 -0.11055038 -0.14899743
000140 6c 36 1d be 44 02 fa bd 31 50 08 3e 03 11 8b 3d
       -0.15352792 -0.122074634 0.1331184 0.06790354
000150 01 88 06 bd 86 d6 26 bd 2e 7e 13 bd f4 45 88 bb
       -0.032844547 -0.04073193 -0.036009006 -0.0041587297
000160 50 82 6a bc fd 22 e1 b9 9e 0a ef bd 17 45 8c bd
       -0.0143132955 -0.00042941413 -0.11671947 -0.06849115
000170 bc 80 69 bd 17 f0 1f 3e 72 bd 25 be 90 d6 c9 3d
       -0.057007536 0.15618931 -0.16185549 0.09855378
000180 f9 52 0f 3e 04 e2 e8 3d 01 d5 2b be c2 95 33 be
       0.13996495 0.11371234 -0.16780473 -0.17537597
000190 b5 f2 12 3d c5 72 b7 3d 9e 92 4e bc 55 12 d4 3d
       0.035875995 0.089574374 -0.012608198 0.10355059
0001a0 76 f6 1c 3e ab dc d1 bd a9 2f 60 3d aa 33 06 be
       0.15328392 -0.10247167 0.054732952 -0.13105646
0001b0 99 2d ce 3d 06 98 57 3e 38 f8 e7 bd f0 4a d4 3d
       0.10067291 0.21054086 -0.11326641 0.10365856
0001c0 c5 75 f4 bc d7 75 f0 3c a0 fb 47 bd 49 57 4d 3e
       -0.029841313 0.029353065 -0.048823953 0.20052828
0001d0 3e db 4c be ee 4e 19 be 17 73 a1 3d 64 7b f2 3b
       -0.2000551 -0.14971516 0.0788328 0.007399963
0001e0 b9 e3 88 bd eb b9 6c 3d db f9 98 3b 89 4f 73 3d
       -0.0668406 0.057794493 0.004668457 0.059402023
0001f0 f7 5e 35 bb 7e a3 a1 bd 57 d7 0b be bb c2 a9 3d
       -0.0027675012 -0.07892512 -0.13656364 0.08289095
000200 12 a7 21 be 2c 87 ef bc 02 e5 72 3d 2c 73 19 bd
       -0.15786389 -0.02923926 0.05930043 -0.037463352
000210 b0 db d8 bd e7 5a 55 3e 7c 88 3c bd bd 63 5e 3d
       -0.10588777 0.20835458 -0.0460286 0.054294337
000220 33 3f 97 3d 03 f5 24 be ce a6 d9 bb f5 5f 9b 3d
       0.07385101 -0.1610909 -0.006642199 0.07586662
000230 50 27 44 ba 9a 0b a2 3d e4 84 c4 bd bb c7 0e 3e
       -0.00074826647 0.07912369 -0.095956594 0.13943379
000240 57 5a a3 3d b7 d9 ab 3d 4f 25 29 be 26 eb 14 3e
       0.07976215 0.08391135 -0.16518138 0.14542827
000250 ff a5 08 3e 3d 0a a0 3d d2 62 2c 3d a7 cb 26 be
       0.13344572 0.07814453 0.04208643 -0.16288625
000260 c6 14 56 bd 0b 89 7a 3d eb ea 52 3d 57 35 12 be
       -0.052265905 0.06116585 0.051493566 -0.1427816
000270 09 98 c9 3d 0c 36 e0 bc 2d e5 87 3d 7e 7e bb bc
       0.098434515 -0.027369522 0.06635509 -0.022887465
000280 50 b8 81 3d 7d e0 a6 3a 06 1d 5d 3e 69 9b 2c 3d
       0.06333983 0.0012731698 0.21593103 0.0421404
000290 6c 6f c6 bd 82 6e 20 3e 43 39 40 be 36 a6 fa bd
       -0.09689221 0.15667155 -0.18771844 -0.122387335
0002a0 95 da 2a 3e 7e e6 4a be 1e f8 4e bd 85 dd f6 bc
       0.16684945 -0.19814488 -0.05052959 -0.030134926
0002b0 df bf 01 be aa e3 c3 bb 63 4b f3 bd 5c b4 79 3d
       -0.1267085 -0.0059780674 -0.11879613 0.06096302
0002c0 e1 b1 38 bd c1 1e cb bd cf 1f cc bc 28 71 d5 3d
       -0.045091514 -0.09917975 -0.024917511 0.104219735
0002d0 95 20 a8 3b e8 37 0a be f5 39 08 be 10 d7 43 3e
       0.005130837 -0.13497889 -0.13303359 0.19125009
0002e0 5c a1 ea bb 83 93 8b 3d 07 b1 14 be 4a ad f4 3c
       -0.007160349 0.06815245 -0.14520656 0.029867787
0002f0 32 59 be 3d 4b 1a 35 bd 22 28 a6 3c 51 af 08 3c
       0.092943564 -0.044214528 0.020282809 0.00834258
000300 87 4f 20 3e a2 a9 6e 3d 27 b9 de 3d 4e a4 b8 3d
       0.15655337 0.058267243 0.10875159 0.09015714
000310 c1 13 12 3e 58 2d c2 bd 2f 78 2b bd 5a 46 b0 bd
       0.14265348 -0.09481305 -0.041862663 -0.086071685
000320 8a 53 a1 bd 06 06 e1 bd bd 1e 11 bd db 00 49 be
       -0.07877262 -0.10987477 -0.035429705 -0.19629233
000330 bb 0a 80 bb 4e df c6 3d bd 00 f8 3d 59 4d 38 bd
       -0.003907529 0.09710561 0.12109516 -0.04499564
000340 d2 5e 2f 3e f4 72 a5 bd 06 7e 91 bb 04 02 b3 bd
       0.17126015 -0.08078566 -0.004440072 -0.08740619
000350 24 d2 6e 3d 36 32 e1 bd 8b b2 53 3e 75 37 15 be
       0.058305874 -0.10995905 0.20673577 -0.14571936
000360 b7 5e 7d bd 78 de 44 3e ac fa 6e bd 7e 0d 79 bd
       -0.061857905 0.1922549 -0.058344528 -0.060803883
000370 bf 73 36 3e 26 20 01 3e 25 87 60 bc 51 6b cc 3d
       0.17817591 0.1260992 -0.013704096 0.099814065
000380 85 8e 78 3d 8b 14 12 bd e9 7f 3d bd 08 d5 5c bd
       0.060682792 -0.035664123 -0.046264563 -0.0539141
000390 71 44 9a 3d cb 2a d1 bd 0c c8 08 3e 15 dd 28 3e
       0.075325854 -0.1021324 0.13357562 0.16490586
0003a0 e0 c2 4a be d9 42 32 be d9 5c 4e 3c 18 c5 7d 3e
       -0.19800901 -0.17408313 0.012595379 0.24782217
0003b0 c0 0e 2a bd f1 5f 72 bc a0 38 be bd 23 60 04 3e
       -0.041517973 -0.014793382 -0.09288144 0.12927298
0003c0 b4 07 62 3d 15 a3 0a be aa de 24 3d a0 b0 24 3d
       0.055183128 -0.13538773 0.04025141 0.040207505
0003d0 e3 a9 3c 3e 36 3a 33 be b0 80 48 bd e6 1c 1f 3e
       0.18424182 -0.17502674 -0.04895085 0.15538368
0003e0 50 7e 3c bc 94 1d e7 bb c8 a4 52 3e a4 ac 1d bd
       -0.011504725 -0.0070530865 0.20570672 -0.03849472
0003f0 68 a4 3b be 64 3d 19 3d 04 0c 5a bd 16 0f e6 3d
       -0.18324435 0.037412062 -0.053234115 0.11233346

recurrent_blocks.0.weight_hh_l0 f4 [96, 32]
000000 82 87 2e be a5 9d 74 be 15 b1 11 3d 73 ec d6 3d
       -0.1704388 -0.23888262 0.03556927 0.10494318
000010 0e a1 83 3c 9b da 99 bc c1 39 e6 3d a7 57 dd 3d
       0.016068008 -0.018780997 0.112414844 0.10807734
000020 05 92 03 bd 97 19 03 3e c9 d1 ca 3d ef 3f a3 3d
       -0.032121677 0.1280273 0.099032946 0.07971179
000030 f2 49 1a be 1d 83 3a 3d c7 2c 8a bd a7 cc f3 bc
       -0.1506727 0.045535196 -0.06746822 -0.029760672
000040 17 55 f0 3c 34 63 60 3d 70 a4 a5 3d dd 1d 19 be
       0.029337449 0.054782107 0.080880046 -0.14952798
000050 17 60 dc 3c eb 5c dc 3d d4 92 0d be 5a 8c 3f 3e
       0.026901288 0.1075991 -0.13825542 0.18705884
000060 30 7f f2 3d d7 af 9e 3d f6 0c c2 bd 5c 0c bc bd
       0.11840665 0.077483825 -0.09475128 -0.09182045
000070 2f 72 06 be 35 ab f1 3c 5f a7 97 3d 2b bf ca 3c
       -0.13129495 0.029500583 0.074049704 0.02474936
000080 69 34 a7 3d ad 40 48 3b ec d0 32 be b7 a0 41 bc
       0.08164293 0.0030556128 -0.1746251 -0.011818103
000090 02 81 33 3d 78 04 00 be 75 a7 ed 3d 90 b0 54 bd
       0.043824203 -0.12501705 0.116042055 -0.051926196
0000a0 1a b1 b7 3d 40 7f 1e be ba 8c f3 3d 0e a5 97 bd
       0.08969326 -0.1547823 0.11892076 -0.074045286
0000b0 79 5d 34 3e ea 6e bf 3c d6 49 48 3d b9 55 bd bd
       0.17613782 0.023368318 0.04889854 -0.09244866
0000c0 41 7c 90 3d f1 eb 09 3d bc 14 29 3e 48 0a 4c bd
       0.070549496 0.033672277 0.16511816 -0.049814492
0000d0 31 b0 a3 ba 98 25 87 3d 16 8c 1a 3e 36 37 bf bd
       -0.0012488422 0.06598967 0.15092501 -0.093367025
0000e0 6d 13 bf bd 28 fa 87 3d f0 94 11 3e a7 6a a0 3d
       -0.09329877 0.066395104 0.14216971 0.07832842
0000f0 81 c6 a8 3d f7 b8 da 3c e1 02 17 be d5 b7 06 bd
       0.082409866 0.026699526 -0.14747192 -0.03289016
000100 12 89 b5 bd ba 40 ae bd 44 ba 2a bb eb a3 d7 3d
       -0.08864035 -0.08508439 -0.0026050964 0.10529312
000110 03 27 0e bd c4 5b 28 bd 03 09 3b 3e d9 97 e8 bd
       -0.034705173 -0.04110314 0.18265156 -0.11357088
000120 20 c1 cc bd 77 f4 0f 3e b0 93 15 3e d7 8a b4 bd
       -0.09997773 0.140581 0.1460712 -0.08815544
000130 75 09 b0 bd ac 16 dd bd 30 ec be bc 7e e1 0f be
       -0.08595554 -0.1079534 -0.023305982 -0.14050862
000140 7a a9 b8 3b de b7 f5 3d ad 78 20 3d c7 c2 d9 3a
       0.0056354376 0.119979605 0.039177585 0.0016613834
000150 e1 e4 07 be 95 88 7a 3b 5f 87 30 be 60 b6 0b be
       -0.13270904 0.0038228382 -0.1723914 -0.1364379
000160 a2 26 3c 3e 13 a7 9d 3d d6 83 08 be 3b 7e ec 3d
       0.18374112 0.076978825 -0.13331541 0.11547514
000170 98 10 bb 3d 4c 05 d9 3d 74 ea 1f 3d 5e 46 0e be
       0.091340244 0.105967134 0.03904195 -0.1389403
000180 cc 51 b3 bb bd 60 01 3e 5d 5a ea bd d6 4c 16 3e
       -0.0054723974 0.12634559 -0.11443017 0.14677748
000190 de 19 24 3e 8a d5 f0 3d 4c be c4 bd 10 0c 5e 3d
       0.16025493 0.11759479 -0.09606609 0.054210722
0001a0 06 2a 4e bd 49 c3 1f 3e 83 c7 07 3e 2f 79 15 3e
       -0.050333045 0.15601839 0.13259701 0.14597009
0001b0 24 5a 13 be a6 d5 44 3e 3c d7 82 bd d5 76 fc 3c
       -0.14389855 0.19222125 -0.06388709 0.030818382
0001c0 ff 8e 4d bd a1 6e 00 be 94 96 7f 3c 81 82 9e 3d
       -0.0501852 -0.12542202 0.0155998655 0.077397354
0001d0 f7 0d bc 3d bf 37 d1 bd 70 c1 3b 3e cf e6 de bd
       0.09182351 -0.10215711 0.1833551 -0.10883867
0001e0 c5 8a 2d be 14 df e7 bd 67 63 34 3e e8 7e 02 3e
       -0.16947468 -0.11321846 0.17616044 0.12743723
0001f0 59 44 dd bd 90 34 59 3e cf 07 06 be d0 5a 24 be
       -0.10804052 0.21211457 -0.13088916 -0.16050267
000200 c8 7a 64 bd 06 52 82 bd 78 5f 1c 3d c4 20 b8 3b
       -0.055781156 -0.06363301 0.038176984 0.0056191403
000210 05 3e ea 3d 19 f5 14 3d 61 62 06 3e e4 69 1e be
       0.114376105 0.036366556 0.13123466 -0.15470082
000220 f9 79 6a bd 31 f5 91 bc d2 cf a1 bd 86 2e 93 3d
       -0.05724523 -0.017817112 -0.07900967 0.07186608
000230 b8 0e 2f be c9 53 39 be 1e 81 c4 bd 3f fa 1e 3e
       -0.17095459 -0.18098368 -0.0959494 0.15525149
000240 2f 87 07 be 2c 5a 7c 3d 10 b4 d7 bd 72 ff 00 be
       -0.13235162 0.061609432 -0.10532391 -0.12597445
000250 14 79 05 3e fe 8d a9 bd 7e 3f a5 3d 09 d8 cd bc
       0.13034469 -0.08279036 0.08068751 -0.025127428
000260 ab 4b 8a bc 79 65 a9 bd e7 69 e9 3d e9 27 59 bd
       -0.016881784 -0.082713075 0.113971524 -0.053016577
000270 e3 ad 21 3e a2 3e 69 3d 92 93 06 be 85 77 2c 3b
       0.15788989 0.056944497 -0.13142231 0.0026316356
000280 68 16 70 be e4 81 9e bc 45 fb 31 bd dc 99 e7 bd
       -0.23446047 -0.019349046 -0.04345252 -0.11308643
000290 18 17 a0 3b cb 23 23 bd 5e b8 dc bb 59 8c d0 bd
       0.0048855655 -0.039829057 -0.0067358455 -0.10183019
0002a0 33 3a 6f 3d 5c 19 1d 3c 7d a4 b1 bd 5d 65 73 bb
       0.058405112 0.009588566 -0.08673952 -0.0037139275
0002b0 a2 73 80 3d 15 38 0d 3e 36 65 59 3d 5e 3c 17 3d
       0.06272055 0.13790925 0.053075038 0.036922805
0002c0 9e f5 53 be 43 c0 ca bd fc b9 07 be 51 4c e1 3d
       -0.20699164 -0.09899952 -0.13254541 0.11000884
0002d0 5e 38 29 be db 0c db 3d dc ac cf bb 7f 95 8a bd
       -0.16525409 0.10695811 -0.006337745 -0.06766795
0002e0 29 93 02 be f3 c6 45 bd 32 c9 be 3d 68 1f 79 3e
       -0.1275145 -0.048285436 0.09315719 0.24328387
0002f0 ad 6e b3 3c 38 2a 2b 3e 6d 07 fe 3c 9d 09 0b bd
       0.02190336 0.16715324 0.0310094 -0.033944715
000300 2e 74 8d 3c 74 d1 6a bb 27 00 49 3d 3c ce f0 3c
       0.017267313 -0.003583041 0.04907241 0.029395215
000310 8d 45 55 bd 08 b7 19 bd 59 72 32 bd 60 8e b2 3b
       -0.052068282 -0.037528068 -0.04356608 0.0054491013
000320 c8 10 f5 bd 9e 77 d9 3c 08 9d f0 bd b8 87 20 3d
       -0.119660914 0.026546296 -0.11748701 0.03919193
000330 67 61 83 bc 2d 17 f2 3d de 65 05 3e 87 08 8e 3d
       -0.016037656 0.11820827 0.1302714 0.0693522
000340 43 9f d5 3d 48 23 af bd 00 db a5 3c 06 8f dd bd
       0.104307674 -0.08551651 0.020246029 -0.10818295
000350 39 eb b0 bd 4d 42 8b 3d dc ba 27 be 11 9e 71 3d
       -0.08638615 0.06799755 -0.16379875 0.058988634
000360 65 bd 83 bd 0f 98 cf bd 35 45 fc 3d 3f f6 c3 3d
       -0.064326085 -0.10136425 0.12317888 0.09568452
000370 d0 3f 04 be 09 54 e0 bd e5 fb 9c bd 55 0a 25 be
       -0.12914968 -0.109535284 -0.076652326 -0.16117223
000380 cf ec 0b 3e 42 9a db bd a8 4b 29 be e1 20 51 bd
       0.13664554 -0.10722782 -0.16532767 -0.051056746
000390 f5 86 d9 bb e3 76 02 bd fe 08 37 be 85 4d 35 bc
       -0.0066384026 -0.03185166 -0.17874524 -0.011065845
0003a0 6d c8 94 bd 8b 0a 3b 3e 9b 1c 23 bd 99 9d 0e be
       -0.07264791 0.1826574 -0.039822202 -0.13927306
0003b0 a6 70 0e 3e 67 9f 96 bd f7 9a c1 bd c8 62 aa 3d
       0.1391016 -0.07354622 -0.09453385 0.08319622
0003c0 b5 ef 90 bd 15 9f 0b be 3b 30 96 3d 1f 3c 88 bd
       -0.070769705 -0.13634904 0.07333418 -0.06652092
0003d0 61 54 a7 3d 07 c2 bd bc 66 15 5a bd 09 17 ad bd
       0.08170391 -0.023163809 -0.053243063 -0.08451659
0003e0 4c ed e5 3d d9 cd 4c bd 7f 2f 5d bd cd 7c e4 3d
       0.112269014 -0.050001 -0.054000374 0.11156616
0003f0 b3 9c 8b bd 95 e0 85 3d d2 aa 17 be 74 2d c1 3c
       -0.068169974 0.06536976 -0.14811257 0.023581244

recurrent_blocks.0.bias_ih_l0 f4 [96]
000000 9d 91 96 bd 8a 4c c6 bd 6b e6 d6 bd 45 01 64 be
       -0.07351992 -0.096825674 -0.104931675 -0.2226611
000010 cd d9 88 bd c4 91 0c 3d 2b c2 5a 3c 63 c5 9e 3d
       -0.06682167 0.0343187 0.013351957 0.07752492
000020 8a 57 74 3d 3d 21 09 3e 01 09 7b bd 25 1f 05 3e
       0.059653796 0.13391586 -0.061287884 0.13000162
000030 5e d5 90 3d 78 49 aa bd 00 8b 1f 3e 05 65 c7 3d
       0.070719466 -0.08314794 0.15580368 0.09736065
000040 b6 ac 14 3d 60 e1 b7 3d af 66 d6 3c 7c 36 19 3e
       0.036297522 0.08978534 0.02617201 0.1496219
000050 db 78 0a be 8e 17 09 be cb 2e 6f 3c 22 d5 09 3e
       -0.13522665 -0.13387892 0.014598559 0.1346021
000060 2a c3 bc bd 4e 8f c3 bd 55 02 3d be ca 91 b0 3d
       -0.09216912 -0.095488176 -0.18457921 0.08621557
000070 da d7 02 be 4a 4e fd bd 27 c5 e1 3d 46 68 06 be
       -0.12777653 -0.12368448 0.11023932 -0.13125715
000080 6d e2 ba 3d 7c 5c c7 bd 3d f2 04 3e 9b 82 0d 3e
       0.091252185 -0.09734437 0.12983032 0.13819353
000090 81 bd 6c 3c cc 04 87 bc 03 32 5a bd 85 e9 bb 3d
       0.014449478 -0.01648178 -0.05327035 0.091754
0000a0 e2 25 db 3d 8d ea 08 3e d7 81 1c 3e 4c b2 a1 bc
       0.10700585 0.13370724 0.15283905 -0.019738339
0000b0 a7 01 13 3e b9 23 00 3e 9b e6 10 3d 01 0a 82 3c
       0.14356099 0.12513627 0.035376173 0.01587391
0000c0 d4 ec 4e be b0 30 10 be a5 17 89 bd 69 fb 08 bd
       -0.2020753 -0.14081073 -0.06693963 -0.03344289
0000d0 eb c8 6b bd 67 85 0f be d8 f6 10 3e fd f8 0e 3e
       -0.057564657 -0.14015733 0.14156663 0.13962169
0000e0 15 c5 4c 3e dd 95 7d bd ac b1 7a 3d 57 0e 61 3d
       0.19997056 -0.0619105 0.061204597 0.054945316
0000f0 d8 ee 40 3d 5f f1 be bd 83 a8 b7 3d 73 cf d3 3d
       0.04710278 -0.09323382 0.08967688 0.10342302
000100 03 cd 2d 3c 36 6e 90 bc da 1a be 3d d0 b4 4b bd
       0.010607961 -0.017630678 0.09282465 -0.049732983
000110 a4 de 30 be d1 5e b3 bd 1f 85 15 3e cb 84 83 bc
       -0.1727243 -0.08758319 0.14601563 -0.016054532
000120 99 06 43 bd 79 73 ad bd 01 c6 50 be 5b fd 57 bd
       -0.047613714 -0.0846929 -0.20388032 -0.052731853
000130 32 e4 b3 3d 04 b4 a2 bc ba cb 88 bc 1f 28 31 3e
       0.08783759 -0.019861229 -0.016698707 0.17300461
000140 e2 0e 14 3e 2b c2 2f be 2a fa 27 3e f7 f7 e7 bd
       0.14458802 -0.17163913 0.16404024 -0.113265924
000150 67 96 e9 3d 20 33 fb bd aa 3f 68 3d 10 bc 3c 3e
       0.1140564 -0.12265611 0.05670134 0.18431115
000160 3e 59 75 3d e5 eb 49 bd 91 1c 3b 3d df 0e 3d be
       0.05989956 -0.049297232 0.04568154 -0.18462704
000170 04 e5 47 bd fd 48 b0 bd cd bf 36 3e 1a 62 d6 3c
       -0.04880239 -0.086076714 0.17846604 0.026169825

recurrent_blocks.0.bias_hh_l0 f4 [96]
000000 4d 34 30 3e 07 06 b5 bd d7 ad 10 3e 81 37 97 bd
       0.17207451 -0.0883904 0.14128815 -0.073836334
000010 64 f3 35 3d 4f 07 02 be ce 21 48 be 0a d0 0e bd
       0.04442157 -0.126981 -0.19544145 -0.03486637
000020 0f 45 db 3d 29 e6 31 3d d2 c0 a0 bd b9 aa 19 bd
       0.10706531 0.04343239 -0.078492776 -0.03751633
000030 46 45 95 bd 01 2b af bd 1f aa df bc fa 86 e5 3d
       -0.072886035 -0.08553124 -0.0273028 0.11207385
000040 f2 14 22 3d cd b7 ff 3d e3 38 1c be 49 95 37 be
       0.039570756 0.12486229 -0.15256076 -0.17928042
000050 8a f6 9a 3d eb 98 e2 3d ae a2 ac 3d 22 03 22 be
       0.07566555 0.11064323 0.08429466 -0.15821508
000060 b7 88 55 be 6a 9c a7 3d 04 b8 32 be d8 9a 0d be
       -0.20852934 0.081841305 -0.17453009 -0.138286
000070 1a ab 2b 3c 54 01 05 3e e6 a1 97 3c 55 f6 35 3d
       0.0104778055 0.12988788 0.018509816 0.044424374
000080 2d 6d 61 bc 17 24 8d bd 20 b0 9a 3d 79 63 1e 3d
       -0.01375894 -0.06891649 0.075531244 0.038669083
000090 67 5f e6 bc 26 ea 21 bc 72 73 1c 3e 31 2c 5b 3c
       -0.028121663 -0.0098824855 0.15278414 0.013377235
0000a0 c7 cd 1e be c5 62 98 bd 74 26 2b bd 95 af f4 3d
       -0.15508185 -0.07440714 -0.04178472 0.11947552
0000b0 69 f9 02 3e 96 cf 45 be 7c 3f ca bd e2 80 e9 bd
       0.12790455 -0.19317469 -0.0987539 -0.114015356
0000c0 a3 74 3a be 3a 54 8f 3d e2 6c 2d bc 25 47 ce bd
       -0.18208556 0.06998487 -0.010585042 -0.100721635
0000d0 fb 6f 35 bd bc 36 94 3d 4b b1 0e bd 4a d1 8c 3c
       -0.044296246 0.07237002 -0.03483705 0.01718964
0000e0 95 a4 4a bd 20 3b 39 3d f6 a2 82 bd 5a 56 d4 3d
       -0.049473364 0.0452224 -0.063787386 0.10368033
0000f0 84 1c 42 3d 37 a7 9a ba f7 1f 00 3d 7f 65 06 3d
       0.047390476 -0.0011799101 0.031280484 0.032811638
000100 40 cf 30 3e 30 fa 92 bd 62 73 29 3e 5c 37 c7 3d
       0.1726656 -0.07176626 0.16547921 0.09727356
000110 4b 59 8a 3d 75 96 31 bd c5 1a f0 bd e4 bb b0 bd
       0.067553125 -0.043356378 -0.11723856 -0.08629587
000120 14 14 03 bd 6c ee 11 3e b5 26 59 be 65 a4 1e 3e
       -0.03200157 0.14251107 -0.21206172 0.15492399
000130 06 c6 df 3d f0 dd 2c bb 3a 5f 86 3c 4f d6 0d bd
       0.10926442 -0.0026377402 0.01640283 -0.03462821
000140 8f 5d a2 3d 65 fc 43 be e7 7b 1c be 84 12 2a 3e
       0.07928001 -0.1913925 -0.1528164 0.16608626
000150 a2 4d 08 3e a3 f5 fc bd bf 74 c1 bd b9 46 80 3d
       0.13310865 -0.12351539 -0.09446096 0.06263489
000160 c6 5a a1 3d 65 d0 3c be 8a 51 d8 bd fe 37 3e bd
       0.07878642 -0.18438871 -0.10562427 -0.046440117
000170 bf 4c 5e be dd 32 2d 3e 81 a6 2b 3d 7e ac 2c 3e
       -0.21708964 0.16913934 0.041906837 0.16862676

recurrent_blocks.0.weight_ih_l0_reverse f4 [96, 3]
000000 ab 5a 2e 3d 61 23 48 bd 14 f4 c6 3d 33 10 9d bd
       0.042566936 -0.048861865 0.09714523 -0.076691054
000010 f5 be 00 3d dd 46 9e 3d 46 9a 40 3e 0b ea 52 3d
       0.03143211 0.0772836 0.1880885 0.051492732
000020 3f bd 11 3d 8b f0 b7 bd 5a ee 52 bd 97 a4 eb 3d
       0.03558087 -0.08981427 -0.05149684 0.115060024
000030 77 f8 d9 bd 35 90 41 be f8 9f b9 bd 9c 02 3e bd
       -0.10643094 -0.18902667 -0.09063715 -0.046389207
000040 ec 77 10 bd 5c a3 e3 bc 48 62 3b be d3 49 31 3e
       -0.035270616 -0.027787857 -0.1829921 0.17313318
000050 83 45 aa bc 53 0f 9d 3d e4 8b dc 3d f0 6c 36 3c
       -0.020785099 0.076689385 0.107688695 0.011134371
000060 22 71 7f be 98 e4 4d bd a2 9a 8a 3d 70 c2 15 3e
       -0.249455 -0.050266832 0.06767775 0.14624953
000070 e0 9f 14 be b6 8d fe 3d 29 5e e9 3d a0 c5 cc 3b
       -0.14514112 0.12429373 0.11394913 0.0062491447
000080 4e d3 99 bd 5a b6 0b bd c1 cf 00 bd 58 a1 70 3c
       -0.07511006 -0.03410945 -0.03144813 0.014686905
000090 90 2e 39 be c8 9e d1 3d db 8f 2f 3e a9 22 49 3e
       -0.18084168 0.10235363 0.1714472 0.19642128
0000a0 7c 0d e8 3d 6c 7d 88 bd 24 5f 3a bd d5 24 a0 bd
       0.11330697 -0.06664547 -0.04550089 -0.07819525
0000b0 54 2c b8 3d 67 5d 34 bc fa e9 40 be 0f 83 df bc
       0.0899283 -0.011008597 -0.18839255 -0.027284173
0000c0 ea bc d1 bc 8e 19 86 bd e6 f3 99 bd 85 2a 37 3d
       -0.025602777 -0.06547843 -0.07517223 0.044718284
0000d0 a1 84 a0 bc bf 57 80 be a3 22 52 bd d0 1e b5 bc
       -0.019594492 -0.25066945 -0.051302563 -0.02210942
0000e0 cf a5 88 bd 79 76 8b bd 82 81 29 3e e8 7f 79 be
       -0.066722505 -0.06809706 0.1655331 -0.24365199
0000f0 66 f5 4d 3d ea 24 22 be df c5 85 3d 11 8d c7 bd
       0.05028286 -0.15834394 0.065318815 -0.09743703
000100 f9 d0 3d 3d 4d 5c 89 3d 32 62 ba 3d 4e f7 a7 bd
       0.04634187 0.06707058 0.091007605 -0.082014665
000110 f4 04 f5 bd 7b ff 9b 3d f5 e0 50 3d 86 e1 ae 3d
       -0.11963835 0.076170884 0.050995786 0.08539109
000120 d4 78 50 3e 64 85 4d 3d d8 78 72 3b b3 bd d7 bc
       0.20358592 0.05017604 0.0036998298 -0.026335573
000130 cc b5 5b 3e 05 c0 07 3d 0e 99 f0 3c 07 79 2a be
       0.21456069 0.03314211 0.029369857 -0.16647731
000140 dc 94 a4 3d 4f 3f e4 bd 9a bb c9 3d bc 82 18 3c
       0.08036205 -0.11144888 0.09850235 0.009308513
000150 2d 25 c0 bd 9d d1 4b 3e d4 33 13 bd e3 f3 fd bd
       -0.09382091 0.1990418 -0.0359381 -0.12400033
000160 b8 92 32 3e 28 9f 9c 3d bd 1d a5 bd 57 1c 0c bd
       0.17438781 0.07647544 -0.08062313 -0.034206714
000170 78 a6 c9 3d 2e 15 24 be d2 f7 37 3e f2 84 3d bd
       0.098462045 -0.16023704 0.1796563 -0.046269365
000180 a0 c6 16 bc d0 9c 38 be 2a 94 24 3e 0f 26 15 be
       -0.009202629 -0.18028569 0.16072145 -0.145653
000190 7c a8 2b 3e 77 aa 3a 3d 1b ac ae bc e9 76 ad bd
       0.1676349 0.045572724 -0.0213223 -0.08469946
0001a0 76 3d 61 bc 7c 6b 88 bd 20 db b7 bd 13 8f bb 3d
       -0.013747564 -0.06661126 -0.08977342 0.091581486
0001b0 c8 98 04 be d1 46 44 bb 6a a6 d0 bc c6 d8 28 be
       -0.12948906 -0.0029949436 -0.025469977 -0.16488943
0001c0 0b b8 a6 bc 94 5b b3 bd af 1d 14 bd 05 d8 e8 bd
       -0.02035143 -0.087577015 -0.03616112 -0.113693275
0001d0 01 c4 fa 3d 88 d7 cc 3c b1 ae 31 3e d8 29 a4 3d
       0.12244416 0.025005117 0.17351796 0.080157936
0001e0 06 2d 51 3c da 55 9f 3d 31 7b 73 3d 5c 07 13 3e
       0.012767082 0.07780047 0.059443656 0.14358276
0001f0 d5 cc 06 be eb 26 74 bd b3 8a b1 bd 16 d8 1b 3e
       -0.13164075 -0.059607428 -0.08669033 0.15219149
000200 04 7d 20 3c 59 07 48 bd b9 5e 32 3e ef 01 17 3d
       0.009795431 -0.048835132 0.17418946 0.03686708
000210 22 22 32 3e 10 fd 98 bd 7f d3 2e 3e 37 3f 6d 3d
       0.17395833 -0.07470143 0.17072867 0.057921614
000220 66 c2 c7 3c 9a 36 3f be 8d 56 05 3e 72 ac 21 3e
       0.024384689 -0.18673173 0.13021298 0.15788439
000230 59 c8 a7 bc ad 84 f0 bd 5f 8d ae bc 8d 19 37 3e
       -0.020481275 -0.11744056 -0.021307645 0.1788084
000240 94 ff 34 be 81 af 11 be f3 34 26 bd d2 8f 3c 3e
       -0.1767562 -0.14227106 -0.04057784 0.18414238
000250 97 dc 9e 3d 50 65 e1 bc 59 54 37 3e 9d 23 af bd
       0.07756918 -0.02751413 0.1790327 -0.085517146
000260 a5 ee 89 bd fa f4 f3 bd f4 57 4e bb bd 33 b6 bd
       -0.06734971 -0.1191196 -0.003148553 -0.08896587
000270 e5 37 af 3d fb 60 00 3e 34 ac fd 3d bf e3 67 3d
       0.08555583 0.12536995 0.12386361 0.05661368
000280 54 5f c1 3d 86 00 96 3a 1a db 1e be cb 0c 43 bd
       0.094420105 0.0011444248 -0.15513268 -0.047619622
000290 c1 fb e0 3d ce 85 e3 ba 87 00 da 3d 67 77 2a 3e
       0.10985518 -0.0017358602 0.10644632 0.16647111
0002a0 d3 9c 49 3e 1d 25 57 3d 76 86 c9 3d b9 79 bf 3d
       0.1968873 0.05252563 0.098400995 0.09349389
0002b0 36 15 1d 3e 61 2d a5 3d ba 43 05 3e 65 eb e5 3c
       0.15340123 0.08065296 0.13014117 0.028066346
0002c0 ab 13 4c bd 88 69 0e be 92 68 ba 3c 09 9f fd bc
       -0.049823444 -0.13907444 0.022754941 -0.030959623
0002d0 43 74 f4 bd 55 60 a5 bc 8f e8 81 bd 4c 73 e0 bd
       -0.11936238 -0.020187536 -0.06343185 -0.10959491
0002e0 0e f0 c5 3d 5a df 79 bd a4 a2 d1 bd 33 5a 03 be
       0.096649274 -0.06100402 -0.10236099 -0.12827377
0002f0 48 0d 9e bd 1c 17 41 bd ac 46 f0 bd 2c 62 4a 3e
       -0.07717377 -0.04714118 -0.117322296 0.19764012
000300 8d 95 33 3d f1 fd b5 bd 48 16 26 be bd b4 0a 3e
       0.043843795 -0.08886326 -0.16219437 0.13545509
000310 95 8f dd bd 31 27 d5 bd a4 38 bf 3d ad a7 bb bd
       -0.10818402 -0.10407866 0.09336975 -0.09162841
000320 73 ce bc bd 04 d7 d2 3d 1e e7 b2 3d a5 3e 07 bd
       -0.092190646 0.10294917 0.08735488 -0.033018727
000330 8e 97 9e 3d 53 cc ca bc 89 50 30 3e 58 5c e7 3d
       0.077437505 -0.024755633 0.17218222 0.1129691
000340 4b 10 bd 3c 16 de 47 bc 97 de 9b 3d 17 0c 1b 3e
       0.023079058 -0.0121989455 0.07610815 0.1514133
000350 e6 60 d2 bd 95 41 39 be 5f b7 cb bd 6a 9e a0 bd
       -0.10272388 -0.18091424 -0.09947085 -0.07842715
000360 c0 a8 ec bd 91 c3 01 be d1 bf be 3d 0b ba 21 be
       -0.11555624 -0.12672259 0.0931393 -0.15793626
000370 ec 5e 5c 3d 5d a9 c5 bd 23 dc a2 bd c2 95 6e b9
       0.053801462 -0.09651444 -0.07952144 -0.00022753238
000380 b8 88 26 3d d9 70 98 3d 98 62 16 3d 7b e6 4c be
       0.04065773 0.07443399 0.03671512 -0.20009796
000390 5b 85 c1 bd 7a 82 a9 3d ac 65 40 3e e9 95 37 bd
       -0.09449264 0.082768396 0.18788785 -0.0448207
0003a0 c9 2f 40 3e 4a 21 64 3e 53 4b 14 3e 81 f6 37 3e
       0.18768229 0.22278324 0.14481859 0.17965128
0003b0 8f 65 9a bd f8 73 f2 bd 08 65 c0 bd c2 43 4a bc
       -0.07538902 -0.118385255 -0.0939427 -0.012345256
0003c0 5e 2b 04 3d 2b 55 db bc e3 9f f8 3d 68 04 f6 3d
       0.03226792 -0.02677401 0.12139871 0.12012559
0003d0 b2 fa 28 3e cf 70 e7 3d e3 5f 0c bd 95 f4 51 be
       0.16501883 0.113008134 -0.034271132 -0.20503457
0003e0 b9 ad f5 3c ac 50 2c 3e ac 9a 00 3e 80 a4 37 3e
       0.029990064 0.16827649 0.12559003 0.17933846
0003f0 88 5b 15 bd 15 88 ca 3d 03 54 8d bd e4 4d 25 be
       -0.036464244 0.09889237 -0.069007896 -0.16142994

recurrent_blocks.0.weight_hh_l0_reverse f4 [96, 32]
000000 87 5f aa 3d e8 3b e7 bd 05 4b fa bd 39 fd c4 3d
       0.08319002 -0.11290723 -0.1222134 0.09618611
000010 71 ca cb bd da 45 87 3d 30 e5 da 3c 04 4a c6 bd
       -0.09950722 0.0660512 0.026720613 -0.09682086
000020 ee 3c a4 3d 7c 0a 5f 3e d1 b9 0e 3e 23 70 0a 3d
       0.08019434 0.21781343 0.13938071 0.03379835
000030 46 93 11 3e c6 bd 3e 3d d4 da f6 3d e6 a6 38 bc
       0.14216337 0.0465677 0.12053457 -0.01127026
000040 f6 4a 9e 3d df 00 39 be e5 ea c6 3d 60 e3 43 be
       0.077291414 -0.18066739 0.09712771 -0.19129705
000050 50 7b 15 3e 2a 3d a4 bb 97 07 09 be 04 cf 05 3e
       0.14597821 -0.005012174 -0.13381802 0.13067251
000060 10 7d 81 3d 09 c0 9c 3d ff a7 87 bd ba a7 58 bd
       0.06322682 0.07653815 -0.066238396 -0.05289433
000070 ca 54 15 3e ca 41 0c 3e 64 c0 97 bd 9d b5 0c 3e
       0.14583126 0.13696972 -0.074097425 0.13741155
000080 16 29 75 bd 4c 5e 33 3e 10 21 80 bd 91 24 45 be
       -0.059853636 0.1751644 -0.06256306 -0.1925223
000090 07 cf c7 bd cc 73 64 3b 2c 0e 38 bb b8 d5 85 3c
       -0.09756284 0.003485906 -0.002808462 0.01633726
0000a0 16 99 6f 3d cd 39 8b bd 3d e7 f0 3d 25 a1 48 3e
       0.058495604 -0.06798134 0.11762855 0.19592722
0000b0 05 86 08 3e e0 03 9e 3d 69 b0 d8 3d d9 58 9d 3d
       0.13332374 0.07715583 0.105805226 0.07682962
0000c0 25 19 01 be ce b0 44 be c4 69 4a be cc 97 3a 3d
       -0.12607248 -0.1920807 -0.19766909 0.04555492
0000d0 f3 ea 85 bc e8 16 8b 3c 9c 04 05 be 2a 24 c9 3d
       -0.016347384 0.016978696 -0.1299004 0.09821351
0000e0 19 2b 35 bd e3 b1 4b bc 21 a8 ac 3c b7 38 c9 bd
       -0.044230554 -0.012432548 0.021076264 -0.098252706
0000f0 52 2b 52 be 1f 56 f7 bd 70 6e 2f be f0 8a 49 3e
       -0.20524338 -0.12076973 -0.17131972 0.19681907
000100 93 f0 a9 3d e4 e9 4a 3d e2 32 7f bd 58 88 0e 3d
       0.08297839 0.04953946 -0.062304385 0.034797996
000110 20 cf 30 3e 70 c1 b6 3b 53 59 1b 3c 16 65 0e be
       0.17266512 0.0055772588 0.009481746 -0.13905749
000120 37 07 21 3e 6f f2 27 3e 63 85 06 bd 1b e8 5e bd
       0.15725408 0.16401075 -0.03284205 -0.05442057
000130 ad dd 39 3d a6 56 93 bd a3 aa bd bd 2f 80 a2 bd
       0.045377422 -0.07194261 -0.09261062 -0.07934605
000140 54 b3 45 3e bc 69 cf 3d e4 a2 04 be c3 ea b9 ba
       0.1930669 0.10127589 -0.12952763 -0.0014184344
000150 91 bc 37 be e7 97 18 bc 33 16 48 3e 7e 08 d9 3c
       -0.17943026 -0.00931356 0.19539718 0.026493307
000160 a3 15 e2 bd 77 1a 87 3d 79 77 50 be 8e 1a 24 3e
       -0.11039283 0.06596845 -0.20358075 0.16025755
000170 c3 de 1a 3e b3 4e 15 be 3a 66 3c be 7b 93 3c 3c
       0.1512404 -0.14580803 -0.18398371 0.011509771
000180 08 a0 ed bd 3d 84 4c 3c 84 60 ab 3d 5e 24 11 be
       -0.11602789 0.0124827 0.08368018 -0.14174029
000190 45 d4 d1 bd 31 e6 0c be 0c 0a 97 3d 27 09 19 3e
       -0.10245565 -0.13759686 0.07374963 0.14944898
0001a0 50 62 0e 3e 72 f4 db bd 00 e6 18 3e fb 4d c8 bd
       0.1390469 -0.107399836 0.14931488 -0.097804986
0001b0 a8 15 33 3e a7 8e 56 3d 41 ad 36 bd 0e 21 8d 3d
       0.1748873 0.052382138 -0.04459882 0.0689107
0001c0 a8 d7 32 3d f9 ef f2 bd b5 03 d7 3c 0f b6 c3 bc
       0.043662697 -0.118621774 0.026246885 -0.023890523
0001d0 01 ec f3 3d f7 8d 83 bd 0b 5b 42 3d 6d 5f b6 bd
       0.119102485 -0.06423562 0.047450107 -0.0890492
0001e0 60 c4 20 3d 8a 3c cd 3d 96 90 f8 bd d5 09 c4 bd
       0.039249778 0.100213125 -0.121369526 -0.09572188
0001f0 52 c5 86 bd f1 b2 c4 3b d8 45 42 be 60 84 aa 3d
       -0.065806046 0.006002777 -0.18971956 0.0832603
000200 88 b1 68 3e fd 41 06 3d 64 a3 dd 3d 37 0e 02 3e
       0.22723973 0.032777775 0.1082218 0.12700735
000210 2a fa cd bc 36 5c 6f be 36 d2 f4 bd 96 19 d0 3d
       -0.025143702 -0.2337502 -0.11954157 0.1016113
000220 f5 35 84 bd 7b 4e 64 be b1 45 2e 3d dc 1e 1c be
       -0.06455604 -0.22295563 0.04254693 -0.15246147
000230 49 7e 68 3d e4 30 8f 3d b2 bd b2 3d 63 79 5b bd
       0.05676106 0.06991747 0.08727588 -0.05358256
000240 36 34 2f 3c 77 9e 39 3d bf 93 40 3e b7 14 00 3d
       0.0106936 0.04531714 0.1880636 0.031269755
000250 56 04 31 bb d4 bd 95 be 4a be 51 bc 00 d2 4f 3e
       -0.002701064 -0.2924639 -0.012801716 0.20294952
000260 1b d3 d2 3d d0 e6 d9 3c f3 f3 bf bd 67 4a fa bc
       0.102941714 0.026599318 -0.093727015 -0.030553056
000270 f6 3e e0 3d 61 04 5a 3c 79 c1 15 3e 6f 7b a4 bd
       0.10949509 0.013306708 0.14624585 -0.080313556
000280 39 79 7a 3d 8c 9a 1c be 48 b7 fb 3d 89 8a 18 be
       0.061150763 -0.1529333 0.122908175 -0.14896597
000290 b5 16 6e 3c 96 49 b2 bd 38 22 cb bd c4 cb 03 3e
       0.014531781 -0.08705442 -0.09918636 0.12870699
0002a0 ea a9 5e 3e f6 24 09 be b1 e0 b9 bc 6a 2c 51 be
       0.21744505 -0.13393006 -0.022690149 -0.20427099
0002b0 2f 33 89 bd be 7b e8 3d 5c a2 fb 3d 5c 4b 20 bd
       -0.066992156 0.11351727 0.12286827 -0.03913437
0002c0 11 1d 0a 3d d9 5e 2c 3c f8 bf 4d 3e 58 6b 6c 3d
       0.033719126 0.01052066 0.20092762 0.05771956
0002d0 51 1c 84 3d 15 57 d9 3d 6b e5 20 3e 54 d1 1a 3d
       0.064507134 0.10612313 0.15712516 0.037797287
0002e0 72 99 38 3d 4c e2 36 be fe c3 43 3e 66 b1 28 3d
       0.04506821 -0.17859763 0.19117734 0.041184805
0002f0 b5 47 15 bd 71 0a 97 3d 4d d3 b9 3d 8e b2 52 bd
       -0.03644534 0.073750384 0.090735056 -0.051439814
000300 dc 78 01 be f2 58 06 be 8d c0 ab 3d ce c5 02 bd
       -0.1264376 -0.13119867 0.083863355 -0.031926923
000310 cd 3f 74 bd 91 2d 18 be 0e 26 8d bd 67 97 bd 3c
       -0.059631158 -0.14861132 -0.06892024 0.023143483
000320 d6 74 3e 3e 43 ae 91 bc 83 1d 20 be ac 0f 01 be
       0.18599257 -0.01778329 -0.15636258 -0.12603635
000330 8f 5b 3c 3d d4 26 29 3e 98 c6 b5 3d 26 1f e5 3d
       0.045985755 0.16518718 0.088757694 0.11187582
000340 b3 19 12 3e 21 62 54 3d f7 8a 24 3e c7 7e f9 3d
       0.14267616 0.051851396 0.16068636 0.12182384
000350 48 99 a0 3d 1d 34 eb bd 04 d1 2e bd 9a 32 a6 3d
       0.07841736 -0.11484549 -0.0426798 0.0811512
000360 72 57 3e be 3d 8e 0f be ad 7b cc 3d a7 a9 86 bd
       -0.18588045 -0.14019103 0.09984527 -0.06575327
000370 c4 bf 23 3c e4 ba 2f 3e aa e9 41 3d 57 b2 69 bc
       0.009994451 0.17161137 0.04734198 -0.014263711
000380 5c 4c 34 3e a5 69 d1 3d 2e c3 20 bd e3 2d 37 3e
       0.17607254 0.10225228 -0.039248638 0.17888598
000390 f1 fe a2 bd ba a9 10 be 82 ac 02 3e 34 2b eb 3d
       -0.079587825 -0.14127246 0.12761119 0.1148285
0003a0 26 f9 b5 bd e0 f9 df 3d 6e 28 bb bd 32 ac 1c bd
       -0.08885412 0.10936332 -0.09138571 -0.038250156
0003b0 6b f2 0c 3d b8 10 df 3d 68 0f 0c 3c 80 be 97 bd
       0.034410875 0.10891861 0.008548595 -0.07409382
0003c0 ef 3c fd bc c7 ac e3 bb bb d9 e2 3c c7 4c 22 3e
       -0.030912844 -0.006948087 0.027691713 0.158496
0003d0 66 04 73 3e 1c 90 87 3d 9d 08 c8 3d f4 ee fd bd
       0.23732147 0.066192836 0.09767268 -0.12399092
0003e0 f5 ac d0 3b 4d 95 06 be b9 a0 b2 bd cf 72 7a 3c
       0.0063682743 -0.13142891 -0.08722062 0.015286162
0003f0 01 a6 f7 3b c5 03 73 bd 96 4e bc bc 7d 0a 54 3d
       0.007557631 -0.059329767 -0.022986691 0.051767815

recurrent_blocks.0.bias_ih_l0_reverse f4 [96]
000000 2c 8c bf 3c db b8 c8 3d eb 6b 86 3c 02 0d 33 3d
       0.023382269 0.098008834 0.016408881 0.043713577
000010 05 57 0d be 34 5e 54 be 30 48 12 be 7e 73 35 be
       -0.13802727 -0.2073906 -0.1428535 -0.17719838
000020 ee be fd bd 2b 05 3e bc b1 8e 87 bc 10 03 43 be
       -0.123899326 -0.011597912 -0.016547533 -0.19044137
000030 63 52 c0 bd ed 28 e0 3d 33 9c ef bd 7b 1f 47 3e
       -0.09390714 0.10945306 -0.116997145 0.19445603
000040 87 fa 01 be 73 31 29 3d 02 30 e3 bd 5f ab bf 3d
       -0.12693225 0.041306924 -0.11093141 0.09358858
000050 b6 54 84 3d a6 d2 f5 3c 0a cc 90 3d dd a0 00 3e
       0.0646147 0.030007672 0.07070167 0.12561364
000060 c3 3f a5 bd 5d 3e 40 3d 77 b2 a3 3c 7a 45 0b be
       -0.08068802 0.046934474 0.01998256 -0.13600722
000070 79 e2 96 bd cd 5f 93 3d 57 70 0f 3d 64 cc 3b 3d
       -0.07367415 0.07196007 0.035019245 0.04584922
000080 a1 bb df bd 09 42 e1 3d a8 04 f7 bd fd 17 4f bd
       -0.10924459 0.10998923 -0.12061435 -0.050559986
000090 f0 c4 e1 bd aa d6 83 3d b4 af 23 3d 2f 73 c1 3d
       -0.11023891 0.06437428 0.039962485 0.09445798
0000a0 08 e8 0a be f0 a3 1f be f4 34 4d 3e c7 f3 1b be
       -0.13565075 -0.15589881 0.20039731 -0.15229712
0000b0 6d 77 07 be 61 2e 2f 3e 9c 69 1e bd 2f 3c 70 3d
       -0.13229151 0.17107536 -0.038674936 0.058651146
0000c0 41 6a cc bd 81 41 21 be 12 67 e6 bd 66 b2 11 be
       -0.09981204 -0.15747644 -0.11250128 -0.1422821
0000d0 8b 09 1c be 22 ad 61 be 61 48 17 be 07 8e 2c b9
       -0.15238015 -0.22038701 -0.14773704 -0.00016456108
0000e0 d0 15 52 3e a7 3d 1c 3e 96 21 f7 bd 4d 2a 90 3c
       0.20516133 0.15257894 -0.12066953 0.017598296
0000f0 7f 90 18 bd 0f 41 13 3e d0 0b 65 bd 00 eb 1c be
       -0.037247177 0.14380287 -0.05591947 -0.1532402
000100 2a 34 5a be f1 21 0c 3d b7 fb 33 3e 38 f8 92 bd
       -0.21308962 0.034212057 0.1757649 -0.0717625
000110 75 17 3b 3e cc bf b5 3d f8 44 2b be 72 4d 92 3d
       0.18270667 0.08874473 -0.16725528 0.07143678
000120 ba d4 b4 bd 92 67 f4 3d 25 10 96 bd 6d 75 6e bb
       -0.08829637 0.11933817 -0.07327298 -0.003638591
000130 17 fd c4 3d ac a4 db bd 1f bc 5d bc a8 d6 54 3e
       0.096185856 -0.10724768 -0.013533621 0.2078501
000140 38 05 f9 3d 25 5d 20 be de 15 62 3c a8 4c 3d be
       0.121591985 -0.15660532 0.013799159 -0.18486273
000150 11 63 b4 3b 40 52 08 3e 18 30 50 3d 13 22 e0 bd
       0.0055049737 0.13312626 0.050827116 -0.10943999
000160 e6 5a 27 3e 39 e4 12 3e e5 e2 a9 bd 5d da f0 bd
       0.16343269 0.14344873 -0.0829523 -0.117603995
000170 23 be e6 bc 4f a8 b9 3d 5e 69 ae bc 26 f9 0c 3e
       -0.028166836 0.090653054 -0.021290477 0.13766918

recurrent_blocks.0.bias_hh_l0_reverse f4 [96]
000000 20 ff 2d 3b 72 22 ec 3b 3b 30 39 3c 86 23 64 bd
       0.0026549771 0.0072062546 0.011303003 -0.05569794
000010 96 d2 1c be 06 da 01 3d ee 82 28 3e 69 7d 76 3d
       -0.15314707 0.031702064 0.16456196 0.060178194
000020 b4 56 9b 3c 08 65 2d be f5 b8 35 be a8 3d 9a 3c
       0.018962242 -0.16933072 -0.17746337 0.018828228
000030 23 66 5b 3d c1 ed 45 be 51 a1 be 3d df ea 03 be
       0.053564202 -0.19328977 0.093081124 -0.12882565
000040 c0 da 1f be 4d 08 5b bc 73 1c 0a be 01 62 91 3a
       -0.1561079 -0.013368678 -0.13487415 0.001109183
000050 cc 26 a4 bd 18 4d 26 bd 75 45 27 3b a9 1e 3a 3d
       -0.080152124 -0.040600866 0.0025523577 0.045439396
000060 e9 3b 07 3e 17 65 3d be d4 cf e2 38 fe 02 35 3c
       0.13206448 -0.18495594 0.00010815231 0.011048077
000070 33 da b3 3d 5a 1f 43 3e 40 4e 04 be 64 17 bb bc
       0.087818526 0.19054928 -0.12920475 -0.022838302
000080 11 f4 a8 3d 39 db 3a bd f1 36 03 bd f2 c5 19 3c
       0.08249677 -0.045619223 -0.032034818 0.009385573
000090 08 5d 25 3e 80 49 c7 bc a5 2c e6 3d 9c b0 e2 bd
       0.1614877 -0.02432704 0.11238984 -0.11068842
0000a0 93 6d 5e bd a1 f5 b3 bd 48 b5 ed 3d e3 c8 81 bd
       -0.054303717 -0.08787084 0.11606842 -0.06337144
0000b0 18 07 ee 3d 85 85 e3 3c a9 1f 0a bd 16 06 43 3d
       0.11622447 0.027773628 -0.0337216 0.047613226
0000c0 1e f5 a5 bc 7d 70 44 3b a4 cb fd bd 4e 67 f8 bd
       -0.020258483 0.0029974275 -0.12392357 -0.12129079
0000d0 c7 e7 14 be a8 8d 75 bd 55 0f 46 bd 2e fe 1c be
       -0.14541541 -0.059949547 -0.048354466 -0.15331337
0000e0 1c 81 b5 3c aa 12 d5 bc c0 05 c1 bd 2f bd 9e 3d
       0.02215629 -0.026009876 -0.09424925 0.07750928
0000f0 4e 41 5d 3d 41 e2 45 be dd ff cc bd d2 da 01 3e
       0.054017358 -0.1932459 -0.100097395 0.1268113
000100 fe aa 2d be 37 c1 22 3e 6a c4 23 3e 6b 36 03 be
       -0.1695976 0.15894018 0.15992895 -0.12813728
000110 86 76 1d bd cb f6 0b bb 19 7e 03 be 54 29 b8 3a
       -0.03844311 -0.0021356817 -0.12841071 0.0014050403
000120 7a a8 14 3e 65 5c 6a 3d b1 a5 b6 3d 20 d4 fd bc
       0.14517394 0.05721702 0.08918322 -0.030984938
000130 2a 25 09 3e 14 e8 0f be e0 d0 56 bd 2f fd e5 3d
       0.13393083 -0.14053375 -0.052445292 0.112299316
000140 16 40 d1 3d 67 27 94 bd 41 39 c7 bd af 43 73 bd
       0.102173015 -0.07234078 -0.09727717 -0.05939072
000150 a7 af 1b be 1b 5b 02 bb 5c ba 30 be 47 c6 0b 3e
       -0.15203725 -0.001989073 -0.1725859 0.13649856
000160 4a 40 4a 3e d6 b2 61 3b 0f 51 e5 bd f0 a4 1e bc
       0.19751087 0.003443887 -0.11197101 -0.009682879
000170 b6 9e 52 bc c5 bd d5 3d cf 3e 16 be 28 24 94 bc
       -0.012855222 0.10436586 -0.14672397 -0.018083647

recurrent_blocks.1.weight_ih_l0 f4 [96, 64]
000000 16 de 72 be 18 df 84 3d 8e c0 84 3d 56 88 76 bd
       -0.23717532 0.06487864 0.064820394 -0.060188614
000010 4a 8e 38 3d 98 41 8d bd 9e 9d 20 be a3 4d 59 3d
       0.045057572 -0.06897277 -0.15685126 0.053052556
000020 50 60 7a 3d 05 df 3b be 44 01 05 3e 42 0f b6 bd
       0.061127007 -0.18346794 0.12988764 -0.08889629
000030 9f f9 d3 bd 6c d8 a9 bd 24 7e 5d bd 7c aa e9 3c
       -0.10350346 -0.08293232 -0.054075375 0.028523676
000040 85 16 d2 3d 88 07 2f be 9e 79 8c bd 93 5a 5a 3d
       0.102582015 -0.17092717 -0.06859134 0.053309035
000050 76 5b c0 3d f3 c0 d4 3d 5d 25 2f 3e 3f 7e f9 bd
       0.09392445 0.10388365 0.17104097 -0.12182283
000060 a8 b2 ef 3d 85 c8 1b be e0 ae 35 be c9 eb 08 3d
       0.11703998 -0.15213211 -0.17742491 0.033427987
000070 48 13 37 bd 3e d2 f7 3d 7f fc 2b 3d 2f e0 e0 3d
       -0.044696122 0.121006474 0.041988846 0.109802596
000080 6a f6 56 bd 99 98 af 3d 40 6a 7c 3d e4 c5 22 3e
       -0.052481093 0.085740276 0.061624765 0.15895802
000090 3a 3c d6 3c b3 83 2a be 7b d0 01 be 9a e7 b8 bd
       0.026151765 -0.16651802 -0.12677185 -0.090285495
0000a0 87 83 5b 3d aa b9 39 bd 13 8b ea 3d dc 42 33 be
       0.05359223 -0.04534308 0.114523076 -0.17505974
0000b0 8f c2 43 be 6b 53 55 3d d2 ea 79 3b bc d8 97 3d
       -0.19117187 0.052081507 0.0038134349 0.07414386
0000c0 00 a7 a3 3d 6a a2 d5 3b 13 d5 94 bc 22 a7 1f be
       0.07990837 0.0065196054 -0.018168008 -0.155911
0000d0 a7 9b 1f 3e 7f 95 4f 3d 89 5f 10 3e e8 c2 f4 bd
       0.1558672 0.05067968 0.14098944 -0.11951238
0000e0 27 a2 fd bd 61 2a 3c 3d 76 1e 59 bc 25 44 aa bd
       -0.12384444 0.045938853 -0.013251891 -0.08313779
0000f0 79 26 a6 bd 70 4e a6 bd 53 be eb bd de d0 0b 3e
       -0.08112807 -0.081204295 -0.11510911 0.13653895
000100 a0 18 f6 3d fd 80 e9 3d 1e 6d b3 3d 23 c7 ab bc
       0.120164156 0.11401556 0.08761047 -0.02096898
000110 85 b0 37 be fd 13 45 3e 4e bf 23 be 2c fb 26 3e
       -0.1793843 0.19245906 -0.15990946 0.16306752
000120 e7 1b 46 bc 10 98 5a bd 97 9b 73 3d 20 2a bb 3d
       -0.012091613 -0.053367674 0.059474554 0.09138894
000130 06 f4 36 3e 59 89 5f 3d 0d c2 c0 3d 68 0e 8a 3d
       0.17866525 0.054574344 0.09412012 0.06741029
000140 a1 86 03 3e 7d 28 9c bd 98 e0 62 3e 29 b9 44 bd
       0.12844326 -0.0762491 0.22155988 -0.048028145
000150 38 81 15 be bc 85 11 bb e3 fa f9 3d 1c 61 26 3e
       -0.14600074 -0.0022204956 0.12206056 0.16247982
000160 0b af 10 be 8d ef 03 be 35 0e d7 3d c3 28 39 bd
       -0.14129274 -0.1288435 0.10500757 -0.04520489
000170 48 f0 59 be 7a 36 11 be 6b e6 38 3e d4 c4 72 3d
       -0.21283066 -0.14180937 0.18056647 0.05926974
000180 bc 74 fc bc c8 2e 46 3e c1 ee 2d 3b 85 70 a2 3d
       -0.030817382 0.19353783 0.0026540013 0.07931618
000190 96 23 87 bd 7f c0 8f bd 63 64 90 3d f4 99 52 be
       -0.06598584 -0.070191376 0.07050397 -0.20566541
0001a0 14 c5 3a be 6c 8e 04 be a8 80 0b bc 34 0b e4 3d
       -0.18239242 -0.12944955 -0.008514561 0.11134949
0001b0 dc 40 06 3e 19 70 bd bd fb 15 16 3e 5f 50 9e 3b
       0.1311068 -0.092498966 0.14656822 0.0048313583
0001c0 78 35 16 3e 75 74 cf bd 75 6e 0e 3d 3d b1 01 3e
       0.14668834 -0.10129634 0.03477331 0.12665267
0001d0 b3 0e 5b bd fc 12 0b be 7b a5 32 be 84 a0 96 bd
       -0.053480815 -0.1358146 -0.17445938 -0.07354835
0001e0 2d 91 01 be 16 99 e4 bd e0 32 b9 bd a3 8f a9 bd
       -0.12653036 -0.11162011 -0.09042907 -0.0827935
0001f0 e4 0e cc 3d 13 fd b2 3d eb e9 29 3d c0 31 26 3e
       0.09963778 0.08739676 0.041482847 0.16229916
000200 7b 1f 74 be 77 c5 ce bd 1d 19 14 be b4 84 2f bd
       -0.23840134 -0.10096257 -0.14462705 -0.042851165
000210 be c3 ea bc 21 ba 2f be 9a aa 09 be 96 43 bb bd
       -0.02865779 -0.17160846 -0.13443986 -0.0914375
000220 cd 51 bc 3b df 8d 90 3d e6 43 ad bd 1c 9c a7 bd
       0.005747056 0.0705831 -0.08460216 -0.081840724
000230 5b 1c 33 be 5b d6 a5 bd d8 f6 19 be 6c 22 d9 3d
       -0.17491286 -0.08097526 -0.1503557 0.106022686
000240 6f bf d4 bd 3a c6 cb bd 84 d5 c2 3d 2b 6b 37 bd
       -0.103880756 -0.09949918 0.09513381 -0.044779938
000250 66 6e ae 3d 8d 45 ef 3d 6f ec 4f 3d cb 52 8e ba
       0.085171506 0.11683188 0.05076259 -0.0010858414
000260 5c bb 97 3d 85 78 08 bd da 42 a0 3d ac 0a 04 be
       0.07408783 -0.03331806 0.07825251 -0.12894696
000270 c3 ae 41 3d 17 7f c4 3d c4 87 12 be 62 a8 9c 3d
       0.047285806 0.09594553 -0.14309603 0.07649304
000280 19 7e 2e be 35 0d 02 be 00 ce 19 3e 26 32 33 be
       -0.1704029 -0.1270035 0.15019989 -0.17499599
000290 5b 2b 6b bb 59 33 29 be 0e 49 d0 3d b1 ff 20 3d
       -0.0035883996 -0.16523494 0.10170184 0.039306346
0002a0 a8 b5 7f bd 4d 88 c0 3d 56 05 97 3c ed b9 25 be
       -0.0624291 0.09400997 0.018435162 -0.16184206
0002b0 01 37 16 3d 18 22 b8 3d 63 59 97 3d 02 cc 1c bb
       0.03667355 0.08990878 0.07390096 -0.002392531
0002c0 d2 60 8f bc 80 17 36 be 90 5b b3 3d 0d 1a 0c be
       -0.017502222 -0.17782402 0.087576985 -0.13681813
0002d0 a7 82 22 3d 8d 2e 27 be c9 8f fc 3d ad fb a6 3d
       0.03967538 -0.16326351 0.12332112 0.08153472
0002e0 9a a5 48 3d f0 03 07 3e 56 c0 fd bd da 2b bb 3d
       0.048986055 0.13185096 -0.12390201 0.091392234
0002f0 f3 85 27 3e a1 b6 ab 3d e6 4e 5c bb 65 e9 a9 3d
       0.16359691 0.08384443 -0.0033616363 0.082964696
000300 c9 25 3b bd 05 d0 9d 3d d0 ad 21 bd 4c 60 05 bd
       -0.04569033 0.07705692 -0.0394724 -0.03256254
000310 58 a6 22 3e 92 3d 9f 3d e6 9e 4c bc e4 bf 46 3e
       0.15883768 0.077754155 -0.012489056 0.19409138
000320 17 26 f3 bd 54 d2 1a 3d d3 e6 cb bb d4 69 97 bc
       -0.118724994 0.03779824 -0.0062225848 -0.01848308
000330 2d 57 d1 bd d5 cc 2e bd 4b 4c 3f bd 17 41 07 bd
       -0.102217056 -0.04267581 -0.046703618 -0.03302106
000340 40 a0 a7 bd 1a a5 39 3c e1 96 06 3e 6c 38 32 bd
       -0.08184862 0.011330867 0.13143493 -0.04351084
000350 d0 a4 ea 3d 31 77 f4 3c 22 45 a8 bc a8 36 3c 3c
       0.11457217 0.029841991 -0.020540778 0.01148764
000360 5c 22 7e bb f8 f2 e1 bd a2 3f 8d 3d 04 2a 3e be
       -0.0038777804 -0.11032671 0.068969026 -0.18570715
000370 69 28 7b bc f8 c4 b3 bd c3 12 1f 3d 5a 92 18 be
       -0.015329459 -0.08777803 0.038836252 -0.14899579
000380 15 cf 0e 3e 3a d0 de 3d 84 73 9f 3c 62 56 08 bd
       0.13946183 0.1087956 0.019464262 -0.033285506
000390 80 c5 18 be 8c 92 8b 3d b8 ab c7 bd 34 bc c6 3d
       -0.1491909 0.06815061 -0.097495496 0.09703866
0003a0 dd 8a 91 bd b6 c7 a1 3c 15 8c ef bb 1f 40 4a be
       -0.07106564 0.01974855 -0.0073104003 -0.19751023
0003b0 ac 7d 08 3e c6 1b 86 3d e6 88 9b bd 08 6f 01 be
       0.1332919 0.06548266 -0.07594471 -0.12640011
0003c0 55 26 cb bd c7 f5 d5 bd 44 0c 4d 3d b2 49 3a bc
       -0.09919421 -0.10447269 0.050060526 -0.011370109
0003d0 7e 26 b8 3d df 89 1d 3e f8 9b 3f bd 9c a0 d0 3c
       0.08991717 0.15384625 -0.046779603 0.02546721
0003e0 9d fe f6 3d 21 cd 3c 3e 05 91 de bc c3 16 01 bd
       0.120602824 0.18437625 -0.02716876 -0.031515848
0003f0 14 a1 22 3d 3a 74 f1 3c e4 e3 2e 3e f0 08 14 be
       0.039704397 0.029474366 0.17079121 -0.14456534
