main/Finale_Modified/wandb/dryrun-20201028_064843-gslz92dk/checkpoint_lastest.pth (torch_old, 714182 bytes, 83 tensors)

recurrent_blocks.0.weight_ih_l0 f4 [128, 3]
00000000: 8060 dc3a 5a05 debd e305 0bbe df9b 0d3e
00000010: eba9 d6bd 3ae1 11be 0e32 67bd f36d 30be
00000020: f6fe fd3d 022c 72bd 9e64 8e3d 50f3 0fbe
00000030: 95f6 1b3e 14fd 3c3d a56a 2a3e cfc6 303e
00000040: 3c63 2ebd d069 fd3c 00ca a2bb e93a 083e
00000050: 0925 dfbd 7352 c7bd 4e52 e53d 49a7 163e
00000060: c32c 303e 7bc0 213e 0ad2 e53d e5c5 123e
00000070: 5ac7 d23d 00a7 54bb 5c26 10be 035d 053e
00000080: 0be3 20be dfff 2d3e 2c70 4c3d e011 743c
00000090: c8b4 bebc b33e 2b3e 7d9c 1c3e 75d8 34be
000000a0: aa20 b63d 8344 0dbe 380e 4bbd 5da3 b1bd
000000b0: 08de a3bc 0890 f13c 34c8 1c3d a497 a0bd
000000c0: 7cb1 5b3d 075d f0bd 084c 7e3d 4586 253e
000000d0: 60da fcbb a707 303e 7df4 b4bd 1245 b03d
000000e0: de61 e83d 7485 19be 66ad 843d e049 1cbc
000000f0: 90b2 a43c 0023 c73c 3080 253d c653 e83d
00000100: 88de f33c d648 debd d092 b2bc 0423 3abd
00000110: a8ae 46bd 583b 0cbd f47b 473d 3688 dd3d
00000120: 2fd5 233e 6872 c0bd 7b1c 313e 30ed e93c
00000130: 7ec7 22be ba47 f63d 2ef5 a53d f81f b13c
00000140: 0f32 2cbe c0ac 2dbb 6992 a7bd e82a 1fbe
00000150: 5b7f f2bd 4a51 c9bd 379f b8bd d099 57bd
00000160: f6d0 1ebe a9b2 073e feaa a1bd 1643 bc3d
00000170: 1391 313e 96ee f1bd 5297 eb3d 116c 24be
00000180: 00c8 e2bc dc63 d6bd 57f7 183e aff6 293e
00000190: 4368 273e 1429 4fbd d49c 413d cffd 153e
000001a0: cc79 bcbd 0006 9fbc a87c 883d 4e71 d33d
000001b0: 9269 dd3d a037 8fbc f8bd 34bd 9e81 0ebe
000001c0: bef1 ae3d 3b9d c4bd 46e2 bf3d 20df 66bd
000001d0: 3e32 823d a74d 123e 159d e2bd 7155 233e
000001e0: 6eee d13d c688 c03d 1059 ffbd fe82 09be
000001f0: 260f bdbd 8644 67bd 505d 6f3c f0ae ef3c
00000200: 005e 05be 388f a13c cc83 f2bd 4dba 22be
00000210: 74e4 efbd e830 67bd 702c 363d 39c5 e0bd
00000220: 90bc fdbc bdb2 f7bd 0290 883d bb09 2e3e
00000230: 8984 223e d82d 00bd 8635 25be 002a acba
00000240: b421 f5bd 1408 163d 5a7a b33d b007 05bc
00000250: a0b5 323c c8e0 77bd 3aa5 ef3d 0a56 cbbd
00000260: c0e9 3b3d b608 f23d 9ae3 0ebe abb6 91bd
00000270: ce98 a73d 0b47 d4bd 6013 483c 8867 6a3d
00000280: 969a a13d 090d 133e d124 213e f8b0 d23c
00000290: bef6 0fbe ded7 fa3d f886 e73c cd85 0d3e
000002a0: bebb c73d ea96 ea3d 06ed 1ebe 063c fe3d
000002b0: 0832 5e3d 2ffa f6bd 7dea 313e f9ca 023e
000002c0: f0ef c03c 30cd 13be 8093 933d b3d6 2f3e
000002d0: cbcd 193e a056 9cbb 6154 0e3e a123 2dbe
000002e0: 425c 8d3d b83d 9a3c a8bd 433d cabf 9e3d
000002f0: 802c a7bd 1e0d f43d a000 1fbc 2aad d13d
00000300: 1882 f83c 9b23 333e 8ba8 133e 8828 cfbc
00000310: c8b2 0dbe 0e78 cb3d 8d50 013e 2001 153c
00000320: 5a2f a0bd 85ec 033e 6011 e73b d7d5 abbd
00000330: 1447 2dbd 1f61 283e 221f 9abd 2a68 d93d
00000340: a2d6 c5bd d40b 1ebd 9cc8 7a3d 6cdf 64bd
00000350: d3e6 253e f08e 513c a0a6 073d 41af e3bd
00000360: 043a 913d ac5d 09bd 6cf7 51bd 7687 f43d
00000370: 3054 18bd 586c 903c 506a 083c 60f0 d7bc
00000380: 989d 813d e528 1f3e c0f8 4dbc 594c 003e
00000390: 00ec 40bd e992 0e3e f246 ed3d 320c 21be
000003a0: 18da 58bd 36a3 80bd 01ed 203e e0c2 eebc
000003b0: 1486 1ebe 7b14 fdbd 548e 643d 702c 7dbc
000003c0: 40fa f2bd 3c65 3dbd 20ed 36bd 2e97 bfbd
000003d0: 4b38 8bbd c502 2dbe 5616 f1bd 989b 00be
000003e0: 4556 193e 7074 62bc 8a8b 0dbe 5af9 a63d
000003f0: 7cb2 723d f1ac 163e 75bd 233e 8441 3bbd
0.0016813427 -0.108408645 -0.13576464 0.13828991 -0.10481628 -0.14246073 -0.05644422 -0.17229442
0.124021456 -0.059124 0.06952785 -0.1405766 0.15230782 0.04613979 0.16642244 0.1726334
-0.042575106 0.030934244 -0.004967928 0.13303722 -0.10895736 -0.09732523 0.11197339 0.14712252
0.17204575 0.15796082 0.112217024 0.14333303 0.102919295 -0.0032448173 -0.14077133 0.13023762
-0.1571161 0.16992138 0.049911663 0.01489684 -0.023279563 0.16723137 0.1529407 -0.17660697
0.08892949 -0.13795666 -0.049574107 -0.08673737 -0.020003334 0.029487625 0.038276866 -0.07841423
0.05363606 -0.117364936 0.062084228 0.16164501 -0.007716462 0.17190419 -0.08835695 0.08606924
0.11346792 -0.14992315 0.064783856 -0.009539098 0.020104676 0.024308681 0.040405452 0.113441035
0.029769197 -0.10853736 -0.021798521 -0.04544355 -0.04850641 -0.034236282 0.048702195 0.10816996
0.15999292 -0.09396821 0.1729602 0.028555483 -0.15896413 0.120253995 0.08103405 0.02162169
-0.16815971 -0.0026500672 -0.081822224 -0.15543711 -0.118406974 -0.09829958 -0.09014743 -0.05263692
-0.155094 0.13251747 -0.07893942 0.09192483 0.17340498 -0.11813085 0.115034714 -0.16056849
-0.027683258 -0.104682654 0.14938103 0.16598009 0.16348366 -0.050576285 0.047268704 0.14647602
-0.092029184 -0.01941204 0.06664401 0.103243455 0.108111516 -0.017482579 -0.04412648 -0.13916633
0.085422024 -0.09600302 0.0936933 -0.056365132 0.06357239 0.14287435 -0.11065117 0.15950562
0.10250555 0.094010875 -0.12468159 -0.13428876 -0.09231405 -0.056461833 0.01460965 0.029258221
-0.1302414 0.019721612 -0.118415445 -0.1589138 -0.11713496 -0.056443125 0.044475973 -0.10975117
-0.030973703 -0.120946385 0.06668092 0.169959 0.1587087 -0.03129372 -0.16133699 -0.0013135076
-0.11969319 0.036628798 0.08763571 -0.008119509 0.010907561 -0.060517102 0.11701436 -0.0992852
0.04587722 0.11818068 -0.1395401 -0.07114919 0.08183442 -0.10365113 0.012211651 0.05722764
0.07890813 0.14360441 0.157367 0.02571915 -0.14058968 0.12248205 0.0282626 0.13820572
0.09752606 0.11454566 -0.15520105 0.12413792 0.054246932 -0.120594375 0.17374606 0.1277274
0.023551911 -0.14433742 0.07205868 0.17171745 0.1501991 -0.0047710687 0.13899375 -0.16908123
0.069023624 0.018828258 0.047788292 0.077514246 -0.081627846 0.119165644 -0.009704739 0.102381065
0.030335471 0.17494051 0.14419763 -0.025287881 -0.13837731 0.09935008 0.12628384 0.0090945065
-0.078215316 0.12883194 0.007051632 -0.08390396 -0.042304114 0.16443299 -0.07525469 0.10615571
-0.096600786 -0.0385855 0.061226472 -0.055877134 0.16201334 0.012790427 0.03311789 -0.111174114
0.07091144 -0.033536598 -0.05126135 0.119398996 -0.037189662 0.017629787 0.008326128 -0.026359737
0.06328887 0.15542944 -0.012571514 0.12529124 -0.047100067 0.1392323 0.11585797 -0.15727308
-0.052942365 -0.0628113 0.1571541 -0.029145658 -0.15480834 -0.12357422 0.055799797 -0.015452489
-0.11864138 -0.046239123 -0.044659734 -0.09355007 -0.067978464 -0.16895588 -0.11771838 -0.12559354
0.14974315 -0.013821706 -0.13822761 0.08153029 0.059252247 0.1471441 0.15990241 -0.045716777

recurrent_blocks.0.weight_hh_l0 f4 [128, 32]
00000000: c0dd de3c e0b3 54bc ecd9 4a3d c8a6 743d
00000010: b4af 893d caff 9bbd 6075 8b3d 30bd b53c
00000020: 7edd dc3d 98a8 cfbc a0cc 783c 8f52 233e
00000030: 9bb9 12be f802 45bd 4f9e 073e 0e75 f03d
00000040: b060 dc3c 8249 e83d 5197 a1bd e250 15be
00000050: 6144 193e a000 383d a0e2 9bbb 6b5b 253e
00000060: 5668 20be e25d 22be 0036 d3bd 7cf5 44bd
00000070: b09f 15be c394 0abe d837 19be 67b4 2dbe
00000080: 84d1 efbd a061 743c fa34 e1bd 1b4f 0d3e
00000090: b8e5 3a3d 9e65 823d f1e2 0a3e bd00 2abe
000000a0: 09b4 a0bd b02b 35bd 0e15 e6bd f6d8 cb3d
000000b0: 098b 80bd 04e1 28bd bc39 2a3d 5798 cebd
000000c0: 2006 1dbc bcee 43bd 08cd 33bd a94f 1e3e
000000d0: 342f 3e3d 26ce ec3d baf2 bfbd 6c8f f6bd
000000e0: b906 f3bd 9d85 30be 8953 333e d688 be3d
000000f0: 3bb1 c1bd ed4a debd 6dab 2e3e 4ade ebbd
00000100: 688b adbd 4034 103b 3997 1b3e e0e2 8b3b
00000110: 706e 0abc 28a3 d23c 2043 c5bd f63b b3bd
00000120: 1d51 313e 2d9d 21be 1e3c fe3d 507d 643d
00000130: 428e afbd ecd5 27bd 6d98 c6bd 66fc d93d
00000140: 58fe 8cbd 3c94 653d 0fd0 edbd 66be 9cbd
00000150: c5c9 00be 79b2 1ebe 6989 f2bd a0a0 48bc
00000160: 5e9e 18be 3d5a 283e 1531 0abe 0f0a 223e
00000170: 76a3 cb3d c0a9 a13b 76d0 29be 7d74 113e
00000180: 6a99 963d 3283 a83d 1902 8bbd 32a8 95bd
00000190: a04e 943b 0f0a 303e 540f 00be 3948 0a3e
000001a0: 90b7 20bc 09c7 b6bd 386a 6b3d d07c 683c
000001b0: 8da3 1dbe b5e1 c0bd 0094 f73a 36ab f8bd
000001c0: 3e46 a3bd efda 22be 2844 16be 5587 113e
000001d0: fc1f ecbd 9eb3 bc3d e140 bdbd 7632 f23d
000001e0: 60e1 63bc 6035 42bc 1019 30bc c7ca 33be
000001f0: c0f0 67bd 327a a0bd e064 10bd ba68 9b3d
00000200: 509c 08bd 531e fbbd b4c7 503d 042c 833d
00000210: 6baf 14be f63e f23d c074 5f3c e32f 223e
00000220: cbe0 2fbe ee6c cd3d a894 3cbd da7f a9bd
00000230: 7a15 8b3d 07e1 82bd e3a9 033e ed7c dbbd
00000240: c86c 3d3d d053 543d 10ad 853c 7807 e13c
00000250: 039f 17be c442 50bd 88b1 bf3c 6121 a2bd
00000260: 70a9 a5bd 7c97 34be 77f2 edbd 68e2 9dbc
00000270: a87d 093d a4d8 8f3d 3a80 28be 6008 7f3c
00000280: 46d9 bf3d 90d0 01bd 706e 0dbd 5a49 65bd
00000290: a012 793d 5c5c 9bbd 6e63 f1bd dbbb 1f3e
000002a0: 3070 b3bc 2229 ad3d 2397 04be 4663 be3d
000002b0: e34c 0abe b95c 343e 9c39 84bd 0fb4 063e
000002c0: e8a8 efbc aa77 8f3d 03fe 1fbe 545e 50bd
000002d0: 4c96 533d d411 7d3d 64b1 babd 050d 163e
000002e0: 4baf 193e fffc cdbd 536f 333e 6c31 ebbd
000002f0: 3d08 03be 3b4b f4bd ad1e 21be b09f fdbc
00000300: d27d 91bd a536 33be d8c6 8a3c 21a1 afbd
00000310: 88f3 0abe 2674 a5bd 0188 113e 2594 183e
00000320: 6d56 1bbe f217 e83d 8e4c c03d be29 0dbe
00000330: 9ef0 963d c581 203e 03ad 88bd 1e96 f23d
00000340: 2c40 4abd 979d 9dbd 8aa5 953d d806 f73c
00000350: 15ce 233e 9b1c 93bd fa7d a43d 2f15 1f3e
00000360: 898d 243e abc4 e9bd 524d 29be 0e0e b23d
00000370: c096 96bb 25d2 2f3e ba53 28be 46a0 12be
00000380: d790 113e 9099 debc 00d5 20bc aa53 b73d
00000390: 58d6 a1bc 8a82 fc3d 06fd c93d f0a0 d93c
000003a0: b823 e1bd 08ea 893d 575b fabd 4435 93bd
000003b0: 98be 4c3d 599d 0f3e 3c4d 11bd 14c4 16bd
000003c0: e087 a13c 82c5 c13d 2d54 0b3e 23d1 91bd
000003d0: f418 efbd 46a6 8ebd 3440 7abd 90f7 213c
000003e0: c4b4 23be 30c8 d2bc 1f2d d5bd 1f6f 323e
000003f0: 02fd 10be e49a 29bd ed5d 203e c45b 37bd
0.027205348 -0.012982339 0.049524233 0.059729367 0.06722966 -0.07617147 0.06809497 0.022184938
0.10784434 -0.025348946 0.015185505 0.15949462 -0.14328615 -0.048098534 0.13243984 0.117410764
0.026901573 0.113421455 -0.078901894 -0.14581636 0.1496749 0.04492247 -0.0047572404 0.16148154
-0.15664801 -0.15856126 -0.10313034 -0.048085675 -0.14611697 -0.1353331 -0.14962709 -0.1696335
-0.11709884 0.014915854 -0.109964326 0.13799708 0.045629233 0.06367038 0.13563134 -0.16601844
-0.07846839 -0.044231117 -0.112344846 0.099534914 -0.06276519 -0.041230217 0.041558966 -0.1008765
-0.00958398 -0.047835097 -0.043896705 0.15460075 0.046431735 0.11562757 -0.09372468 -0.12039074
-0.118665166 -0.1723847 0.17512335 0.09303443 -0.09457632 -0.10854135 0.17057581 -0.11517008
-0.08473855 0.00220038 0.15194406 0.004268989 -0.008449182 0.025712565 -0.09631944 -0.08751671
0.17316099 -0.15782614 0.1241381 0.05578357 -0.085720554 -0.040975496 -0.09697042 0.10643844
-0.0688445 0.05604957 -0.1161195 -0.07653503 -0.12576969 -0.1549777 -0.11842615 -0.012245327
-0.14904162 0.16440673 -0.13495286 0.1582415 0.09943287 0.004933566 -0.16583428 0.14204593
0.0735348 0.082281485 -0.067875095 -0.07307471 0.0045259744 0.17191337 -0.12505847 0.13504113
-0.00980939 -0.08924682 0.057474345 0.014189914 -0.15394421 -0.0941805 0.0018888712 -0.12142031
-0.07972382 -0.15903829 -0.14674437 0.14211781 -0.11529538 0.09213947 -0.0924089 0.11826031
-0.013908714 -0.011853546 -0.010748163 -0.17557822 -0.05662608 -0.07835807 -0.035252452 0.075883344
-0.033352196 -0.12261643 0.0509717 0.0640488 -0.14520042 0.11828415 0.013638675 0.1583858
-0.17175595 0.10030542 -0.046040207 -0.08276339 0.06791206 -0.06390577 0.12857775 -0.10717187
0.04624632 0.051837742 0.016317874 0.027469382 -0.14806752 -0.050844923 0.023400083 -0.07916523
-0.08088958 -0.17635912 -0.11618512 -0.019272998 0.0335671 0.07023743 -0.16455165 0.015565962
0.093676135 -0.03169304 -0.03452915 -0.055978157 0.060808778 -0.075859755 -0.11786543 0.15599005
-0.021904081 0.08455111 -0.12948279 0.09296279 -0.13505892 0.17613496 -0.064563006 0.13154624
-0.029255345 0.07005246 -0.15624242 -0.05087121 0.051657006 0.06178458 -0.09115866 0.14653404
0.15008275 -0.10058021 0.17522936 -0.11484036 -0.12796111 -0.119284116 -0.15734358 -0.030959934
-0.071040764 -0.17501314 0.01694052 -0.08575655 -0.13569462 -0.08078794 0.14212038 0.14900263
-0.15169688 0.11332692 0.09389602 -0.13785455 0.07370113 0.15674503 -0.06673624 0.11845039
-0.049377605 -0.076960735 0.07306965 0.03015463 0.15996583 -0.071831904 0.080318406 0.15535425
0.16069616 -0.114144646 -0.16533402 0.08694087 -0.0045956075 0.17170008 -0.16438189 -0.14318952
0.14215408 -0.027172834 -0.009816408 0.089515045 -0.019755527 0.12329586 0.098627135 0.026565999
-0.10993141 0.06734091 -0.12224453 -0.07187894 0.049986452 0.14024867 -0.035474047 -0.03680809
0.01971811 0.094615 0.1360633 -0.07119968 -0.11674681 -0.06965308 -0.061096385 0.009885684
-0.15986925 -0.025730222 -0.10408997 0.17425202 -0.14159015 -0.04140748 0.1566083 -0.04476525

recurrent_blocks.0.bias_ih_l0 f4 [128]
00000000: 788f 16bd aa1b ee3d 0af5 c93d 8f21 31be
00000010: ec58 33bd 607b d13c 469a aebd cba1 1bbe
00000020: b5f0 95bd 3fc1 043e a2c6 8a3d ad84 173e
00000030: 4a85 cb3d af2e 2d3e d5a4 113e 3c80 67bd
00000040: a09b b73b da23 c8bd 68e8 87bc 5a28 e33d
00000050: 6c75 28be 8c00 a5bd 174a 303e c23a ec3d
00000060: 7404 02be f0da 3fbc 0004 bbb9 3442 4bbd
00000070: 4034 9c3b c66a a53d dc6b 31be 4cfb 45bd
00000080: 2190 1b3e 00a5 003a 8003 89bd 3357 123e
00000090: c8bd 8c3c 249b 3ebd dee9 bd3d 3e59 ec3d
000000a0: a13b e3bd 592d 99bd 43e2 2a3e 14ea 5e3d
000000b0: a7d1 263e 80e6 b23a 1898 87bd b226 29be
000000c0: 46d1 07be 10bf 40bd 2fcd 23be 749e 813d
000000d0: 7eac 9e3d 0a4a 983d 7abf 803d 12e5 ff3d
000000e0: 80e8 093d 7cc8 933d 76fb 14be f2ee abbd
000000f0: 803a 883a d84d 04be 6252 903d 2088 94bd
00000100: fd62 2b3e 4e08 e93d 0333 8fbd 4d1a 223e
00000110: bb9a 1b3e e33d 1fbe 3006 d1bc 2811 b6bc
00000120: 1e5c e93d f8ff 793d f8a5 f53c 7938 0a3e
00000130: aebe 803d 7a78 af3d f0da 31be 60c2 12bd
00000140: 1f91 333e a871 373d 34bf 30bd 1067 d7bc
00000150: e7a1 083e fcca 0ebd 0e4b 28be 3ccb e4bd
00000160: cb5d e9bd 0b6e b3bd 34e8 20be e091 03be
00000170: 1f91 003e 9b30 003e 7bc7 0cbe eea2 85bd
00000180: e73b 253e 257c d0bd 90ba 67bc 37e3 93bd
00000190: 1057 433c db88 253e 9966 153e 0b3a 1cbe
000001a0: e3a1 063e 9628 1cbe b02c d8bc 4022 913b
000001b0: 3a81 03be 90b8 c2bd 808c cbbb 16e2 d33d
000001c0: 62ca b4bd b815 9cbd b63a ce3d 52b4 cb3d
000001d0: a49c 863d 1c78 3e3d b696 ce3d 8642 11be
000001e0: 86f3 dabd ca91 ab3d b74b 013e 3ba6 0b3e
000001f0: 5042 d9bc 5a4d a03d 9600 e1bd 574e 8cbd
-0.036757916 0.1162637 0.098611906 -0.17297958 -0.043785974 0.025571525 -0.08525519 -0.15198438
-0.07321302 0.12964343 0.067761675 0.14796706 0.09937532 0.1691234 0.14223035 -0.05651878
0.0056032687 -0.09772463 -0.016590312 0.11091681 -0.16451043 -0.08056745 0.17215763 0.11534645
-0.12697011 -0.011709914 -0.000356704 -0.049623683 0.004766971 0.08077006 -0.17326301 -0.04833536
0.151917 0.00049073994 -0.06690121 0.14291076 0.017180339 -0.046534672 0.09273122 0.11540459
-0.11095358 -0.074793525 0.16687874 0.054422453 0.16290914 0.0013649017 -0.066208065 -0.16518667
-0.13263425 -0.04705721 -0.1599624 0.06329051 0.07747744 0.07435997 0.06286521 0.124948636
0.033668995 0.07215974 -0.1454905 -0.083951846 0.0010393411 -0.1292032 0.07046963 -0.07252526
0.1673698 0.11378537 -0.069921516 0.15830345 0.15195744 -0.15550952 -0.025515646 -0.022224978
0.11394523 0.061035126 0.029986367 0.13498105 0.06286369 0.08567901 -0.17368674 -0.0358299
0.17535828 0.044786125 -0.043151096 -0.026294261 0.13343011 -0.03486155 -0.16434881 -0.111715764
-0.11394843 -0.087612234 -0.15713578 -0.12848616 0.1255536 0.12518542 -0.13747971 -0.06525217
0.16136132 -0.10179929 -0.014143601 -0.07221072 0.011922613 0.16165487 0.14589919 -0.15256517
0.13147692 -0.15249857 -0.026388496 0.0044291317 -0.12842265 -0.09507859 -0.0062118173 0.10345857
-0.08827664 -0.0762133 0.10069792 0.09946503 0.065728456 0.046501264 0.100873396 -0.14185533
-0.1069098 0.083774164 0.12626539 0.1363763 -0.026520878 0.07827254 -0.1098644 -0.0685088

recurrent_blocks.0.bias_hh_l0 f4 [128]
00000000: f857 0e3d de83 f73d 013a 313e 01c0 cebd
00000010: 466c c53d d365 003e 402f cfbb 8a81 09be
00000020: b0f3 fabc 4b0f 05be ae4e de3d e563 1b3e
00000030: 80ab db3a 20e7 b93c 0831 82bc 2ee9 b1bd
00000040: 505a 4e3d 68e0 1dbd 7f74 31be aab5 d53d
00000050: ba82 e33d b64c a53d a954 0e3e aa94 d03d
00000060: e0d6 833b 6fb5 083e 5852 8dbd f09b 073d
00000070: aff3 0a3e bba8 dbbd 01ea 343e b47c 9cbd
00000080: f0dc 4b3d 4e3a a93d 0615 e93d 90d2 bcbc
00000090: 48d1 14bd a9ec 8bbd 1086 103c 3859 2cbe
000000a0: 047b 0cbd 129a 0dbe d1e8 e1bd 7657 6cbd
000000b0: 8083 703d fc5a 25bd 9888 b5bc a2c5 a43d
000000c0: cb8f 1f3e d67a 1abe 1483 573d 002a e53a
000000d0: 8733 afbd 0a20 ffbd aa07 ca3d 5e8a bb3d
000000e0: 8cce 17bd 3c43 88bd 99cd 083e 0f3f c9bd
000000f0: 87ca 2ebe 4db8 f4bd 65b7 253e 8acb c3bd
00000100: 068b e63d 0925 113e 4621 ca3d db31 1cbe
00000110: 5c49 433d 4140 bcbd d457 35bd d85e bbbc
00000120: dd95 2a3e 3a82 f73d b484 d9bd 3c83 183d
00000130: 2d6a d7bd 506f 1ebc 065c dfbd 4314 8fbd
00000140: 80bf babd 65c3 03be 3e66 b03d 9196 323e
00000150: bcd3 95bd 2082 8b3d 0686 c03d c24b 33be
00000160: 95da 043e 8066 303c a8fe ddbc 66a9 c73d
00000170: 8a36 e23d 5e98 fa3d 088e bd3c 8301 013e
00000180: 51a4 e3bd 6071 d8bc e02c 8d3b 6062 ca3b
00000190: e008 efbc 6871 e83c 3f6c 2fbe 5478 22bd
000001a0: 94f2 1cbd af71 293e c6d3 f03d 2d5f 2a3e
000001b0: 8097 773d f286 cf3d a4e0 13be a19e efbd
000001c0: c5ea 1d3e 1040 023d a355 1dbe 6823 90bd
000001d0: e6e0 09be 8800 3a3d eed6 b0bd 00fd f03c
000001e0: ac21 5cbd 7528 273e 48f1 77bd 7db1 21be
000001f0: 65c9 84bd 6017 b43c cd82 343e 18d8 92bc
0.034751862 0.120856985 0.17307283 -0.100952156 0.09639792 0.12538843 -0.0063227713 -0.13428321
-0.030633777 -0.12994115 0.10854851 0.15174825 0.0016759485 0.022693217 -0.01589252 -0.086870536
0.050379097 -0.03854409 -0.17329596 0.1043504 0.111089185 0.08071272 0.13899483 0.101846054
0.004023418 0.13350461 -0.069004714 0.033107698 0.1356952 -0.10725542 0.1766739 -0.07640973
0.04977125 0.08263074 0.11380963 -0.023049623 -0.0363324 -0.06832249 0.0088210255 -0.16830909
-0.034297004 -0.13828304 -0.11030734 -0.057700597 0.05871916 -0.040369973 -0.02215986 0.08045508
0.15582196 -0.1508592 0.05261524 0.001748383 -0.0855475 -0.12457283 0.09864743 0.09157251
-0.037062213 -0.06653449 0.1335968 -0.098264806 -0.17069446 -0.11949215 0.1618324 -0.09560306
0.11256985 0.14174284 0.09869628 -0.15253393 0.047677383 -0.09191943 -0.044273213 -0.022872373
0.16658731 0.120853856 -0.10621014 0.03723453 -0.10518298 -0.009670094 -0.10906224 -0.069862865
-0.09118557 -0.12867506 0.08613251 0.17440249 -0.07315776 0.06811929 0.09400563 -0.17509368
0.12974007 0.010766625 -0.027098969 0.09749107 0.11045559 0.12236093 0.023139015 0.12598233
-0.11115325 -0.026421249 0.004308328 0.006176278 -0.029179037 0.028374389 -0.17131136 -0.039665535
-0.038317278 0.16547273 0.117591426 0.16637869 0.060447216 0.10133161 -0.14441162 -0.11700178
0.15421589 0.031799376 -0.15364699 -0.07038003 -0.13464698 0.045410663 -0.086347446 0.029417515
-0.05374305 0.16324027 -0.060532838 -0.15790363 -0.064837255 0.021983802 0.17628022 -0.017925307

recurrent_blocks.0.weight_ih_l0_reverse f4 [128, 3]
00000000: 6e56 a23d 989a ccbc d017 c53c 935e 133e
00000010: 1e6b 913d acb8 f3bd 00ba 04be f219 1fbe
00000020: 0bf7 2e3e 8bbd 2fbe 80ec 67bb 7855 f93c
00000030: a4fb 033d 160e f73d 663f c03d 58b8 bdbc
00000040: bfb4 1e3e bb01 033e 2697 fc3d 22b0 5cbd
00000050: 7fa7 2b3e 44a0 28bd 15a8 2b3e 200c d0bc
00000060: 8b64 213e bf51 06be 8cc9 5f3d 0096 a739
00000070: 73d4 89bd 5385 013e 7011 9c3c fab8 eb3d
00000080: 9609 c2bd f2d4 2cbe 480e 66bd 3cdd 453d
00000090: c8ea b4bc c0d3 19be 64ee 00bd 302a 0ebc
000000a0: 6065 15bd 50b3 fbbd 5a77 0bbe c250 c3bd
000000b0: 56c4 dc3d 7a0f 973d a02c 373d f0c3 393d
000000c0: f514 2a3e 4df0 babd d462 21be d0d2 113d
000000d0: 12b5 d03d 8097 31bd a8b9 e1bc ea56 ec3d
000000e0: 91ba bfbd 3869 1a3d c092 3ebc b8a8 093d
000000f0: d3f0 113e 30a5 39bc 63c3 213e 40ef cebc
00000100: 843a e5bd b4b4 583d 8874 09bd bb1c 003e
00000110: d401 28bd 9ce9 0c3d 8dc6 133e 083d 28bd
00000120: 84c0 17bd e0a4 233d f2e7 983d c66c e63d
00000130: 4077 da3b 00d8 f83a 9e85 dd3d 7908 18be
00000140: ebb4 103e 109a cebd 60d3 85bc 105a bdbc
00000150: 40a4 f43b 7621 f03d 6d68 a7bd 41fe 1b3e
00000160: e25f 5abd 2a71 933d 3248 ec3d acf1 2dbd
00000170: 9b12 1cbe 006b 2abb 5aa9 6cbd 007b 06be
00000180: 107d 2fbe c06f 503d 708d a33c 7845 5d3d
00000190: 20e5 d13c baf5 f63d 70c5 643c a3ed 043e
000001a0: 73fb 17be 58d6 d83c 7da6 15be f0bb 9dbc
000001b0: b3f8 bebd d01b 943c 53f4 0b3e c0b2 c13b
000001c0: fc6c acbd f75e dcbd 56d5 fa3d 601f a4bb
000001d0: 617a cbbd 84a0 2f3d e020 793d e840 1ebd
000001e0: 683c f33c b032 20bd d415 143d 42dc c23d
000001f0: 67a5 34be 10c7 233d 420a b93d a0b2 febd
00000200: e076 ff3b 7ca1 4ebd 1ef4 cc3d 2ef5 84bd
00000210: 0c9f 2b3d be74 95bd 5026 bcbd 603a 5dbc
00000220: ce14 a73d d89f 813c 0f02 16be ad88 1f3e
00000230: bdab 1fbe 58d0 e1bd f0fb fbbc 60c4 47bd
00000240: 04a5 3ebd 22db 1cbe a7ee aebd 526c 28be
00000250: 24c0 3cbd e4e7 b2bd b8db acbc 9565 213e
00000260: 8846 573d da52 0fbe 908d c2bc 075d afbd
00000270: 54a9 25bd d459 5f3d cf2c 1f3e 00ef 3abd
00000280: bf47 05be f408 7b3d 5c24 693d 1829 f43c
00000290: 0e15 d53d 60fa 52bc b89a ff3c e35f 1a3e
000002a0: 2416 17bd 8039 d3bc 056b ebbd 0292 a63d
000002b0: 0700 b2bd 985d 10bd 900c 5a3d b858 c83c
000002c0: c07c 4dbb 8449 533d 9861 583d 03e9 163e
000002d0: 89b7 cdbd 68ea b3bd 20c5 46bd 2891 3dbd
000002e0: 9c13 10be 16b0 ea3d 65af 24be 6404 863d
000002f0: 7a53 09be 60bc 9fbb 7054 2d3c eb39 303e
00000300: 76ac b2bd 87da 083e fcde 673d 081d 8a3c
00000310: 8b66 d0bd 183b 26bd 94c8 243d 5512 113e
00000320: 7848 98bc b870 0abd 2c16 713d 56f1 913d
00000330: 883c 49bd a0f0 db3b 086a e33c d40e 013d
00000340: 448f 1dbd 6bd9 1e3e 9230 80bd 1815 8f3c
00000350: 7de3 093e e8b8 1cbd 676c b8bd 3e63 cc3d
00000360: 054f 123e 76f6 fe3d 8f58 293e d2ef 17be
00000370: 9dc4 edbd e0c6 69bc 0bee 003e ba0b e33d
00000380: 3eb0 e53d 6089 3ebd 287b 04bd 4628 ee3d
00000390: 748f 83bd 7982 a2bd d033 81bd a436 03bd
000003a0: dc8b 22bd 45c2 203e 83d3 09be 7a48 c23d
000003b0: 2f40 2f3e a757 05be 9c50 773d 204c 2dbc
000003c0: 4e05 913d a01d 37bd 625f ed3d d66e b63d
000003d0: c4ae 02be d563 0f3e d9b7 153e 30f9 37bc
000003e0: 6a40 be3d 6257 7abd a2f1 9a3d a450 00be
000003f0: fa90 1ebe 0a0d 17be 7dfa 0a3e 40fd 5fbc
0.079266414 -0.02497606 0.024059206 0.14391546 0.07100509 -0.11900458 -0.12961578 -0.15537241
0.17086427 -0.17162149 -0.0035388768 0.030436262 0.032222405 0.120632336 0.09387092 -0.023159191
0.15498637 0.12793629 0.12333517 -0.05387891 0.16763113 -0.041168466 0.16763337 -0.025396407
0.1576101 -0.13117121 0.05463557 0.0003196448 -0.067299746 0.12648515 0.019051284 0.11509891
-0.094744846 -0.16878107 -0.056165963 0.04830669 -0.022084609 -0.15022182 -0.031477347 -0.0086770505
-0.03647363 -0.122900605 -0.13619748 -0.09536888 0.107796356 0.07375999 0.044720292 0.045352876
0.16609557 -0.09127865 -0.15760356 0.035601437 0.101907864 -0.043357372 -0.027554348 0.11540015
-0.093617566 0.037698 -0.011631668 0.03360817 0.14252023 -0.011330888 0.1579719 -0.025260568
-0.111928016 0.052906707 -0.0335584 0.1251096 -0.04101737 0.034402475 0.1443121 -0.04107383
-0.03704883 0.03995216 0.07466115 0.11251216 0.0066670477 0.0018985271 0.10816501 -0.14846982
0.14131515 -0.10087979 -0.016336143 -0.023114234 0.007465869 0.11725132 -0.081742145 0.15233709
-0.053314097 0.07199319 0.11537208 -0.042466804 -0.15241472 -0.0026003718 -0.057778694 -0.13132858
-0.17137551 0.050887823 0.019964904 0.05402133 0.02562195 0.12058587 0.013963088 0.12981276
-0.14842014 0.026469395 -0.14614291 -0.019254655 -0.09324779 0.018079668 0.13667421 0.0059112012
-0.084192246 -0.107603006 0.12247722 -0.005008623 -0.09935451 0.04287769 0.060822368 -0.03863612
0.02969189 -0.03911084 0.03615363 0.09514667 -0.17641221 0.039984763 0.0903516 -0.12436414
0.0077961534 -0.050446972 0.10007499 -0.06492077 0.041899726 -0.072976574 -0.09186995 -0.013502687
0.08158265 0.01582329 -0.14649223 0.15579481 -0.15592857 -0.110260665 -0.030759782 -0.048771262
-0.04654409 -0.15317968 -0.08541613 -0.16447571 -0.046081677 -0.08735636 -0.021100864 0.15761407
0.0525575 -0.13996449 -0.023749143 -0.085626654 -0.040444687 0.054529026 0.15544437 -0.045638084
-0.1301565 0.061287835 0.05691944 0.029804751 0.104044065 -0.012877077 0.031201705 0.1507564
-0.03688635 -0.025784254 -0.11495022 0.081333175 -0.086914115 -0.035245508 0.053234637 0.024456367
-0.0031354874 0.05158378 0.052827448 0.14737324 -0.10044772 -0.08784944 -0.048527837 -0.04628101
-0.1406998 0.11459367 -0.16082533 0.06543806 -0.1341075 -0.004874751 0.0105792135 0.17209594
-0.087243006 0.13364612 0.05660914 0.016859546 -0.101758085 -0.0405837 0.04023035 0.1416715
-0.018589243 -0.033798903 0.058859035 0.07126109 -0.049129993 0.0067120343 0.02776052 0.03150828
-0.038466707 0.15512626 -0.06259264 0.017466113 0.13465686 -0.038262278 -0.09005051 0.099798664
0.14287956 0.124493524 0.16537689 -0.14837578 -0.11609767 -0.014268607 0.12590806 0.11086221
0.11215256 -0.04651773 -0.032344013 0.11628775 -0.06423846 -0.07935042 -0.063087106 -0.03203453
-0.03968416 0.15699108 -0.13459592 0.0948648 0.17114328 -0.13021718 0.06037961 -0.010577232
0.0708109 -0.044705987 0.115904585 0.08907859 -0.1276198 0.14002927 0.14620914 -0.0112288445
0.0928963 -0.06111849 0.07565619 -0.12530762 -0.15484992 -0.14751068 0.13572116 -0.013671219

recurrent_blocks.0.weight_hh_l0_reverse f4 [128, 32]
00000000: 98d6 87bc c0b6 10be 73fc 193e a2f9 f33d
00000010: b80c f7bc e0d6 13bd 0010 073a 9cbb 20be
00000020: 809f 63bd 81f0 013e 596e dcbd af29 bebd
00000030: 8041 d3bc d5a7 053e 478c 113e 4ffb 98bd
00000040: 8cac 2ebd 71ac 0e3e f89d 563d 4f0f 033e
00000050: ea28 e03d 6ec9 a93d 70a1 4ebd b890 e8bc
00000060: f4b8 1dbe 2431 23be 8d2f 31be 56e1 7fbd
00000070: b602 09be 3869 333d cc24 7a3d a198 88bd
00000080: 3818 753d 36a3 c1bd 70ec 78bc 401e d3bb
00000090: f36c 08be 20c5 28bc a6f7 a63d d9bb 0e3e
000000a0: fa92 da3d 9bf7 babd 28e5 1bbe 2e73 31be
000000b0: c7e6 f7bd 4608 de3d 64c7 1dbd 64e8 843d
000000c0: 8002 f6ba 1517 243e 34e6 8b3d f0e6 bebc
000000d0: 23fd 88bd 6f11 023e e216 b33d c8f1 e6bc
000000e0: 30b6 d5bc 2607 e5bd fa5d c93d 00fe bc3c
000000f0: bd42 c7bd e232 a5bd e3a1 253e 8fc6 f5bd
00000100: 7275 d63d 3064 1bbd b359 2d3e b397 2cbe
00000110: ee46 873d 9751 1e3e 75ac f8bd 81d8 033e
00000120: 160c f83d 4869 f4bc 709d 30bc 2858 89bd
00000130: 3c9e 87bd 93aa 83bd 20db 18bc 6119 ccbd
00000140: 9f67 16be 2821 7abd aee3 69bd f62e 993d
00000150: 40e1 75bb 903f f53c 0077 38bc d3f5 c3bd
00000160: f09f d7bc 00cc 73bc 3c98 763d 28e8 1dbe
00000170: c98e 343e 20a6 703c 2af2 1abe c018 da3b
00000180: b2d6 f43d 33dd 1e3e 8e37 25be 4938 c5bd
00000190: 6c78 8a3d 101c 7bbc e903 083e c01f a4bb
000001a0: 57fa 28be 99c2 073e b6c0 ee3d dd28 94bd
000001b0: 5232 843d a4bd 3cbd 204a ddbd 5249 01be
000001c0: 2092 0b3d 405f 933d 103f 0abe 7a63 29be
000001d0: 83f9 06be 5492 0abe 0aba e9bd 7ccb 61bd
000001e0: 8c45 2abe f04c cbbd 5e76 c43d a0a8 033d
000001f0: 6897 00be c28d b73d 80fb b7bb e352 193e
00000200: 108b 743c c2e9 e0bd 709a be3c 308b 293d
00000210: 643d 0e3d 7a07 ba3d e8b5 be3c 7b01 1ebe
00000220: 3f96 233e 68b9 b0bc 2ed7 ef3d fe0d a43d
00000230: 96b5 d23d c307 0dbe bc0a 42bd 9bf7 143e
00000240: 8a61 08be c602 dbbd a6c0 d23d f217 7abd
00000250: 424c c33d 2593 0b3e dc97 e6bd 3f66 263e
00000260: 7006 28bc a8f4 a53c df97 b3bd 2490 103d
00000270: 5870 16bd 5c19 5dbd 08f4 ad3c 41e9 273e
00000280: 5ecd c6bd f66f 863d fe90 a43d ae35 11be
00000290: b161 2abe 6c6c 6dbd 8b3a 2cbe 2e4a a8bd
000002a0: 4841 f3bd 707b 06bd ea74 fe3d 1ad3 9cbd
000002b0: 80e7 b5bd 1c3c 34be c498 2ebe 989b 17be
000002c0: dab2 f2bd 2e37 e43d 8ad1 2ebe 06ce 58bd
000002d0: 07e4 26be 5a55 893d bd8a 0a3e 0310 13be
000002e0: 3009 d1bc 3217 04be 52c1 07be ac01 843d
000002f0: d26c dcbd 0b85 013e 1884 13bd 0cfe 6b3d
00000300: e9b0 263e 00bb faba 6aa1 e83d 5e3b 8e3d
00000310: 7999 31be 13eb 0dbe 528f 11be 78bb 903c
00000320: c2b0 fa3d 7fcc dfbd f883 763d 6c8d 2d3d
00000330: 5e34 1ebe 912c 18be 3ec6 dbbd 2091 f43b
00000340: 3027 3d3c 5464 e8bd 4adb f5bd 000d debb
00000350: 25a4 cdbd de7a 993d 217c 153e 5085 2ebc
00000360: f6fb c33d bc4c 2fbd 30b3 74bd cebe 7dbd
00000370: 845e 2fbd 0e04 89bd 5040 1dbe 19f1 cdbd
00000380: 00ce b539 e090 a83c f84a 4b3d cd9e a8bd
00000390: 8686 2bbe f022 843d 3052 5c3c 2530 11be
000003a0: a8d8 8abd 2821 1dbd 8738 34be 35fa 323e
000003b0: 90da 5abc 7b66 0cbe 3a75 ebbd 11f1 083e
000003c0: 7ae7 0abe 80c7 2c3c 7983 debd 6c04 53bd
000003d0: b00f 0c3d e028 f9bd 805e 823d 05e7 143e
000003e0: 0a1e d43d 80dd 2f3b 22ab e5bd d6bf 34be
000003f0: 9bfb d3bd f0b6 a3bd 7032 7d3d 42df da3d
-0.016581818 -0.14132214 0.15037708 0.11912848 -0.030157432 -0.036093593 0.00051522255 -0.15696567
-0.055572033 0.12689401 -0.10763235 -0.09285294 -0.025788069 0.13052304 0.14213668 -0.07469808
-0.042645022 0.13932969 0.052396744 0.12798809 0.10945304 0.08290373 -0.050446928 -0.02838932
-0.15402585 -0.15936714 -0.17303295 -0.062470756 -0.1337994 0.043801516 0.06107025 -0.06669737
0.05983755 -0.09454958 -0.01519309 -0.006442815 -0.13322811 -0.0103009045 0.08152704 0.13938846
0.10672565 -0.09129258 -0.15224135 -0.17329094 -0.12104564 0.10841422 -0.03852023 0.064896375
-0.0018769056 0.1602443 0.06831017 -0.023303479 -0.06688907 0.12701963 0.08744599 -0.028191462
-0.02608785 -0.11183004 0.09832378 0.023070335 -0.09729526 -0.08066346 0.16175036 -0.12000763
0.1047162 -0.037937343 0.16928749 -0.16854744 0.06605326 0.15460812 -0.121422686 0.12875558
0.1211168 -0.029835358 -0.0107797235 -0.067062676 -0.06621978 -0.06429019 -0.009329587 -0.09965778
-0.14687966 -0.061066777 -0.057101898 0.0747966 -0.0037518293 0.029937536 -0.011258841 -0.095683716
-0.026321381 -0.01488018 0.060203776 -0.15420592 0.17632593 0.014688045 -0.15131441 0.0066557825
0.119550124 0.15514068 -0.16134474 -0.09629876 0.0676125 -0.015326515 0.13282742 -0.0050086677
-0.16501747 0.13257827 0.116578504 -0.072343566 0.0645491 -0.046079293 -0.10805154 -0.12625626
0.034074903 0.07195902 -0.13500619 -0.16541854 -0.13181119 -0.13532382 -0.11412437 -0.0551257
-0.16628093 -0.09926784 0.09592889 0.032143235 -0.12557757 0.08962585 -0.005614698 0.14973025
0.014925733 -0.10982086 0.023267 0.041392505 0.034726515 0.09083457 0.023280099 -0.15430252
0.15975283 -0.021572784 0.11710964 0.08010481 0.10288541 -0.13772492 -0.04737352 0.14547579
-0.13318458 -0.10693888 0.10290651 -0.061057992 0.095360294 0.1363035 -0.112594336 0.16249941
-0.010255441 0.020258263 -0.087692015 0.035293713 -0.036728233 -0.053979263 0.021234527 0.16397573
-0.097071394 0.065643236 0.080354676 -0.14180633 -0.16638829 -0.057964727 -0.16819207 -0.08217274
-0.11877686 -0.032832563 0.12424643 -0.07657452 -0.08882046 -0.17601055 -0.17050463 -0.14805448
-0.118505195 0.11143337 -0.1707212 -0.052930854 -0.16297923 0.06705733 0.13529487 -0.14361577
-0.025517076 -0.12899473 -0.1325734 0.064456314 -0.10762943 0.12648408 -0.036014646 0.057615325
0.16278423 -0.0019129217 0.11358912 0.06944917 -0.17343701 -0.13859205 -0.14214829 0.017667517
0.12240745 -0.109276764 0.06018445 0.0423712 -0.15449664 -0.1486075 -0.10731171 0.0074635893
0.011544988 -0.11347261 -0.12004717 -0.006776452 -0.10041074 0.07494138 0.14598133 -0.010651901
0.09569542 -0.04279779 -0.0597412 -0.061949544 -0.042814746 -0.066902265 -0.15356565 -0.10055751
0.00034676492 0.020576894 0.049632043 -0.08233414 -0.16750535 0.06451976 0.013447329 -0.14178522
-0.06779605 -0.0383617 -0.17599688 0.17478259 -0.013357773 -0.13710968 -0.114969686 0.1337321
-0.13564864 0.010545611 -0.1086492 -0.05151789 0.03419465 -0.121659994 0.06365681 0.14541252
0.10357292 0.0026834905 -0.112142816 -0.17651305 -0.10350724 -0.07993877 0.06181568 0.10687114

recurrent_blocks.0.bias_ih_l0_reverse f4 [128]
00000000: b387 1c3e 7ecd 15be be5f fbbd cc8b fcbd
00000010: e636 c33d 03f5 2b3e 6707 043e be84 fbbd
00000020: 80bd 28bd 509d 0f3d 08ec 403d e8fb c03c
00000030: 8756 c0bd 04f0 afbd 5c1c e6bd 50fc d23c
00000040: 8010 873c b40b 3a3d 3e53 ee3d ed90 00be
00000050: 000b 04bd b03c 29bc 7b71 1c3e d369 173e
00000060: cc4d 443d af44 173e 62a3 d63d 9928 1fbe
00000070: 4ad1 90bd 3cda 7f3d 6bf6 84bd 598d 1fbe
00000080: e44e 9dbd bd30 2c3e f547 abbd d4ed 2abe
00000090: 36d6 e03d 26f8 ab3d d8a8 a23c 1266 11be
000000a0: 15af 0f3e 3ed9 d33d be62 db3d 0ea7 e3bd
000000b0: 9cfa 773d 20fc f5bd 7740 333e 8c73 28bd
000000c0: 5cf3 41bd b640 e13d 5a16 c83d 4ea9 18be
000000d0: f7f2 1c3e 90f9 a9bd 2af5 c2bd 9458 31bd
000000e0: b093 84bd 618b 233e c080 80bd 407b 6f3b
000000f0: 1c5f 2dbd a935 9cbd f3ee 9bbd 0db4 2b3e
00000100: 03d7 10be d871 ea3c d2c7 bd3d 280d 1cbe
00000110: 5d88 323e 7a6f f7bd 39fd 083e e739 96bd
00000120: c3de 93bd 6e4b ad3d d3ea 123e 4623 81bd
00000130: 4816 a63c d9a3 2fbe 699e 2ebe 0009 b1bb
00000140: f16c 253e 3c75 153d f7a1 2ebe 20f0 22bd
00000150: 24e5 0dbe 1884 423d 307c a0bc 7f75 2f3e
00000160: a66e c73d ea8a b3bd b254 e93d ebfe 33be
00000170: 93d4 21be 29b8 15be 9264 24be 7489 473d
00000180: 4bf8 23be d9a7 1d3e 1a9c fa3d 9b0d 093e
00000190: 0e0d fe3d a158 123e 441e 99bd 3685 32be
000001a0: edb2 debd 20df 24be 20ee e43c 56a5 873d
000001b0: 6fa4 123e 94ea 263d 0d1e 34be 3031 a53c
000001c0: c011 6f3d ee1d 32be 30fd 5a3d 9091 28be
000001d0: 4c1f 763d 4897 b8bd 8673 863d 9785 293e
000001e0: 3008 993c 75af 223e dd7c 82bd 80d0 09bc
000001f0: 2868 93bd 3cbf 39bd b085 273c 3ce5 8b3d
0.1528614 -0.1462917 -0.12274121 -0.12331352 0.095319554 0.16792683 0.12893449 -0.12281178
-0.041196346 0.035062134 0.047100097 0.023557618 -0.09391504 -0.08590701 -0.11235878 0.025755078
0.01648736 0.045421317 0.11636971 -0.12555285 -0.032237053 -0.01032941 0.15277664 0.14786462
0.047925755 0.14772294 0.104803815 -0.1554283 -0.07071169 0.062463984 -0.06492313 -0.15581264
-0.07681063 0.16815467 -0.08363334 -0.16692287 0.109783575 0.0839694 0.019855902 -0.14199093
0.14031632 0.1034417 0.10712193 -0.111158475 0.060541734 -0.1201098 0.1750506 -0.04112582
-0.047351226 0.10998671 0.09769888 -0.14908335 0.15327059 -0.082995534 -0.095194176 -0.043297365
-0.06473482 0.15971138 -0.06274557 0.0036541969 -0.04232703 -0.07627422 -0.07613935 0.16767903
-0.1414452 0.028618738 0.09266628 -0.15239394 0.17434831 -0.12081809 0.13377847 -0.07335263
-0.07220223 0.08461653 0.14347391 -0.06305556 0.020274296 -0.17152347 -0.17052616 -0.005402684
0.16154839 0.036488757 -0.17053972 -0.039779782 -0.13856941 0.047489256 -0.019590467 0.17134665
0.097379014 -0.0876673 0.113931075 -0.17577712 -0.15803747 -0.14621033 -0.1605399 0.04871507
-0.16012685 0.1539606 0.12236805 0.13384096 0.12404834 0.14291622 -0.07476476 -0.17433628
-0.10873971 -0.1610074 0.027945578 0.06623332 0.14320539 0.040751055 -0.17589588 0.020165056
0.058366537 -0.1739423 0.053464115 -0.16461778 0.06008844 -0.090132296 0.06565003 0.16554867
0.018680662 0.15887244 -0.06371472 -0.008411527 -0.071976006 -0.04534839 0.010224745 0.06830832

recurrent_blocks.0.bias_hh_l0_reverse f4 [128]
00000000: 3e11 9d3d bc18 2bbe ec01 c4bd 2ade f93d
00000010: 8e81 7cbd e00f 3f3c be31 27be 503f 7e3c
00000020: 72e6 e93d d75e 0b3e dc69 65bd 8967 cebd
00000030: 3c73 10be 99c6 313e acf3 abbd 2087 63bc
00000040: c03d 3fbd 61c4 1d3e 3078 c9bc a8a7 1abd
00000050: cee6 f13d 3a7a a63d 6037 26bc 5079 47bd
00000060: 34f8 6b3d 20da ac3c 3a00 bd3d a053 05bd
00000070: 4878 0ebe d6fa d93d 48bd 8c3d fa4e b03d
00000080: f692 cc3d 5220 9a3d b735 303e c557 333e
00000090: dc21 1fbe 32a0 fe3d a77d 04be e1ba 193e
000000a0: ecb5 5cbd 9ce3 273d f238 80bd 4813 a33c
000000b0: f824 5e3d 1150 03be c842 c7bc 3b00 053e
000000c0: 3884 00be 4865 613d 6655 953d 38f6 91bc
000000d0: 1003 a0bc 280b 43bd 1847 663d 7ef3 21be
000000e0: cae1 8dbd e2f5 dc3d 808b ce3a 0663 8ebd
000000f0: 680a 573d 5e79 87bd 56b6 e9bd 6c9c d7bd
00000100: 1bec 133e f616 da3d 9044 073d 4ca8 4e3d
00000110: 9ec5 9bbd 0e53 da3d 6ec3 ee3d b6d7 ed3d
00000120: 3efd 1ebe 782f c8bc 9c62 01be e785 b2bd
00000130: b27f d23d 00eb 30bd cecb 99bd 9054 153c
00000140: d1f7 183e f271 b0bd c662 9d3d 49a8 253e
00000150: 40e5 a1bc f6b8 c0bd b0ae 93bc fab9 d63d
00000160: 004b 4a3b 1831 473d 3514 153e 6deb 333e
00000170: 3094 71bc 3d93 093e 7cf6 08be f691 8f3d
00000180: a8d3 1abd 057f e0bd 4422 46bd 38e2 06bd
00000190: 1cac 20be e791 133e 8662 33be 270c afbd
000001a0: 8ef0 1fbe 5839 f8bd 8853 263d 9212 a53d
000001b0: 8f39 c2bd 7468 16bd 3fcd 31be 8b43 113e
000001c0: 7cba 27bd 8a1d a83d 6007 9bbb d089 3b3d
000001d0: 1503 2c3e e082 cdbb c659 a43d 6469 263d
000001e0: 9915 343e dcc5 7d3d 1eec ec3d f8dd c3bd
000001f0: 1303 28be 24e3 863d be75 ffbd 601a 51bc
0.07669304 -0.16708654 -0.09570679 0.122005776 -0.06164699 0.0116615 -0.16327569 0.015518025
0.11420907 0.13610397 -0.05600916 -0.100783415 -0.14106458 0.17360915 -0.08396086 -0.013887197
-0.04668975 0.15406944 -0.024593443 -0.037757546 0.118116006 0.081287816 -0.010145038 -0.048699677
0.05760975 0.021100104 0.09228559 -0.032550454 -0.13913071 0.10643546 0.0687204 0.086088136
0.09988968 0.07525696 0.1720799 0.1751395 -0.1554026 0.124328986 -0.12938558 0.15012695
-0.05388443 0.04098855 -0.062608615 0.019906655 0.054234475 -0.12823512 -0.024323836 0.12988369
-0.12550437 0.05502823 0.07291679 -0.017817602 -0.01953271 -0.04761806 0.056220144 -0.15815541
-0.069278315 0.10789086 0.0015758127 -0.06952481 0.05250016 -0.06614946 -0.11411731 -0.10527882
0.14445536 0.10648911 0.03302437 0.05045347 -0.07606052 0.10660373 0.11658369 0.11613409
-0.15526292 -0.024436697 -0.12635273 -0.08716946 0.10278262 -0.043192863 -0.07509576 0.0091144
0.14938284 -0.08615483 0.07684855 0.16177477 -0.019762635 -0.094102785 -0.018027633 0.10484691
0.0030867457 0.048630804 0.1455849 0.17570277 -0.014744803 0.13435073 -0.13375276 0.07010262
-0.037799507 -0.10961727 -0.048372522 -0.032930583 -0.15690655 0.14411126 -0.17518052 -0.0854724
-0.15619108 -0.121203125 0.040607005 0.08060183 -0.09483635 -0.036720708 -0.17363451 0.14185922
-0.04094933 0.08208759 -0.004731104 0.045785725 0.1679805 -0.006271705 0.080249354 0.040627852
0.17586364 0.06195627 0.11568473 -0.095638216 -0.16407423 0.065862924 -0.124736294 -0.012762636

recurrent_blocks.1.weight_ih_l0 f4 [128, 64]
00000000: 4822 a13c ef4c 26be 1038 17bd 71f2 2f3e
00000010: ee2c 22be 4fc2 0e3e 2b6f 89bd 99bf 2b3e
00000020: e7fb 2d3e 010f b5bd dc5e 2d3d 025f 9c3d
00000030: 7016 913d dd9d 04be f80d bd3c f405 443d
00000040: 1505 09be 002b fbbc 00c6 ea3b d157 163e
00000050: 704e 00bd ccef 10bd 0008 0bba d84e 13be
00000060: 2ce2 8c3d 3720 2fbe 1c19 24be 66ea 80bd
00000070: 6fd0 223e 52c8 cb3d d814 783d 6e48 d5bd
00000080: 8109 86bd 87ba 123e 901c ac3c 802b c2bc
00000090: 40ca eabc fa5a acbd 6dad 1d3e a093 853b
000000a0: adc5 083e 45f5 243e ad40 fdbd edd0 123e
000000b0: eacd ab3d a6d1 82bd e6ed f43d c0ba e9bc
000000c0: ce50 19be 6cfe cbbd b29a 1bbe 5878 88bc
000000d0: 5c9a 89bd c4a7 7b3d a24f d3bd 26e2 27be
000000e0: 3cbb 3f3d bbfd c8bd 7ab7 c7bd fe61 f6bd
000000f0: 3db8 08be 784c 18be 1a72 fa3d f1cd 1abe
00000100: 88e1 e8bd 774d dabd eddf b2bd deb1 8d3d
00000110: 00fd ff3a e593 22be da22 5abd b114 003e
00000120: 6e88 e43d 1e8e f2bd c21c 8f3d fa1f d4bd
00000130: 22c8 1bbe 3c9d 6c3d f0da c8bc 0085 93bb
00000140: 841d 2f3d 5010 aebc cb8a 323e be02 29be
00000150: de82 32be 286c ce3c b251 91bd d1db 2a3e
00000160: fdb8 13be 7d00 243e 9de6 233e e8f8 503d
00000170: bb85 173e 5a19 993d 20fd b63c 308b 9ebc
00000180: 4659 8fbd de97 cfbd cc07 bcbd 0af5 f23d
00000190: 4c8b 90bd a57f 0e3e 751c 27be 8451 17bd
000001a0: 683a 203d fda9 1b3e ff28 053e 202b 47bd
000001b0: 0cc8 293d 342f 1abd fcfe 56bd c56f 233e
000001c0: 7c25 273d f82c edbc 0066 4aba 4aee b63d
000001d0: c6e9 2abe 5a14 9cbd 8603 d43d ef9d 2a3e
000001e0: b005 16bd bc2d 10be 4e6f cb3d d0cc 843c
000001f0: a563 2e3e 2087 d13c 35b5 1c3e 39e9 173e
00000200: 5bbd a5bd 9c89 1bbd f400 1e3d d0a8 2b3c
00000210: 8677 9e3d e0da 74bc dc7f 55bd e083 2f3c
00000220: 22bf 99bd 7f6d 053e 748a 1ebd 0214 ed3d
00000230: 10a1 043d 9b63 233e dd20 e4bd 7684 f83d
00000240: 4247 aa3d 24db 66bd 0020 7ebb d1a0 21be
00000250: 2fda 2c3e a728 243e 83bb 213e c609 c23d
00000260: 5c26 0ebd 2878 423d 2a3a db3d 5b46 1b3e
00000270: 39fc 153e 6b78 33be de03 d83d d9c2 043e
00000280: 1b6b 173e 308d 23bd 48df 80bd f93f 27be
00000290: ddc6 103e 3d92 2a3e 9b32 293e f3ab 1e3e
000002a0: 6436 1fbd 4b7c 13be 0b30 2d3e 5ca2 1a3d
000002b0: cf8a 2d3e 9932 83bd 33d4 0e3e 12d5 27be
000002c0: 70bc 4b3c 6c50 12be 3421 14be 35f7 13be
000002d0: 1200 56bd 288e ebbc 1077 cb3c c87b 90bc
000002e0: 8645 b93d 81e8 96bd 303d 52bc ceb3 cd3d
000002f0: b3ea 083e 10f1 fb3c 2d8a 2fbe 00d1 243d
00000300: 4805 1f3d 28bd aebc fcd0 2ebe 16e8 32be
00000310: 6b2f 2c3e af3f 283e 41bb d2bd 47ef 123e
00000320: eac0 cc3d 4671 73bd 0855 ec3c 60c5 9e3c
00000330: 3d71 183e d6d6 c23d ea1e bf3d 221b afbd
00000340: d121 333e 0487 523d 4079 c3bd 0462 3a3d
00000350: 8b17 87bd 9913 173e 61e7 f2bd b238 5cbd
00000360: b8a3 fa3c f259 b13d 4320 b7bd 5691 9e3d
00000370: 643a 253d f232 dd3d 0a18 afbd 30cd e4bc
00000380: c023 dfbb 23e7 23be 4363 163e 36b7 a43d
00000390: cb3f 2f3e b1a7 0f3e eb9e 093e 4361 0c3e
000003a0: 4792 8ebd 3089 2cbe 90bb ec3c be55 29be
000003b0: eae6 d7bd 3f76 f3bd 0059 c4bc 9649 b73d
000003c0: 5965 173e fe21 e33d 63a5 f8bd 1e89 903d
000003d0: 4a55 b93d 19e0 27be 6c52 663d 2482 0ebe
000003e0: 3882 453d 665e 07be 3609 e53d f0ec 50bd
000003f0: f773 0e3e 80a6 d6ba 5860 133d ea93 e4bd
0.019669667 -0.16240285 -0.0369187 0.17182328 -0.15837452 0.1394131 -0.06710657 0.16772307
0.16990624 -0.088407524 0.042326793 0.07635309 0.07084358 -0.12950845 0.02307795 0.04785724
-0.13380845 -0.030660152 0.0071647167 0.14681937 -0.031324804 -0.035384938 -0.00053036213 -0.14385545
0.06879076 -0.17102133 -0.16025203 -0.06294708 0.15899824 0.099503174 0.060566753 -0.104142055
-0.065447815 0.14328967 0.021009713 -0.023702383 -0.028660893 -0.0841579 0.15398188 0.004076436
0.13356657 0.16109188 -0.123658516 0.14337511 0.08388884 -0.063876435 0.11959438 -0.028531432
-0.14972231 -0.099606365 -0.1519573 -0.016658947 -0.06718895 0.06143929 -0.10317923 -0.16394863
0.04680942 -0.0981402 -0.09751792 -0.12030409 -0.13351531 -0.1487292 0.122287944 -0.15117623
-0.11371142 -0.106593065 -0.08734117 0.06918691 0.0019530356 -0.1587673 -0.053255893 0.12507893
0.111588344 -0.11843513 0.06987907 -0.103576615 -0.15213063 0.057767138 -0.02451846 -0.004501939
0.042752758 -0.021248013 0.17435758 -0.16504952 -0.17432734 0.025198057 -0.0709566 0.16685416
-0.14426036 0.16015811 0.1600594 0.051018625 0.14797108 0.074755386 0.022337496 -0.01935348
-0.069994494 -0.10136388 -0.09181175 0.11863144 -0.07057819 0.1391588 -0.16319449 -0.036942974
0.0391182 0.15201564 0.1300392 -0.04862511 0.041450545 -0.037642673 -0.052489266 0.15960605
0.040807232 -0.028952107 -0.00077208877 0.08932169 -0.1669074 -0.07621069 0.103522345 0.1666181
-0.036626518 -0.14079946 0.09933339 0.016210943 0.17030199 0.025577128 0.153035 0.14835061
-0.08092757 -0.03797303 0.038575128 0.01047726 0.07737641 -0.014944762 -0.05212389 0.010712594
-0.07507159 0.1303005 -0.038706258 0.11576082 0.032380164 0.15955965 -0.11139081 0.1213464
0.083143726 -0.056361333 -0.0038776398 -0.15784003 0.16880105 0.16031133 0.15794186 0.094745204
-0.03470455 0.04747787 0.10704453 0.15163557 0.14646997 -0.17526405 0.105476126 0.12964953
0.14786951 -0.03992957 -0.062925875 -0.16332997 0.1413836 0.16657348 0.1652321 0.15495281
-0.03887023 -0.14402883 0.16912858 0.037752494 0.16947483 -0.06406135 0.13948135 -0.16389874
0.012435064 -0.14288491 -0.14465791 -0.14449771 -0.05224616 -0.028754309 0.024837047 -0.017637148
0.09046464 -0.07368565 -0.012831971 0.10044061 0.1337078 0.030754596 -0.17142554 0.04023838
0.038823396 -0.021330431 -0.17071909 -0.17471346 0.16814964 0.16430543 -0.10289622 0.1434909
0.09997733 -0.059434198 0.02884914 0.019381225 0.14886947 0.09513633 0.09332068 -0.08550097
0.17493369 0.051398292 -0.09544611 0.04550363 -0.06596287 0.1475357 -0.11860538 -0.053765006
0.030595645 0.08659734 -0.089417 0.077425644 0.04033889 0.10800733 -0.08549507 -0.027929872
-0.0068096817 -0.1600614 0.14686303 0.08042757 0.17114179 0.14028813 0.13439529 0.13708977
-0.06961494 -0.16849208 0.02889803 -0.16536614 -0.1054209 -0.11887788 -0.02396822 0.08949582
0.14784755 0.11090468 -0.1214092 0.07057403 0.09049471 -0.1639408 0.056230947 -0.13916832
0.04821989 -0.13219604 0.111833975 -0.05100721 0.13911425 -0.0016376525 0.035980552 -0.11161025

recurrent_blocks.1.weight_hh_l0 f4 [128, 32]
00000000: 5dec 0f3e 404d a03b c02e fe3b e0ca d0bc
00000010: f0e4 61bc c2b9 fe3d a0fc 303d ef8d 273e
00000020: a9f1 0a3e 479c d3bd ab6d 183e d3ba 043e
00000030: 6c90 393d 566f 9f3d 641f 383d 18d3 34be
00000040: fa3d 0ebe f87f 17be a030 2bbc b627 a53d
00000050: fdfa 263e 81ed 2c3e d0be 283c 93bb aabd
00000060: f7cc b0bd 2bf9 cabd 4cb4 02be e6af fb3d
00000070: 60ba 46bc 1856 e83c 1fc3 103e 4495 563d
00000080: e9ee 87bd acca 14bd c216 fdbd 4558 a6bd
00000090: 21af 123e 508f 22bd e819 37bd 6e33 c33d
000000a0: fc9b 183d dc8f 26bd 3297 ecbd fa80 b6bd
000000b0: b8d7 7c3d f2bf c73d e1b9 253e 6e1f 73bd
000000c0: b707 263e 094b 163e b274 d03d 178e c5bd
000000d0: 9270 f3bd fca0 e0bd 9e3a 64bd 00a2 b5bc
000000e0: 57fe e9bd 201b 27be d804 31bd b03b a6bc
000000f0: 8825 693d f24d c43d a845 163d c777 0abe
00000100: 5aad fc3d f097 bc3c dc8f 4a3d 269c ea3d
00000110: 085b 713d 1a17 0bbe dab6 a0bd ee06 8b3d
00000120: bd89 24be aca0 24be 79e5 1c3e 298c 233e
00000130: a8d0 18be fdc4 32be adac 233e 0a49 1cbe
00000140: 0cce 76bd e081 863d f0a4 1a3c a986 2b3e
00000150: c2cb 00be c096 8c3d 80ba 6b3d bc37 27bd
00000160: 0094 093d c021 32be e22c ec3d 78cf 56bd
00000170: b99b 9fbd 9a8b e93d d0fb 533c 42a1 b33d
00000180: c207 d53d 5f82 123e c396 323e e05d b73b
00000190: 2128 15be fffb 2f3e 6c3e 60bd 5030 1f3c
000001a0: 4c43 223d e033 0fbe 98a8 8c3d bf85 b0bd
000001b0: d896 0cbd 557e 1b3e a679 d13d dc0d 1f3d
000001c0: 01f0 213e db53 283e b2bd 31be 32df a33d
000001d0: 869b fa3d 8057 4cbd b016 efbd d971 29be
000001e0: 69bc 033e ec63 4ebd 4ad6 acbd 5e9b 04be
000001f0: 3cd7 383d 5b25 173e e66c 05be 3f5c 27be
00000200: 396c 0a3e e866 2d3d 1ba0 29be e6b2 df3d
00000210: b8f0 d43c 92cb ab3d 0064 ca39 402c 02bc
00000220: e4c0 1ebd 8f19 84bd 88be 84bc dcf0 243d
00000230: 88e0 4d3d 60e6 a23b ea0c d23d b0f8 30bc
00000240: 8257 c9bd 86c7 ca3d 7028 a8bd f41c cbbd
00000250: 2265 20be a9c5 223e 19d1 1abe 3a73 da3d
00000260: 08d0 e0bc 2ea2 b1bd ac40 0dbd 29de 333e
00000270: bd90 05be d96c 253e b8bd 943d 90a8 00be
00000280: 899b b0bd 5f2a 80bd 1a66 f53d 2a2b d83d
00000290: 20d1 ca3c b23c c63d 90fa 2fbd ec22 e6bd
000002a0: 96c0 a2bd ed5a bebd 705c e9bc af1f 2d3e
000002b0: 07bd 293e a0ba 193c 7632 e33d a506 253e
000002c0: 6c30 48bd 6012 28bc 39a5 333e 8a8e e23d
000002d0: a016 72bc 9a1e e53d b43b 113d 72c9 d23d
000002e0: 52ea c13d 1c25 17bd 3e1b b23d cf50 143e
000002f0: d947 1f3e 4008 28bb 6000 6fbc 38d1 b6bd
00000300: 2aaf ad3d 3c32 3b3d bdcc a0bd 9d2a 2c3e
00000310: 84ad 913d c4a7 053d 2bb8 cebd 2007 c8bc
00000320: d1ce 293e 86f3 bb3d 670d 243e c89e 483d
00000330: a2c3 f0bd c064 eebb cfbe 1c3e 80b3 c53b
00000340: 5872 51bd bd8c d6bd 0088 f33c d277 c0bd
00000350: 98b6 cfbd 4391 83bd e096 533d 8d10 2e3e
00000360: 72cf 70bd d8c9 afbd 978b 1cbe bdf1 0e3e
00000370: ef26 263e 9826 ff3c 983d b3bd 086d 983c
00000380: a526 1e3e a34c 19be 022d 0fbe 0024 ebbc
00000390: e098 a43b c50f d2bd e254 11be 1090 bf3c
000003a0: 16f9 ac3d fa25 f8bd 7045 0d3c 72c3 893d
000003b0: b871 bb3c 0e25 833d 3920 a3bd c397 eebd
000003c0: a061 cabd 727f e73d 75b3 283e dac5 cd3d
000003d0: 59e4 bebd 864f bebd f8d4 d73c fb30 06be
000003e0: 183a f8bc 3ea9 bfbd 04e5 5f3d 2c76 1ebe
000003f0: b445 51bd 28d7 b1bc 2cf8 4dbd 0f8e 073e
0.14055009 0.0048920214 0.007757038 -0.025487363 -0.013787493 0.12437774 0.043209672 0.16362737
0.13568749 -0.10332542 0.14885585 0.12961893 0.045303747 0.077849075 0.04495181 -0.17658651
-0.1389083 -0.1479491 -0.010448605 0.08064215 0.16306682 0.16887476 0.0102993995 -0.08336558
-0.08632844 -0.09910806 -0.1276409 0.12289409 -0.012129396 0.028361365 0.14136933 0.052388445
-0.06637365 -0.036326095 -0.12357856 -0.08122305 0.14324619 -0.039687455 -0.04470244 0.09531294
0.037258133 -0.04066454 -0.11552276 -0.08911319 0.061729163 0.097534075 0.16184188 -0.059356146
0.1621388 0.14677061 0.10178508 -0.09646242 -0.118867055 -0.10968205 -0.055719964 -0.022171974
-0.114254646 -0.16318941 -0.04321751 -0.020292133 0.05692056 0.095851794 0.036687523 -0.13522254
0.12337752 0.023021668 0.0494536 0.11455564 0.058924705 -0.13583031 -0.07847376 0.06788431
-0.16068168 -0.16076916 0.15321912 0.15971436 -0.14923346 -0.17457958 0.1598384 -0.15262237
-0.060255095 0.065677404 0.009438738 0.16750588 -0.12577727 0.06864691 0.057550907 -0.040824637
0.03358841 -0.17395687 0.11531998 -0.05244395 -0.077933736 0.1140358 0.012938455 0.08770992
0.1040187 0.14307545 0.17440324 0.0055959076 -0.14566089 0.17185973 -0.05474703 0.009716108
0.03961496 -0.13984632 0.06868094 -0.0861926 -0.034323543 0.1518491 0.10228281 0.038831577
0.1581421 0.16438238 -0.1735752 0.080015555 0.12236695 -0.049888134 -0.11674249 -0.16547336
0.12864842 -0.05038826 -0.0843931 -0.12949893 0.04512714 0.14760344 -0.13029823 -0.16343783
0.13517846 0.042334467 -0.16564982 0.10922794 0.02599369 0.08388437 0.00038602948 -0.00794512
-0.038758174 -0.064501874 -0.016204134 0.040268764 0.050262958 0.0049713105 0.102563694 -0.010801479
-0.09831144 0.09901337 -0.08210838 -0.09917632 -0.15663579 0.15895714 -0.15118827 0.10666509
-0.027442947 -0.086735114 -0.034485504 0.17565216 -0.13043495 0.16154803 0.072627485 -0.12564301
-0.08623416 -0.06258082 0.11982365 0.10555108 0.024757922 0.096795455 -0.042963564 -0.112371296
-0.07946889 -0.092946865 -0.02848646 0.16906618 0.16576014 0.009382874 0.11093609 0.16115816
-0.048874304 -0.010258287 0.17543496 0.110623434 -0.014775902 0.111874774 0.035457328 0.10292329
0.09468521 -0.036900625 0.08696602 0.14483951 0.15554751 -0.0025639683 -0.014587492 -0.08926624
0.084806755 0.045702204 -0.07851551 0.1681313 0.071131736 0.032630697 -0.10093721 -0.02441746
0.165828 0.09177308 0.16020738 0.04897955 -0.11756064 -0.007275194 0.15307163 0.006033361
-0.051134437 -0.104760624 0.029727936 -0.09397854 -0.10142249 -0.06424191 0.051657557 0.16998501
-0.058791585 -0.085834205 -0.15287624 0.13959403 0.1622579 0.031146333 -0.087519825 0.018606678
0.15444429 -0.14970641 -0.13982013 -0.02870369 0.005023107 -0.10256914 -0.14192536 0.023384124
0.08445947 -0.121166185 0.008622512 0.06726731 0.022881374 0.06403552 -0.0796513 -0.1165004
-0.09881902 0.11303605 0.16474707 0.10047503 -0.093208976 -0.09292512 0.026346669 -0.13104622
-0.030301139 -0.09358452 0.054661766 -0.15474766 -0.051091865 -0.02170904 -0.050285503 0.13237785
