main/Depth/wandb/dryrun-20200913_082850-z19n1nx0/checkpoint_best.pth (torch_old, 815180 bytes, 123 tensors)

recurrent_blocks.0.weight_ih_l0 f4 [96, 3]
0	0xb9c1f800	-0.00036996603
1	0x3dadd652	0.08488144
2	0x3c5aeb50	0.013361767
3	0xbe0fcf8b	-0.14044015
4	0xbc5e7360	-0.013577312
5	0xbe241ec0	-0.16027355
6	0x3e0b39cd	0.13596268
7	0x3d9fb6e6	0.07798557
8	0xbbca0ae0	-0.006165847
9	0xbc868ef8	-0.016425595
10	0xbd303ee0	-0.043028712
11	0x3e33fe91	0.17577578
12	0x3d9f767a	0.077862695
13	0xbdde3b7e	-0.10851191
14	0xbd01df34	-0.031707004
15	0x3e1b244f	0.1515057
16	0xbdd0fbc4	-0.102042705
17	0xbe21a85c	-0.1578688
18	0x3e0a4871	0.13504197
19	0x3db2ff52	0.08740105
20	0x3e1f89e7	0.1557995
21	0xbdcf841a	-0.10132618
22	0x3df8f892	0.12156786
23	0x3e03b5af	0.12862276
24	0x3ddb359a	0.10703583
25	0xbe25842b	-0.161637
26	0xbdcc0af9	-0.0996303
27	0x3dba2646	0.09089331
28	0x3e271147	0.16315185
29	0xbe30efbf	-0.17278956
30	0x3c90be78	0.017668948
31	0xbe1c669c	-0.15273517
32	0xbd743ade	-0.059626453
33	0xbd850aac	-0.06496176
34	0x3cd55a90	0.02604416
35	0xbe241387	-0.16023074
36	0xbe0d20b3	-0.13782005
37	0x3dfa8d16	0.12233941
38	0x3bc80460	0.006104037
39	0xbe0ab928	-0.13547194
40	0x3e31295d	0.17300935
41	0xbd5e90be	-0.054337256
42	0x3dd1891a	0.10231228
43	0x3dda9bba	0.10674234
44	0x3b9281a0	0.004471019
45	0x3e1cb1d7	0.15302216
46	0xbe0bc46c	-0.13649148
47	0xbc140f90	-0.0090369135
48	0xbe2c3f7e	-0.16821095
49	0xbc32d630	-0.010915324
50	0xbd881907	-0.066453986
51	0x3d16890c	0.03675179
52	0xbd9bd601	-0.076091774
53	0x3e2e5d23	0.17027716
54	0xbe2dd0ce	-0.16974184
55	0x3d08fe44	0.03344561
56	0x3df0a45a	0.117500976
57	0xbdf2a40f	-0.11847698
58	0x3e222bcd	0.15837021
59	0xbdc2b1e1	-0.09506584
60	0xbde39068	-0.11111528
61	0xbdfe29a2	-0.124102846
62	0x3c58fda0	0.013244063
63	0x3c77bff0	0.015121445
64	0x3cd2b598	0.025721356
65	0xbda78201	-0.08179093
66	0xb9952400	-0.00028446317
67	0x3e34cb97	0.17655788
68	0xbdc4c181	-0.096072204
69	0x3c9e4ce8	0.019323781
70	0x3d461970	0.048364103
71	0x3d7dbe48	0.061949044
72	0xbda8b546	-0.082377
73	0xbe0a1925	-0.13486154
74	0xbc53fe10	-0.012938991
75	0xbe11df30	-0.14245296
76	0xbd603298	-0.05473575
77	0xbe14e98c	-0.14542216
78	0xbdfecba9	-0.12441189
79	0x3dd620be	0.10455464
80	0xbd29cc54	-0.041454628
81	0x3cb86e80	0.022513628
82	0xbd95897b	-0.07301613
83	0x3dca9c66	0.09893112
84	0x3cc7a458	0.024370357
85	0x3e23c945	0.15994747
86	0x3ded5a02	0.11589433
87	0xbcab9e30	-0.020949453
88	0x3d3dda70	0.046350896
89	0xbe13c24c	-0.14429587
90	0xbe11da03	-0.14243321
91	0xbde74dac	-0.112941116
92	0xbd489030	-0.048965633
93	0xbdc1ae62	-0.09457089
94	0x3e2f66cd	0.17129059
95	0x3d868458	0.06568211
96	0xbe04584c	-0.12924308
97	0xbddb5611	-0.10709775
98	0x3df4c38a	0.119513586
99	0xbe1e7405	-0.15473945
100	0xbe25bbb3	-0.16184883
101	0x3d63c7cc	0.055610463
102	0x3d570a28	0.05249992
103	0xbad10d80	-0.0015949458
104	0x3d3d8368	0.046267897
105	0xbde5b8e3	-0.11216905
106	0x3de56116	0.11200158
107	0xbd7b442e	-0.061344318
108	0x3cd18e80	0.025580645
109	0x3df46662	0.119335905
110	0xbd007758	-0.031363815
111	0x3deec24e	0.116581544
112	0x3e205461	0.15657188
113	0x3cc96378	0.024583563
114	0x3e14a8c7	0.14517508
115	0xbdf505b0	-0.119639754
116	0x3e2151b9	0.15753831
117	0x3c31a8c0	0.010843456
118	0xbddbd1ec	-0.10733399
119	0x3dc4ba0a	0.09605797
120	0xbe164ae8	-0.14677012
121	0xbda9590c	-0.082689375
122	0x3d932c96	0.071862385
123	0x3dfd97be	0.12382458
124	0x3d3b10d8	0.04567036
125	0xbd4b88f8	-0.04969117
126	0x3dcca97e	0.099932656
127	0xbdc66959	-0.09688062
128	0x3d9f366a	0.077740505
129	0xbdcabd6a	-0.09899409
130	0xbca7a190	-0.020462781
131	0x3e21f9a7	0.15817891
132	0xbde0b802	-0.10972597
133	0xbdd7f996	-0.105456516
134	0x3d702120	0.05862534
135	0x3db5929a	0.08865853
136	0xbe22bb8a	-0.15891853
137	0xbd814726	-0.063123986
138	0x3e246d79	0.16057386
139	0xbbc04040	-0.005867034
140	0x3c700db0	0.014651701
141	0x3e1fe11f	0.1561322
142	0xbc330bc0	-0.010928094
143	0xbd80e11e	-0.06292938
144	0xbe261116	-0.16217455
145	0x3d0f96b4	0.03505583
146	0xbe24b005	-0.16082771
147	0x3bb47b20	0.0055078417
148	0xbd7dc476	-0.061954938
149	0x3db02286	0.08600335
150	0xbda4adf6	-0.08040993
151	0x3d91ff2a	0.07128747
152	0xbdc6c4ce	-0.09705506
153	0x3d947404	0.07248691
154	0x3d902d7e	0.07039927
155	0xbe096d02	-0.1342049
156	0x3e21b3d7	0.1579126
157	0x3dff7b1e	0.124746546
158	0x3d4cf89c	0.05004178
159	0xbe2c2304	-0.16810232
160	0x3d7ce4e8	0.06174174
161	0xbe0ba649	-0.13637652
162	0x3b6bacc0	0.0035961121
163	0x3e26c5df	0.1628642
164	0x3e2ff7c7	0.17184363
165	0xbd112198	-0.035432428
166	0x3e043739	0.12911691
167	0xbd12c7e4	-0.03583516
168	0x3c604ac0	0.013689697
169	0x3d8b2afa	0.067953065
170	0xbe0f42ec	-0.13990372
171	0x3dd07442	0.101784244
172	0xbbf48880	-0.007462561
173	0x3e322c79	0.17399777
174	0x3e1b8eed	0.1519124
175	0x3db6830e	0.089117154
176	0xbe135258	-0.1438688
177	0xbcff71b8	-0.031182155
178	0x3d43aed4	0.04777415
179	0x3d9163e4	0.07099131
180	0xbd984f9d	-0.0743706
181	0x3d90222e	0.07037769
182	0x3e24e939	0.16104592
183	0x3def4102	0.11682321
184	0x3c4097e0	0.01175496
185	0x3a5e4f00	0.00084804
186	0x3bd55920	0.0065108687
187	0xbe123fa0	-0.14282084
188	0xbce7c090	-0.028290063
189	0xbdef4bff	-0.11684417
190	0x3bf32360	0.0074199885
191	0xbd608d70	-0.054822385
192	0x3e001e09	0.12511458
193	0x3e1e0acf	0.1543381
194	0x3dd57d22	0.10424258
195	0x3d899e06	0.06719594
196	0x3d42751c	0.047474965
197	0x3cbe6db8	0.023245677
198	0xbd7fd12e	-0.06245535
199	0xbdd0b900	-0.10191536
200	0x3dd60372	0.10449876
201	0x3dc00a7a	0.09376998
202	0xbe0e865b	-0.1391844
203	0xbd4614e8	-0.04835978
204	0x3e0f5b5f	0.13999699
205	0x3cc8f210	0.024529487
206	0x3b3bb480	0.0028641522
207	0xbd9b0fba	-0.07571359
208	0x3da17322	0.07883288
209	0xbe1d70c0	-0.15375042
210	0x3d036ae8	0.032084376
211	0x3c0b8b80	0.008517146
212	0xbd8cbf17	-0.06872385
213	0x3d641cf8	0.05569169
214	0x3c0a7c20	0.008452445
215	0xbdd04434	-0.10169259
216	0xbdcd798d	-0.100329496
217	0xbd993c70	-0.07482231
218	0x3dd7bcde	0.105340704
219	0xbe0cc599	-0.13747253
220	0x3e18d6c3	0.14925675
221	0xbd91e871	-0.07124413
222	0xbe0d4e99	-0.13799514
223	0xbcc64888	-0.024204507
224	0xbdc1228a	-0.09430416
225	0x3e0635d1	0.13106467
226	0x3e0e11e1	0.13874008
227	0x3dc5619e	0.096377596
228	0xbe24fbd9	-0.16111697
229	0xbbc2eae0	-0.0059484094
230	0x3c41a260	0.011818498
231	0xbdad7229	-0.0846904
232	0x3bcd38c0	0.0062628686
233	0x3d73b46c	0.059498236
234	0xbde6e7f9	-0.11274714
235	0x3dc8dbce	0.098075494
236	0x3dfc98e2	0.123338476
237	0x3dc691d6	0.09695785
238	0x3c9b9328	0.018991068
239	0xbd63c0fa	-0.05560396
240	0xbdc3a55e	-0.09553026
241	0xbde04e49	-0.10952432
242	0x3ca34c80	0.019933939
243	0x3c543e70	0.012954339
244	0xbdad4dc7	-0.084621005
245	0xbd4d24f0	-0.050084054
246	0xbe1087d5	-0.14114316
247	0x3d7ea18c	0.06216578
248	0x3db5cfce	0.08877526
249	0xbd5db118	-0.054123968
250	0xbdee083e	-0.11622666
251	0xbe07c8ae	-0.13260147
252	0x3c5b72f0	0.013394102
253	0x3db2b68a	0.08726223
254	0xbccd60e0	-0.025070608
255	0x3df4e3c6	0.11957507

recurrent_blocks.0.weight_hh_l0 f4 [96, 32]
0	0xbd4fa46c	-0.050693914
1	0x3d88dff8	0.06683344
2	0xbe1dcbfa	-0.15409842
3	0x3e299c0d	0.16563435
4	0xbdec6bca	-0.11543997
5	0xbd2a3ed4	-0.041563824
6	0xbce21588	-0.027598158
7	0xbe308df7	-0.17241655
8	0x3ba2cd00	0.0049682856
9	0xbddffca6	-0.10936861
10	0xbdcf8184	-0.10132125
11	0xbe037048	-0.128358
12	0xbde2b5e9	-0.11069853
13	0x3d47f250	0.04881507
14	0xbdbea5b4	-0.09308949
15	0xbdbea658	-0.09309071
16	0x3e25adb9	0.16179551
17	0x3d7b6e88	0.061384708
18	0x3e0b7ec7	0.1362258
19	0x3dd481e2	0.10376336
20	0xbd29fe28	-0.041502148
21	0x3db45ace	0.08806382
22	0xbde4fc94	-0.11180988
23	0xbe2f546d	-0.1712205
24	0xbe19d747	-0.15023528
25	0x3e2d558f	0.1692717
26	0x3db45dc2	0.088069454
27	0xbd8ccdc6	-0.06875186
28	0xbe28a74b	-0.16470067
29	0x3c2a70c0	0.010402858
30	0x3c7eb540	0.015546143
31	0xbdbcfcaa	-0.09227879
32	0xbcbb0428	-0.02282913
33	0x3dd1136a	0.10208781
34	0x3d3e980c	0.046531722
35	0x3dae188a	0.08500774
36	0x3aaff900	0.0013425648
37	0x3cdcbca0	0.026945412
38	0x3dacd18a	0.08438404
39	0xbcb336f0	-0.021876782
40	0xbe3037e9	-0.17208828
41	0xbdb2e7c2	-0.087356105
42	0xbdbe2edd	-0.09286282
43	0x3ab28c00	0.0013622046
44	0xbe0c6363	-0.13709788
45	0x3e253ab5	0.16135676
46	0x3d326160	0.043549895
47	0x3b4bd1c0	0.0031100363
48	0xbdd0249e	-0.10163234
49	0xbe30323f	-0.17206667
50	0xbdaba69c	-0.083813876
51	0xbe134aca	-0.14383999
52	0xbd4d6be8	-0.050151736
53	0xbe270f3d	-0.16314407
54	0xbcbc8af0	-0.02301547
55	0x3e317e03	0.17333226
56	0x3de80ab6	0.11330168
57	0x3e211059	0.15728892
58	0xbdf34640	-0.118786335
59	0xbe038c2d	-0.12846442
60	0xbd09730c	-0.033556983
61	0xbe2b6ec4	-0.16741472
62	0xbb7a4e00	-0.0038193464
63	0x3e0c0353	0.13673143
64	0xbdbccc13	-0.092186116
65	0x3e2e5a13	0.17026548
66	0x3e03d18b	0.12872903
67	0xbe0f3060	-0.13983297
68	0xbcfa3920	-0.030544817
69	0xbe2a8055	-0.16650517
70	0xbc484510	-0.012223497
71	0x3d88b390	0.06674874
72	0xbe0b8f39	-0.13628854
73	0x3d9ccf2e	0.07656704
74	0xbcd05118	-0.025429294
75	0x3deec18a	0.116580084
76	0xbd8beeba	-0.06832643
77	0x3d95f746	0.07322554
78	0x3e0bc023	0.13647513
79	0x3e0976f9	0.1342429
80	0x3e2a7113	0.16644697
81	0xbe067876	-0.1313189
82	0xbdfab9c3	-0.122424625
83	0x3e14bc77	0.14525019
84	0x3d30c6c0	0.043158293
85	0x3e2380a5	0.15967043
86	0xbd954dc6	-0.07290225
87	0x3dc9aa9a	0.09846993
88	0x3d9820ea	0.07428153
89	0x3ddc927e	0.10770129
90	0x3e16e101	0.1473427
91	0x3cb21ef0	0.021743268
92	0xbd0f6c5c	-0.03501545
93	0x3d8330fc	0.064058274
94	0xbdd94c91	-0.10610307
95	0xbd40af58	-0.04704222
96	0x3d661644	0.056173578
97	0xbde91c1f	-0.11382317
98	0x3ce172b0	0.027520508
99	0xbd0b71d8	-0.034044117
100	0x3be39ae0	0.006945953
101	0x3b514b00	0.0031935573
102	0x3de399ae	0.111132964
103	0x3d2dadd0	0.04240209
104	0xbdd7696c	-0.105181545
105	0xbe1f1e69	-0.15538944
106	0x3e30a855	0.17251714
107	0xbdc221da	-0.09479113
108	0xbe12c4d2	-0.14332893
109	0x3da6fd32	0.08153762
110	0xbcc1d7c0	-0.023662448
111	0x3cb35b30	0.021894068
112	0xbce65d98	-0.0281208
113	0xbd0413dc	-0.032245502
114	0x3da98e8a	0.0827914
115	0xbd2a3604	-0.04155542
116	0x3e1cb8b7	0.15304838
117	0x3e173289	0.14765371
118	0xbe1c4e5c	-0.15264267
119	0x3ddcb1fa	0.10776134
120	0xbe13bdf7	-0.14427935
121	0xbe07616b	-0.13220756
122	0x3d8b9ce6	0.068170354
123	0x3d3e3020	0.046432614
124	0x3cbf5dd0	0.023360163
125	0xbde3da3b	-0.111256085
126	0x3def2056	0.116760895
127	0x3d16801c	0.03674327
128	0x3db7a7ba	0.08967538
129	0x3ddc937a	0.107703164
130	0x3d1c783c	0.038200602
131	0xbcbb3dc8	-0.022856608
132	0x3e283473	0.16426258
133	0x3e03e40f	0.12879966
134	0xbdcc2758	-0.09968442
135	0x3ddff222	0.10934855
136	0x3d99a4c6	0.07502131
137	0x3dcf2642	0.10114719
138	0xbdabc49b	-0.08387109
139	0x3e2d7467	0.16938935
140	0x3df210fa	0.11819644
141	0xbdcb10e6	-0.099153325
142	0x3ddebbda	0.108756736
143	0xbdee1ef5	-0.11626998
144	0x3b254cc0	0.0025222749
145	0xbe325895	-0.17416604
146	0x3dc9bed2	0.09850849
147	0xbd8c9986	-0.0686522
148	0xbe2308d1	-0.15921332
149	0x3da2abda	0.07942934
150	0xbc5ab4d0	-0.013348773
151	0xbe2e8a49	-0.17044939
152	0xbb9370e0	-0.0044995397
153	0x3d2fe5f8	0.042943925
154	0xbd1d0d44	-0.03834273
155	0xbe1bea2d	-0.1522605
156	0x3de7b11a	0.11313076
157	0xbe33e01a	-0.17565957
158	0xbddb6ec5	-0.10714487
159	0xbdeb9c79	-0.11504454
160	0xbe1eaccc	-0.15495604
161	0x3da9b17a	0.08285804
162	0x3e260bcb	0.16215436
163	0xbd07e5f0	-0.03317827
164	0xbb267400	-0.0025398731
165	0x3dc8aae2	0.09798218
166	0xbe021dc3	-0.12706666
167	0x3d9da49e	0.07697414
168	0xbdd29df1	-0.10284031
169	0x3d60b4ec	0.05486004
170	0xbd6cbaea	-0.057795443
171	0x3dfc1032	0.123077765
172	0xbb274980	-0.0025525987
173	0xbe286cea	-0.16447797
174	0xbcb86e00	-0.02251339
175	0xbe213f30	-0.1574676
176	0x3e34eed5	0.17669232
177	0xbd16850c	-0.036747977
178	0xbc941218	-0.018075034
179	0xbdc8ccc3	-0.0980468
180	0xbcea9ce8	-0.028639272
181	0xbe309f67	-0.17248307
182	0xbdabbf61	-0.08386112
183	0xbe0ee7f1	-0.13955666
184	0x3d86ec88	0.065880835
185	0xbde4fe39	-0.111813016
186	0xbe31e8e0	-0.17373991
187	0xbde86fdd	-0.11349461
188	0xbdf7cb9c	-0.12099382
189	0x3e2a9e9b	0.16662066
190	0x3d817f0e	0.06323062
191	0xbe107819	-0.14108314
192	0x3dc1a916	0.09456079
193	0xbd48a710	-0.04898745
194	0xbdf59ed4	-0.11993185
195	0xbdc7ad17	-0.09749811
196	0xbd3afc90	-0.04565102
197	0x3e049bb7	0.12950025
198	0x3d767160	0.060166717
199	0x3d81d9e0	0.063403845
200	0xbe1f4478	-0.15553463
201	0x3e068d69	0.13139881
202	0x3e01287d	0.12613101
203	0xbd769492	-0.06020028
204	0x3e040575	0.12892707
205	0x3dc671fe	0.09689711
206	0x3e1bfd59	0.15233363
207	0x3dfa3c3e	0.122185215
208	0x3e0f84ef	0.14015554
209	0xbdf65253	-0.12027421
210	0xbd81088c	-0.06300458
211	0x3e177731	0.14791562
212	0x3dfd5aae	0.123708114
213	0xbe0c5f17	-0.13708149
214	0xbd736574	-0.059422925
215	0xbc982510	-0.01857236
216	0xbdd95039	-0.106110044
217	0xbe1b5dec	-0.15172547
218	0x3e2d2889	0.16909994
219	0xbdfe5dce	-0.124202356
220	0xbe17b9bc	-0.14816946
221	0x3d0ffc28	0.035152584
222	0xbe287655	-0.1645139
223	0xbe1a622e	-0.15076515
224	0x3d5b7e30	0.05358714
225	0x3e04404b	0.12915151
226	0x3df2ae42	0.11849643
227	0x3d6f0340	0.05835271
228	0xbd86cc3c	-0.06581923
229	0xbe2233fd	-0.15840144
230	0x3d9af5ae	0.07566391
231	0x3e000b17	0.1250423
232	0xbd93a842	-0.07209827
233	0xbdc4dbb3	-0.09612217
234	0x3de4e92e	0.11177288
235	0x3e33c50f	0.1755564
236	0xbdb44f28	-0.0880416
237	0x3e07f661	0.1327758
238	0x3d02d564	0.031941786
239	0x3dd67b62	0.10472752
240	0x3d206134	0.0391552
241	0x3dd92f3a	0.10604711
242	0x3d41c36c	0.04730551
243	0xbd107334	-0.035266116
244	0xbdeadfc6	-0.11468463
245	0xbdb2e82e	-0.08735691
246	0x3e208d61	0.15678932
247	0xbe1e6aa8	-0.15470374
248	0x3e1eb47d	0.15498538
249	0xbe107a4c	-0.14109153
250	0xbda4226d	-0.08014379
251	0x3d9597e8	0.073043644
252	0x3e09a83f	0.13443087
253	0x3dd9ab8e	0.106284246
254	0xbd335ff0	-0.043792665
255	0xbe171ef6	-0.14757904

recurrent_blocks.0.bias_ih_l0 f4 [96]
0	0xbdf80332	-0.121099845
1	0xbdf69cae	-0.12041603
2	0x3bfb0780	0.007660806
3	0xbd113264	-0.035448447
4	0xbe10cb0d	-0.14139958
5	0x3d9860f2	0.07440366
6	0x3d6101d4	0.054933384
7	0x3d5a8054	0.05334504
8	0x3d569b24	0.052394047
9	0xbda4676a	-0.08027537
10	0xbdb64835	-0.08900491
11	0xbd86ded5	-0.065854706
12	0x3db0611e	0.08612274
13	0x3e1c971f	0.15292023
14	0xbe1d4d07	-0.15361415
15	0xbd8aec1f	-0.06783318
16	0x3c6caa80	0.014444947
17	0x3dcf70d6	0.101289436
18	0x3dbf930e	0.0935422
19	0x3ddb41f6	0.107059404
20	0x3dd7e6c2	0.105420604
21	0x3df9f52a	0.122049645
22	0xbe1cd071	-0.15313889
23	0xbd815991	-0.063159116
24	0xbdb837e4	-0.08995035
25	0xbdc5e97e	-0.09663676
26	0xbd5e05aa	-0.05420462
27	0xbdcbb492	-0.099465504
28	0xbc3f9120	-0.011692315
29	0x3d1d863c	0.038458094
30	0x3c586780	0.01320827
31	0xbdc250aa	-0.09488042
32	0xbe0e575c	-0.13900512
33	0xb91dc000	-0.00015044212
34	0xbe127162	-0.14301065
35	0x3e32539b	0.17414705
36	0xbdba5484	-0.09098151
37	0xbe0df730	-0.13863826
38	0xbde45402	-0.11148836
39	0x3d806ba8	0.06270534
40	0x3dc41892	0.09574999
41	0x3e1c8c8f	0.15287994
42	0xbdf57226	-0.11984663
43	0x3db9e92a	0.09077676
44	0x3df4b482	0.11948492
45	0xbc43aeb0	-0.011943504
46	0xbdf25f0d	-0.11834536
47	0x3d9b9092	0.07595934
48	0x3e094659	0.13405742
49	0xbdb32240	-0.08746767
50	0xbd4a22e0	-0.049349666
51	0x3d45bc74	0.048275426
52	0xbdc433c6	-0.095801875
53	0xbd978348	-0.07398087
54	0xbdbc4d78	-0.091944635
55	0xbdf97e23	-0.12182262
56	0x3d75e498	0.060032457
57	0xbdbf5114	-0.09341636
58	0xbd652e98	-0.05595264
59	0xbe23fcb4	-0.16014367
60	0x3d0f7b80	0.03502989
61	0x3e14ede9	0.1454388
62	0x3da6ca6a	0.08144076
63	0xbdc9bdc6	-0.098506495
64	0xbdb6f505	-0.089334525
65	0xbe216308	-0.15760434
66	0xbc94e0f0	-0.018173665
67	0x3d42b980	0.047540188
68	0x3cd0ae20	0.025473654
69	0x3cc4fd38	0.024046525
70	0x3ced2fb0	0.028953403
71	0xbe237e90	-0.15966249
72	0x3e11937f	0.14216422
73	0xbc4e92c0	-0.01260823
74	0x3e2136ff	0.15743636
75	0xbd3cd2cc	-0.04609947
76	0x3e250321	0.16114475
77	0xbca66980	-0.020313978
78	0xbcfb07d8	-0.030643389
79	0x3e03fb77	0.12888895
80	0xbcf725a0	-0.030169308
81	0xbd6d013a	-0.057862498
82	0x3dad108e	0.08450423
83	0x3d872e18	0.066005886
84	0x3de20096	0.11035268
85	0xbd7129a6	-0.05887761
86	0xbd2e634c	-0.042575166
87	0xbd936a44	-0.07198003
88	0x3d69c7a8	0.057075173
89	0x3d74e390	0.059787333
90	0xbd4dfe68	-0.05029145
91	0x3e0fd407	0.14045726
92	0x3db7cf9a	0.08975144
93	0x3d996c4e	0.074913606
94	0x3debf352	0.11521019
95	0x3def34ee	0.116800174

recurrent_blocks.0.bias_hh_l0 f4 [96]
0	0xbdcf2d87	-0.101161055
1	0x3e0b82f3	0.13624172
2	0x3cfaa6d0	0.03059712
3	0x3e142ca3	0.14470153
4	0x3e230305	0.1591912
5	0x3dd90b4e	0.10597859
6	0xbdc39433	-0.09549751
7	0xbcec7510	-0.028864413
8	0xbcdd13e8	-0.026987031
9	0xbc52ac60	-0.01285848
10	0x3d7c71b0	0.06163186
11	0xbe11b786	-0.14230165
12	0xbdb38d99	-0.08767242
13	0x3e14f781	0.1454754
14	0xbe017d45	-0.12645443
15	0xbd83d75b	-0.0643756
16	0x3cc679c8	0.024227992
17	0xbdf0f99c	-0.11766359
18	0xbc8d8738	-0.017276391
19	0xbdface58	-0.12246388
20	0xbca1a4d0	-0.019731909
21	0xbe1b2d8c	-0.15154094
22	0xbe19a922	-0.15005925
23	0xbdcd9ffd	-0.10040281
24	0xbe00a8ff	-0.12564467
25	0xbb84a2e0	-0.0040477365
26	0x3d4e14c4	0.050312772
27	0xbd66910e	-0.05629068
28	0xbdb51221	-0.088413484
29	0x3d4a832c	0.0494415
30	0x3e2edad1	0.1707566
31	0x3e266761	0.16250373
32	0x3e061df7	0.13097368
33	0xbd84e2ff	-0.064886086
34	0x3dde1eda	0.10845728
35	0x3d8cc242	0.06872989
36	0xbd33cbb4	-0.04389544
37	0x3dd85512	0.10563101
38	0xbe01cac8	-0.12675011
39	0x3c950540	0.01819098
40	0x3a975b80	0.0011547655
41	0xbce54868	-0.027988628
42	0x3df5b8e2	0.11998154
43	0x3e2fda69	0.1717316
44	0x3dd02242	0.10162784
45	0x3e28f8e1	0.1650119
46	0x3b8b8460	0.0042577237
47	0xbaf90f00	-0.0019001663
48	0xbe018857	-0.12649666
49	0x3dcd07da	0.10011263
50	0x3e18da9b	0.14927141
51	0xbd18d03c	-0.037307963
52	0xbd448c90	-0.047985613
53	0xbe24fffc	-0.16113275
54	0x3d62703c	0.055282816
55	0x3e22ee1d	0.15911146
56	0x3d914338	0.07092899
57	0x3d86141a	0.06546803
58	0x3d64555c	0.055745468
59	0x3daae23a	0.083439305
60	0xbd41268c	-0.0471559
61	0x3e2afd23	0.16698126
62	0xbdcaa952	-0.098955765
63	0xbb437680	-0.002982527
64	0x3e236741	0.15957357
65	0xbc0d3bd0	-0.008620217
66	0xbd80ea05	-0.06294636
67	0x3e07bd7f	0.13255881
68	0xbdbe3cfc	-0.092889756
69	0x3d977f7a	0.07397361
70	0xbd9586dc	-0.07301113
71	0x3c9f1ec8	0.019423857
72	0xbd7a3bac	-0.061092064
73	0xbc2bff30	-0.010497853
74	0x3c82bcb0	0.015959114
75	0xbcac61a8	-0.02104266
76	0x3d58e284	0.052950397
77	0xbdd28bc1	-0.10280562
78	0x3bbf0a80	0.005830109
79	0xbdeb3f6c	-0.11486706
80	0xbded2e7f	-0.11581134
81	0xbe1c0c69	-0.15239109
82	0xbd435324	-0.04768671
83	0x3d3354cc	0.04378204
84	0x3d897ca4	0.067132264
85	0xbd360578	-0.04443881
86	0xbdbbd310	-0.09171116
87	0x3c5f6810	0.01363565
88	0xbdb98fc9	-0.09060628
89	0xbdee4d04	-0.11635783
90	0xbe1e2f31	-0.1544769
91	0x3dbd881e	0.09254478
92	0x3e07f9a1	0.1327882
93	0xbe0bc6ae	-0.13650009
94	0xbd75f0d4	-0.060044125
95	0xbd9a8286	-0.075444266

recurrent_blocks.0.weight_ih_l0_reverse f4 [96, 3]
0	0x3d42a63c	0.047521815
1	0xbdf3a8b4	-0.11897412
2	0x3dafe8c2	0.08589317
3	0xbdbc306c	-0.09188923
4	0xbd796e64	-0.060896292
5	0x3c9f0b70	0.019414634
6	0xbd918c0d	-0.07106791
7	0x3e01a305	0.12659843
8	0xbd9ac791	-0.075575955
9	0xbd393e38	-0.045225352
10	0xbdc8bfb1	-0.09802187
11	0xbd90430f	-0.070440404
12	0xbe1cee1c	-0.15325207
13	0x3da24b86	0.07924561
14	0x3d95ecbe	0.073205456
15	0x3de6f942	0.11278011
16	0x3dddf872	0.10838403
17	0x3e1b0f3b	0.15142529
18	0x3d333fd8	0.043762058
19	0x3e0d7a71	0.13816239
20	0xbe17ffcc	-0.14843673
21	0xbe32af2f	-0.1744964
22	0x3e24c61d	0.16091199
23	0x3dd56a06	0.10420613
24	0xbe2cc5d4	-0.1687234
25	0xbdd3a4b8	-0.10334152
26	0x3d21751c	0.039418325
27	0x3d1b4cb8	0.03791496
28	0x3db51272	0.08841409
29	0x3df7b87a	0.12095733
30	0x3d291794	0.04128225
31	0xbd97b294	-0.07407108
32	0xbe13752a	-0.14400163
33	0x3a524100	0.000802055
34	0x3e015a85	0.12632187
35	0xbdf0e714	-0.11762825
36	0x3da11b32	0.07866515
37	0x3d8a8b0c	0.06764802
38	0xbc78de90	-0.015189782
39	0xbdc55645	-0.09635595
40	0x3d98048e	0.07422744
41	0xbe331c21	-0.17491199
42	0x3df8d086	0.12149148
43	0xbc8c0248	-0.017090932
44	0x3d74f3b0	0.05980271
45	0x3cf248f0	0.029575795
46	0x3dc0d93e	0.09416436
47	0x3e31b529	0.17354263
48	0x3da96676	0.08271496
49	0xbd508bac	-0.05091445
50	0x3de13e92	0.109982625
51	0x3df3d89e	0.11906551
52	0xbc099e90	-0.008399621
53	0xbd20779c	-0.03917657
54	0xbe070eb6	-0.13189206
55	0xbd944a14	-0.07240692
56	0x3e054bef	0.13017248
57	0x3dd5c3f6	0.10437767
58	0x3e1d8723	0.15383582
59	0x3dd8c5fa	0.10584636
60	0x3e190113	0.14941816
61	0x3d5896f4	0.052878335
62	0x3d505b20	0.050868154
63	0xbe05579e	-0.13021705
64	0x3caa9c00	0.02082634
65	0x3d94f570	0.07273376
66	0xbe1b7ca9	-0.15184273
67	0x3d0bbaa0	0.034113526
68	0xbe007eca	-0.12548366
69	0xbe306dfe	-0.17229459
70	0xbdec3349	-0.11533219
71	0xbd791098	-0.06080684
72	0xbe1d6bc6	-0.15373144
73	0x3dde8fca	0.10867269
74	0xbd5ece26	-0.054395817
75	0x3e2bd38d	0.16779919
76	0x3e0e8565	0.13918073
77	0x3d53ad80	0.051679134
78	0xbdbbd67a	-0.091717675
79	0x3d75a790	0.059974253
80	0x3dac44ca	0.08411558
81	0xbe1eb68a	-0.1549932
82	0xbcc5e6d8	-0.024157926
83	0x3dd794ea	0.1052645
84	0xbaba7780	-0.0014226288
85	0x3b9aa6e0	0.0047196
86	0x3db5e2e2	0.08881165
87	0xbd4e89bc	-0.050424322
88	0xbe04cf82	-0.12969783
89	0xbdac8e0b	-0.0842553
90	0xbd060350	-0.032718003
91	0x3dd9ebca	0.10640676
92	0x3dd0ff9e	0.10205005
93	0x3d941cc2	0.072320476
94	0xbdc9b0a0	-0.09848142
95	0xbe2a2037	-0.16613851
96	0xbe1bfd01	-0.15233232
97	0x3cedb6f0	0.029017895
98	0x3dce3c72	0.10070123
99	0x3c9bcf28	0.019019678
100	0xbe24fe43	-0.16112618
101	0xbe1ab89c	-0.15109485
102	0xbd2deca4	-0.042462006
103	0xbe206f44	-0.15667444
104	0xbe2cb56e	-0.16866085
105	0x3d59d050	0.053177178
106	0xbdaa0ba0	-0.083029985
107	0x3de119fe	0.10991286
108	0x3d69441c	0.05694972
109	0xbe2f85a3	-0.17140822
110	0xbda7bbb0	-0.081900954
111	0x3e024461	0.12721397
112	0x3e295493	0.16536169
113	0xbdd143f2	-0.10218038
114	0xbc941368	-0.01807566
115	0x3dcc1c6a	0.09966357
116	0x3e24bfaf	0.16088746
117	0x3dc6584e	0.096848115
118	0x3cb94c88	0.0226195
119	0x3e122593	0.14272146
120	0xbe1945f2	-0.14968088
121	0x3e168313	0.14698438
122	0x3cd62008	0.02613832
123	0xbe0d7d08	-0.13817227
124	0x3dd42d1e	0.10360168
125	0x3c283360	0.010266155
126	0x3dd67fea	0.104736164
127	0x3e3446e3	0.17605166
128	0xbe0ec032	-0.13940504
129	0xbdd435c4	-0.103618175
130	0xbcc032a0	-0.02346164
131	0x3d3f65cc	0.04672794
132	0xbd9c9fba	-0.07647653
133	0xbc0228e0	-0.007944316
134	0xbc997d18	-0.018736407
135	0xbdc37ba0	-0.09545064
136	0x3e02b61d	0.12764783
137	0x3ccc3c30	0.024931043
138	0xbd8412cf	-0.064489
139	0xbdc4b518	-0.096048534
140	0xbe33008a	-0.17480674
141	0x3d20a0bc	0.03921579
142	0xbe0244bf	-0.12721537
143	0x3e1350fd	0.14386363
144	0xbdf9c816	-0.121963665
145	0xbe20bd3c	-0.15697187
146	0xbe02b72a	-0.12765184
147	0x3d5832cc	0.05278282
148	0xbe211a4c	-0.15732688
149	0xbb645180	-0.0034838617
150	0x3cc206b8	0.023684844
151	0x3b6d5240	0.0036212355
152	0x3dbfb7de	0.09361242
153	0x3e0f9f9f	0.14025734
154	0x3cd991e0	0.026558816
155	0x3df8e7f6	0.12153618
156	0x3e323fc1	0.17407133
157	0x3da16d02	0.0788212
158	0x3e349331	0.17634274
159	0xbe1bc4a5	-0.15211733
160	0x3d9fb3f2	0.07797994
161	0xbdb35c36	-0.08757822
162	0xbd075e20	-0.03304875
163	0xbc68a400	-0.014199257
164	0x3d6756e8	0.056479365
165	0x3e291fbf	0.16516016
166	0xbd49d428	-0.049274594
167	0xbe24e259	-0.1610197
168	0x3dad7fd6	0.084716484
169	0x3d6b2198	0.057405084
170	0xbe2eb4e9	-0.17061199
171	0x3e2940f1	0.1652868
172	0xbe22f971	-0.15915467
173	0xbdcfff24	-0.10156086
174	0x3e092b2b	0.13395374
175	0x3e2f75af	0.17134736
176	0xbcf99ec8	-0.03047122
177	0xbe1c2ae2	-0.15250733
178	0xbe02b374	-0.12763768
179	0xbe2e2907	-0.17007838
180	0xbcf6df18	-0.030135676
181	0xbe0138f6	-0.12619385
182	0x3e104fab	0.14092891
183	0x3d9f44b6	0.077767774
184	0x3d9e8b4a	0.07741411
185	0xbdfdf3e8	-0.12400037
186	0xbd1e2e58	-0.038618416
187	0x3e14f5bb	0.14546864
188	0x3e0f93af	0.1402118
189	0xbda19241	-0.07889224
190	0x3ca58448	0.020204678
191	0xbd542d9a	-0.0518013
192	0xbd29c230	-0.041444957
193	0x3d5da3d8	0.05411133
194	0x3e32a0f1	0.17444207
195	0x3e0b1a15	0.13584168
196	0xbd406294	-0.04696901
197	0x3df27986	0.11839585
198	0xbd9ec2b5	-0.07751981
199	0x3e12696f	0.14298032
200	0x3d94c950	0.0726496
201	0x3b9e6ee0	0.0048349947
202	0x3cf65e98	0.030074403
203	0x3d7c625c	0.06161724
204	0xbda4571b	-0.080244265
205	0xbd988e6a	-0.07449038
206	0xbdc60bdd	-0.096702315
207	0xbe316c10	-0.17326379
208	0x3e1641fd	0.1467361
209	0x3e135943	0.1438952
210	0xbdb775f1	-0.089580424
211	0x3d9669b6	0.073443815
212	0x3e0905c1	0.13381101
213	0x3e13b32f	0.14423822
214	0xbe28345c	-0.16426224
215	0xbe086442	-0.13319495
216	0xbde7d97e	-0.1132078
217	0xbdc72671	-0.09724129
218	0x3dc32272	0.09528054
219	0x3cd2c2d8	0.025727674
220	0xbe1a1706	-0.15047845
221	0x3d810038	0.0629887
222	0xbe084fb0	-0.13311648
223	0xbe2bd65e	-0.16780993
224	0xbdb486e8	-0.08814794
225	0xbcee9150	-0.029122025
226	0x3c2110a0	0.009830624
227	0xbe02f658	-0.12789285
228	0x3c036b70	0.008021221
229	0xbe10a992	-0.14127186
230	0xbcf48e88	-0.02985312
231	0x3dd66192	0.10467829
232	0x3d96cf96	0.073638126
233	0x3d2b2424	0.041782513
234	0x3d2b3a7c	0.041803822
235	0xbe0f4229	-0.13990082
236	0x3e0e1447	0.13874923
237	0xbd358a14	-0.044321135
238	0x3e01585f	0.12631367
239	0xbd7267a6	-0.059180878
240	0xbcfcde20	-0.030867636
241	0x3e33b4c3	0.17549424
242	0xbd69ae46	-0.057050966
243	0x3d303898	0.043022722
244	0x3d3576a4	0.044302598
245	0x3e14ec07	0.14543162
246	0xbe2d2bbc	-0.16911215
247	0x3dc8a7d6	0.09797637
248	0x3d5c69e8	0.053811938
249	0x3cb5fcb0	0.022215217
250	0xbdee140d	-0.11624918
251	0x3d725afc	0.0591688
252	0x3dbe08b2	0.09279002
253	0xbd416934	-0.04721947
254	0x3e2ffddd	0.17186685
255	0x3dd258b2	0.102708235

recurrent_blocks.0.weight_hh_l0_reverse f4 [96, 32]
0	0x3dbaf4b6	0.09128706
1	0xbc5ee640	-0.013604701
2	0x3e2afebb	0.16698734
3	0xbd3fa8b4	-0.046791747
4	0xbe1917ef	-0.14950536
5	0x3ce55520	0.027994692
6	0x3dd1845a	0.10230322
7	0xbd8ed46a	-0.069741085
8	0xbdb28d7b	-0.087183915
9	0x3db4a686	0.08820824
10	0xbd8b2e48	-0.06795937
11	0x3e186d8d	0.1488554
12	0x3ae87700	0.001773566
13	0x3e1dfcb1	0.15428425
14	0x3dcf1bde	0.10112737
15	0xbe2f02f8	-0.17090976
16	0xbe13129a	-0.14362565
17	0x3dca993e	0.0989251
18	0xbde3dc8d	-0.11126051
19	0xbe29d43e	-0.1658487
20	0x3d75bd4c	0.05999498
21	0xbe29a4cc	-0.16566771
22	0x3da7ca0e	0.08192836
23	0xbe200a0a	-0.1562883
24	0xbd6a0736	-0.057135783
25	0x3ab75e80	0.0013989955
26	0x3e16596d	0.1468255
27	0xbe34c9c5	-0.17655094
28	0x3cb5d2f8	0.022195324
29	0x39e11000	0.00042927265
30	0x3c279da0	0.010230452
31	0x3e033ccb	0.1281616
32	0xbe1e020e	-0.15430471
33	0xbd42f170	-0.047593534
34	0x3e2d0be5	0.16899069
35	0x3d8494a4	0.064736634
36	0xbdbddadd	-0.092702605
37	0xbe22601e	-0.15856978
38	0x3e246479	0.16053952
39	0x3d7996d0	0.06093484
40	0xbc726230	-0.014793918
41	0x3d731e68	0.05935517
42	0xbd838694	-0.06422153
43	0xbe33d5e3	-0.1756206
44	0xbba30a00	-0.0049755573
45	0x3db7d69a	0.08976479
46	0x3d4f0cd4	0.050549343
47	0xbdd65467	-0.10465317
48	0x3e12eb5f	0.143476
49	0xbd43433c	-0.04767154
50	0x3e12dfad	0.14343138
51	0xbe202bf0	-0.15641761
52	0x3d016398	0.03158912
53	0xbc180000	-0.009277344
54	0x3de6f6fe	0.11277579
55	0xbdf334e5	-0.11875323
56	0x3c821650	0.01587978
57	0xbd6a91ac	-0.05726783
58	0xbdaecfaf	-0.08535706
59	0xbdac676b	-0.08418163
60	0x3e2eca23	0.17069297
61	0x3e2a1dfd	0.16613002
62	0xbe314fbe	-0.17315575
63	0xbd589630	-0.052877605
64	0xbdb6ab15	-0.0891935
65	0xbdae02c1	-0.08496619
66	0x3dc4f016	0.09616105
67	0x3d7313b0	0.059344947
68	0xbe03b34f	-0.1286137
69	0xbb9768a0	-0.0046206266
70	0xbd188878	-0.03723952
71	0xbdfc67bc	-0.12324473
72	0xbd8f5f9a	-0.070006564
73	0x3dde391a	0.10850735
74	0x3ccc07d8	0.024906084
75	0x3e05d04b	0.13067739
76	0x3d97cc52	0.07412018
77	0x3e297c6b	0.16551368
78	0x3e209c0b	0.15684526
79	0x3e1deb23	0.15421729
80	0x3e0a62af	0.13514207
81	0xbe1b357c	-0.15157121
82	0xbc659ab0	-0.014013931
83	0xbd295278	-0.041338414
84	0x3e120fa1	0.14263774
85	0xbe2329e8	-0.15933955
86	0x3e0a7dd5	0.13524564
87	0x3bba0660	0.0056770295
88	0x3d6b5a14	0.057458952
89	0xbd96c372	-0.07361497
90	0x3de4ec2e	0.1117786
91	0xbe041d9d	-0.12901922
92	0xbe2acc4e	-0.16679499
93	0xbdb8512b	-0.089998566
94	0x3e02ba89	0.1276647
95	0x3ba1dbc0	0.0049395263
96	0x3d67a2fc	0.05655192
97	0xbdf5e36b	-0.12006267
98	0xbdf09108	-0.117464125
99	0xbdac51f0	-0.08414066
100	0x3e0c4a03	0.13700108
101	0x3dcb861e	0.0993769
102	0x3b921a00	0.004458666
103	0x3de14262	0.1099899
104	0x3def085e	0.11671518
105	0xbdde277e	-0.10847376
106	0x3dc66d9e	0.096888766
107	0xbcdc2730	-0.026874155
108	0xbc7757c0	-0.015096605
109	0x3c1c0830	0.009523436
110	0xbdaa305d	-0.08310006
111	0x3e017561	0.12642433
112	0x3d051b9c	0.032497033
113	0x3d4ebf40	0.05047536
114	0xbdaf31f6	-0.08554451
115	0x3d26f088	0.040756732
116	0x3e09d995	0.13461907
117	0xbe06caf4	-0.13163358
118	0x3cdf82d0	0.027284056
119	0xbd6d61e2	-0.057954676
120	0x3ce35310	0.027749568
121	0xbdacfb1d	-0.084463336
122	0x3d468a28	0.0484716
123	0xbe2849a1	-0.16434337
124	0x3e23aaa7	0.15983067
125	0xbcaf9398	-0.021432683
126	0xbda75f77	-0.08172505
127	0x3e174f4f	0.14776348
128	0xbe28d41a	-0.1648716
129	0xbccf6ff8	-0.025321946
130	0x3d0c4448	0.034244806
131	0x3e314b2d	0.17313834
132	0x3e264ac1	0.16239454
133	0xbb2fef40	-0.0026845485
134	0x3c3d3e30	0.011550471
135	0x3b631500	0.0034649968
136	0xbdfeb468	-0.124367535
137	0x3d805076	0.06265347
138	0xbe0f484d	-0.13992424
139	0xbe22d6c9	-0.15902247
140	0x3dce17a6	0.10063104
141	0x3e175811	0.14779688
142	0xbc9ed438	-0.019388303
143	0xbdfee53d	-0.124460675
144	0x3e0ae3c7	0.13563453
145	0xbb914e00	-0.004434347
146	0x3cd98898	0.02655439
147	0x3db53786	0.08848481
148	0x3e011ee9	0.12609448
149	0xbbce1100	-0.0062886477
150	0xbd69fc40	-0.05712533
151	0xbdb2bb93	-0.08727183
152	0xbe04267c	-0.12905306
153	0x3cd27f30	0.025695413
154	0xbe0df8e5	-0.13864477
155	0xbdb4a0a7	-0.088197045
156	0xbe171e6a	-0.14757696
157	0xbdb6ce26	-0.089260384
158	0x3d04edcc	0.032453343
159	0xbc30f1a0	-0.010799795
160	0x3d12b478	0.03581664
161	0x3d8f5e48	0.070004046
162	0xbe2d94f3	-0.16951351
163	0x3c9c2aa8	0.019063309
164	0x3d845176	0.0646085
165	0x3d8a8c72	0.06765069
166	0xbc3b1100	-0.011417627
167	0x3dabc65e	0.08387445
168	0xbdfff2ab	-0.12497457
169	0xbe04c537	-0.12965856
170	0x3cbda3e0	0.02314943
171	0xbda3551a	-0.07975216
172	0xbdf88f26	-0.121366784
173	0x3e0b4703	0.13601308
174	0x3da41482	0.08011724
175	0x3db82b7e	0.089926705
176	0x3d360c30	0.044445217
177	0x3b0e0a40	0.002167359
178	0x3c846db8	0.0161656
179	0x3e243609	0.16036238
180	0xbdc80bb6	-0.09767859
181	0x3c24d0b0	0.010059521
182	0xbe120170	-0.14258361
183	0x3dfdfcd2	0.12401737
184	0x3e0b3477	0.13594232
185	0xbdb630d4	-0.08896032
186	0x3dd83582	0.10557081
187	0x3e187679	0.14888944
188	0xbd3952a4	-0.045244828
189	0xbde2f09c	-0.11081049
190	0xbc75e170	-0.015007362
191	0x3d1ab4e0	0.037770152
192	0xbd99edfd	-0.07516096
193	0xbe1e8f2c	-0.15484303
194	0xbe12d515	-0.14339097
195	0xbdf90566	-0.12159233
196	0xbe1ad3a3	-0.15119796
197	0x3cefdee8	0.029281095
198	0xbd531830	-0.05153674
199	0xbcbe1e60	-0.023207843
200	0xbe315f2a	-0.17321458
201	0xbbf06020	-0.0073356777
202	0xbe010c30	-0.12602305
203	0x3e131761	0.14364387
204	0x3ddf8336	0.109136984
205	0xbd7d78d2	-0.0618828
206	0xbd8c4ca3	-0.06850555
207	0x3c1ddfb0	0.009635851
208	0xbd98735b	-0.07443877
209	0x3e17d647	0.14827834
210	0x3dc70a36	0.097187445
211	0x3ddf21ee	0.108951434
212	0xbdaa5b7f	-0.08318233
213	0xbc2ca090	-0.010536328
214	0xbd51c2e8	-0.051211268
215	0xbd184b4c	-0.037181184
216	0x3cc73ae0	0.024320066
217	0x3d47aff8	0.0487518
218	0xbd189b24	-0.03725733
219	0xbdc2d4b4	-0.09513226
220	0x3e09833f	0.13428973
221	0x3dd035a2	0.1016648
222	0xbe23ce2f	-0.15996622
223	0xbd86d297	-0.065831356
224	0xbe34b6c2	-0.17647842
225	0xbd931b0f	-0.071828954
226	0xbc860b00	-0.016362667
227	0xbc774a10	-0.0150933415
228	0xbd885df9	-0.06658549
229	0xbe2cbce1	-0.16868927
230	0xbd617d58	-0.055051178
231	0x3ba44d80	0.0050141215
232	0x3d114830	0.035469234
233	0xbdd3e541	-0.10346461
234	0xbdda39cd	-0.10655556
235	0xbda7b48a	-0.08188732
236	0x3d9aaf7e	0.07553004
237	0xbe254a4c	-0.16141623
238	0x3e320771	0.17385651
239	0xbd61369e	-0.054983728
240	0xbdb6a249	-0.08917672
241	0xbe06df8c	-0.13171214
242	0x3d8f4018	0.06994647
243	0xbe2e6f0c	-0.17034549
244	0x3dd69bf2	0.10478963
245	0x3e00ac5d	0.12565751
246	0x3dfc828a	0.12329586
247	0x3ddca0c6	0.107728526
248	0xbe0ce284	-0.13758284
249	0xbe27bc24	-0.16380364
250	0x3dc914ae	0.098183975
251	0x3dfec7e2	0.12440468
252	0x3db0aad2	0.086263314
253	0xbd50da88	-0.050989658
254	0xbe0d13ea	-0.13777128
255	0xbe2029c9	-0.1564094

recurrent_blocks.0.bias_ih_l0_reverse f4 [96]
0	0x3c9fa898	0.019489571
1	0x3e27bfa1	0.16381694
2	0xbe31d060	-0.17364645
3	0xb89b0800	-7.392466e-05
4	0xbd179c9c	-0.03701459
5	0xbccb2f00	-0.024802685
6	0x3e040de9	0.12895931
7	0xbd60b9f6	-0.054864846
8	0xbe2a11ad	-0.16608305
9	0x3dc5e24e	0.09662305
10	0xbc198f00	-0.009372473
11	0xbb9403e0	-0.0045170635
12	0x3e0975e7	0.13423882
13	0x3dce067e	0.10059832
14	0x3d0dee00	0.034650803
15	0x3d99a762	0.07502629
16	0x3d85ac66	0.06527023
17	0xbda7d445	-0.08194784
18	0x3d4cb754	0.049979523
19	0xbe0fdcdb	-0.14049093
20	0x3de6ec12	0.112754956
21	0x3e1bf333	0.15229492
22	0xbdacdb9d	-0.084403254
23	0x3db48816	0.08815019
24	0xbcaa8a10	-0.020817786
25	0x3da70192	0.081545964
26	0xbdc49bcb	-0.09600028
27	0xbd59a886	-0.053139232
28	0x3d8103da	0.06299563
29	0xbdc67df1	-0.0969199
30	0xbb327580	-0.002723068
31	0xbdf0b9d0	-0.11754191
32	0xbd7fec68	-0.062481314
33	0xbe11d3ea	-0.14240995
34	0xbe174ee9	-0.14776196
35	0x3e2fdc2d	0.17173834
36	0xbdcca68c	-0.09992704
37	0x3c34b1c0	0.011028707
38	0xbd8ffb36	-0.070303366
39	0x3d8faf96	0.07015912
40	0xbdbd29b6	-0.09236471
41	0xbda0a954	-0.07844797
42	0x3e18031f	0.1484494
43	0x3d1e5d88	0.038663417
44	0x3db243a6	0.08704309
45	0xbccb6ce0	-0.02483219
46	0xbddc1957	-0.10747021
47	0x3e1f3a6d	0.15549631
48	0xbce43fb0	-0.0278624
49	0x3e005e11	0.12535883
50	0xbd63dfb0	-0.055633247
51	0x3de7e9d6	0.113238975
52	0xbdc52cc3	-0.09627678
53	0xbe301bcf	-0.17198108
54	0x3da8531a	0.08218975
55	0x3c46e0d0	0.01213856
56	0x3d874130	0.066042304
57	0xbda38edd	-0.079862334
58	0xbb3d9400	-0.0028927326
59	0x3ce0ecb8	0.027456626
60	0x3be195a0	0.006884292
61	0x3dc00842	0.09376575
62	0x3e2a00c3	0.16601853
63	0x3e14150f	0.14461158
64	0xbd94d793	-0.0726768
65	0xbe09b380	-0.1344738
66	0xbd4f0a88	-0.050547153
67	0x3da60e8a	0.08108242
68	0x3d50f8cc	0.05101852
69	0x3dce5ea2	0.100766435
70	0xbe0939d2	-0.13400963
71	0x3d033ac8	0.03203848
72	0xbd8088a4	-0.06276062
73	0x3e034e27	0.12822782
74	0x3d47b2bc	0.04875444
75	0x3d6d5bbc	0.057948813
76	0xbe20bd62	-0.15697244
77	0xbdbb8928	-0.0915702
78	0xbdba981f	-0.09111046
79	0xbe2ba609	-0.16762556
80	0xbde03b6a	-0.10948832
81	0xbe07a974	-0.13248235
82	0x3dceceba	0.10098024
83	0x3d7cee18	0.0617505
84	0xbe0e2262	-0.13880304
85	0xbda03c20	-0.07823968
86	0xbe059650	-0.13045621
87	0x3de43032	0.11142005
88	0x3dfd4992	0.12367548
89	0x3d8878b0	0.06663644
90	0x3c07e260	0.008293718
91	0x3da523e6	0.08063488
92	0x3d3d217c	0.04617451
93	0xbdb66360	-0.08905673
94	0xbd95dda3	-0.073176645
95	0x3d7ec75c	0.062201843

recurrent_blocks.0.bias_hh_l0_reverse f4 [96]
0	0x3bd0b3c0	0.006369084
1	0x3e31472d	0.17312308
2	0xbd8671b7	-0.06564658
3	0xbd55c9a4	-0.052194253
4	0xbe34f8a0	-0.17672968
5	0xbdb24e07	-0.08706289
6	0x3ad9f480	0.0016628653
7	0x3de45dba	0.111506894
8	0x3d998d82	0.074976936
9	0x3ca0d788	0.019634023
10	0x3dca646a	0.09882434
11	0xbab81b00	-0.0014046133
12	0x3c64f480	0.013974309
13	0x3ceaf5e0	0.028681695
14	0x3db52c8a	0.08846386
15	0x3d938374	0.07202807
16	0xbda9fc64	-0.08300093
17	0x3d708868	0.058723837
18	0xbdca964e	-0.098919496
19	0x3dbd89ae	0.09254776
20	0xbe15a3aa	-0.14613214
21	0x3db07cde	0.086175665
22	0x3e0570bd	0.13031287
23	0x3d2c4584	0.042058483
24	0x3e3014d3	0.17195444
25	0x3e2da58d	0.16957684
26	0x3e18276d	0.1485879
27	0x3c8429d0	0.016133219
28	0x3b9cf740	0.0047902167
29	0xbdaa6979	-0.083208986
30	0xba8ae500	-0.0010596812
31	0xba0aef00	-0.0005299896
32	0xbe1d857d	-0.15382953
33	0x3cb67720	0.0222736
34	0x3d430bfc	0.04761885
35	0xbe2857f7	-0.16439806
36	0x3d6a1cc8	0.057156354
37	0x3e215a31	0.15757062
38	0x3d6e31f8	0.058153123
39	0xbdddda35	-0.10832635
40	0xbe00a6b8	-0.12563598
41	0x3e1ac25f	0.15113209
42	0xbdc732c3	-0.09726479
43	0xbdbcc021	-0.09216333
44	0x3e2b91b5	0.16754802
45	0x3ce3f5c8	0.027827159
46	0xbe1abad4	-0.15110332
47	0x3d35f094	0.044418886
48	0x3d25cbd0	0.040477574
49	0xbd3d4ad8	-0.046213955
50	0xbdcd0c07	-0.1001206
51	0xbe17c6e0	-0.14821959
52	0x3d9acd62	0.07558705
53	0xbd45e954	-0.048318222
54	0xbdbbe093	-0.091736935
55	0x3dd8d072	0.10586633
56	0xbcb7e000	-0.022445679
57	0x3db8ddd6	0.09026687
58	0x3e12a31f	0.14320038
59	0xbe2daaae	-0.1695964
60	0xbc87ecb0	-0.016592354
61	0x3d2fd4c4	0.04292752
62	0xba1ea800	-0.00060522556
63	0xbd80b6cd	-0.062848665
64	0xbcf8e128	-0.0303808
65	0xbb8c9140	-0.004289776
66	0x3d49db3c	0.049281344
67	0x3e015663	0.1263061
68	0x3e31c0e3	0.17358737
69	0xbe281fb6	-0.16418347
70	0xbde1d50a	-0.11026962
71	0xbcf5ce20	-0.030005515
72	0xbde90b1e	-0.113790736
73	0xbd97b80d	-0.07408152
74	0x3e14fba5	0.1454912
75	0xbd8b4cda	-0.06801768
76	0xbe275540	-0.16341114
77	0x3ce30a98	0.027715012
78	0xbdee18c2	-0.11625816
79	0x3e08fcf5	0.13377745
80	0x3df2ed66	0.118616864
81	0xbe040dbe	-0.12895867
82	0x3d93092e	0.07179485
83	0xbe1f5922	-0.15561345
84	0xbd973eef	-0.073850505
85	0x3df66cca	0.120324686
86	0x3e06aaed	0.1315114
87	0xbe1abab8	-0.1511029
88	0x3cc654b0	0.024210304
89	0x3dbdd3be	0.09268902
90	0xbcf54998	-0.029942319
91	0x3dcce276	0.100041315
92	0x3d310dc0	0.043226004
93	0xbe14bc19	-0.14524879
94	0x3d8704ea	0.06592734
95	0x3dfdedfa	0.12398906

recurrent_blocks.1.weight_ih_l0 f4 [96, 64]
0	0x3df75376	0.12076466
1	0xbe2b33ff	-0.16719054
2	0x3d159308	0.036517173
3	0xbcd8fbf8	-0.026487336
4	0xbe091cfc	-0.13389963
5	0x3df581a6	0.11987619
6	0x3aaae700	0.0013038814
7	0x3d67934c	0.056536958
8	0xbd7fa924	-0.062417164
9	0xbd052348	-0.03250435
10	0x3e11de8f	0.14245056
11	0x3c355600	0.011067867
12	0xbc16e3a0	-0.0092095435
13	0x3d1048f4	0.035225824
14	0xbd94b299	-0.07260627
15	0xbdb3a965	-0.08772544
16	0xbdb6b542	-0.08921291
17	0xbe14cc9e	-0.1453118
18	0x3d2a6c8c	0.041607425
19	0x3c945fd8	0.018112108
20	0x3e204389	0.15650763
21	0x3da20d26	0.07912664
22	0xbcb63608	-0.022242561
23	0x3d187184	0.037217632
24	0x3d8ddb50	0.06926596
25	0x3ca9e410	0.020738631
26	0x3c92a398	0.017900273
27	0x3e34afdd	0.17645212
28	0x3d8a08b6	0.06739943
29	0x3df1b19e	0.11801456
30	0xbcf74660	-0.030184925
31	0x3e1190e9	0.14215435
32	0xbc3f75d0	-0.0116858035
33	0xbcd7bd80	-0.026335478
34	0xbbd8eec0	-0.006620258
35	0xbda4ed7a	-0.080531076
36	0xbe26a86d	-0.16275187
37	0xbce05550	-0.02738443
38	0xbdee2dc8	-0.11629826
39	0xbd8066c4	-0.06269601
40	0x3d60a098	0.054840654
41	0x3dfb2ebe	0.12264775
42	0xbccf3428	-0.025293425
43	0x3dd96cd2	0.10616459
44	0x3d5a7c5c	0.053341255
45	0xbd1672e8	-0.036730677
46	0x3d8c2b12	0.068441525
47	0xbe344e62	-0.17608026
48	0xbe1c6de6	-0.15276298
49	0x3cd4e2c0	0.02598703
50	0x3d76dfac	0.060271904
51	0x3c689110	0.014194742
52	0xbd80b3a9	-0.062842675
53	0x3de20cfa	0.11037631
54	0xbdd1f5b7	-0.102519445
55	0xbcbe3ec8	-0.023223296
56	0xbe0a89de	-0.13529155
57	0x3d690e48	0.056898385
58	0xbc9b99f8	-0.018994316
59	0xbd3b0d88	-0.0456672
60	0xbdfc4eb0	-0.12319696
61	0x3e08f27b	0.13373749
62	0x3e239f13	0.15978651
63	0xbc953c70	-0.018217295
64	0xbd5fa906	-0.054604553
65	0xbe0bf4f2	-0.13667658
66	0x3db34312	0.08753027
67	0x3d3a3d7c	0.045468792
68	0x3d26e660	0.040747046
69	0xbd8d5036	-0.06900065
70	0xbdd5e747	-0.10444503
71	0xbe301810	-0.17196679
72	0xbe1ac204	-0.15113074
73	0xbd1a5aa8	-0.037684113
74	0xbcbff700	-0.023433208
75	0xbd9b57c6	-0.07585101
76	0xbd266e04	-0.040632263
77	0x3dcaa696	0.09895055
78	0xbc89b620	-0.016810477
79	0x3dbd396a	0.092394665
80	0xbdce80c3	-0.10083153
81	0x3e07ee8b	0.1327459
82	0xbdc56f6e	-0.09640394
83	0xbde44f45	-0.11147932
84	0xbd0fcb5c	-0.035106048
85	0x3cd57938	0.026058778
86	0xbd022c70	-0.03178066
87	0xbd3f254c	-0.04666643
88	0xbe01da02	-0.1268082
89	0xbd514c38	-0.05109808
90	0xbd806eaa	-0.062711075
91	0xbd4cdb98	-0.05001411
92	0x3a283800	0.0006417036
93	0xbd9f6c0a	-0.07784279
94	0x3e0a411f	0.13501404
95	0x3db5d952	0.08879341
96	0xbe195c05	-0.14976509
97	0x3db47586	0.08811478
98	0x3d42f814	0.047599867
99	0xbc800ba0	-0.015630543
100	0xbde28992	-0.11061396
101	0x3dbd1cfe	0.092340454
102	0xbe0c22f2	-0.13685206
103	0xbac26000	-0.0014829636
104	0xbddd59e7	-0.10808163
105	0xbe20d560	-0.15706396
106	0x3e243399	0.16035308
107	0x3e053707	0.13009273
108	0xbdb83a0e	-0.08995448
109	0xbe2d2731	-0.16909482
110	0x3cbc6d60	0.023001373
111	0xbda15887	-0.078782134
112	0x3e214eaf	0.15752672
113	0x3de50f22	0.11184527
114	0xbd13d988	-0.036096126
115	0x3e2e14eb	0.17000167
116	0xbe311b4d	-0.1729557
117	0x3c1e4e90	0.009662285
118	0x3e1d16eb	0.15340774
119	0x3e203659	0.15645732
120	0x3e20e8e5	0.15713842
121	0x3da119a2	0.07866217
122	0xbd2ad030	-0.04170245
123	0xbe1b189c	-0.15146106
124	0xbd85bd26	-0.06530218
125	0xbe283748	-0.16427338
126	0x3e182979	0.1485957
127	0x3e02c3fd	0.12770076
128	0x3d8a5f1c	0.06756422
129	0x3e252ad5	0.1612962
130	0x3b958840	0.0045633614
131	0xbdb81683	-0.08988669
132	0x3e231561	0.15926124
133	0xbd72b436	-0.059253894
134	0xbd811c1b	-0.06304189
135	0x3de9e51a	0.11420651
136	0x3dffadf6	0.12484352
137	0x3d28c3e0	0.041202426
138	0x3dce60f6	0.100770876
139	0x3da07346	0.07834487
140	0xbdc64190	-0.09680474
141	0x3d14ed58	0.03635916
142	0x3e1ee727	0.15517865
143	0xbdd63468	-0.104592144
144	0xbde8cd39	-0.11367268
145	0xbd7a5c0c	-0.06112294
146	0xbe2e408e	-0.17016813
147	0x3dc29c4e	0.09502469
148	0xbd3e18f8	-0.04641053
149	0xbd75527c	-0.059893116
150	0xbe1417de	-0.1446223
151	0x3dcf6632	0.10126914
152	0xbda3b594	-0.07993618
153	0xbd98d796	-0.07462995
154	0x3dc85b22	0.09783007
155	0x3db534de	0.08847974
156	0xbdce1bab	-0.10063871
157	0xbb8e1be0	-0.004336819
158	0x3d4ffbb8	0.050777167
159	0x3dcb49ca	0.099261835
160	0xbd18e444	-0.037327066
161	0x3aad4380	0.0013218969
162	0x3db8fe96	0.090329334
163	0xbe22c896	-0.1589683
164	0x3d0d34cc	0.03447418
165	0x3dec2b2e	0.11531673
166	0xbd440d00	-0.04786396
167	0xbda375a1	-0.0798142
168	0x3d4db9bc	0.05022596
169	0xbe279bc4	-0.16368014
170	0xbd0b0cf8	-0.033947915
171	0xbd91f980	-0.071276665
172	0xbc982b68	-0.018575385
173	0xbd3ef9f0	-0.046625078
174	0x3d0bdd58	0.034146637
175	0x3df441ae	0.1192659
176	0xbe2b8c48	-0.16752732
177	0xbe1ea6fe	-0.1549339
178	0xbd288cbc	-0.04114984
179	0x3e1584d3	0.1460145
180	0xbc9025b0	-0.017596096
181	0xbe19f638	-0.15035331
182	0x3e2ace05	0.16680153
183	0x3d9096ec	0.07060036
184	0x3ca3f4b8	0.020014152
185	0xbd86e252	-0.06586136
186	0xbd12b0d0	-0.035813153
187	0xbde6ab51	-0.11263145
188	0x3c072da0	0.008250624
189	0x3e16160b	0.14656846
190	0x3d7e7ddc	0.062131748
191	0x3dee9786	0.116499946
192	0xbe34a609	-0.17641462
193	0x3da063de	0.07831548
194	0x3d9a177e	0.07524012
195	0x3d5114cc	0.051045224
196	0x3d559aa0	0.052149415
197	0x3d206d08	0.03916648
198	0xbdf86c90	-0.12130082
199	0xbe15366f	-0.14571546
200	0x3d94da46	0.07268195
201	0x3dc9cd7e	0.09853648
202	0x3c083c40	0.008315146
203	0xbc7e91d0	-0.015537694
204	0x3e0c5e89	0.13707937
205	0xbdcd2ebb	-0.10018679
206	0xbd831996	-0.064013645
207	0xbda34bb6	-0.07973425
208	0x3dea9822	0.11454798
209	0xbe0d41ee	-0.13794681
210	0xbc07f2a0	-0.008297592
211	0x3d0a99c0	0.033838034
212	0x3e24945d	0.16072221
213	0xbd8bb370	-0.06821334
214	0x3dce0cce	0.10061036
215	0xbe069408	-0.13142407
216	0x3d92b408	0.071632445
217	0x3dab4fc6	0.08364825
218	0xbe2a06c9	-0.16604151
219	0xbd46e740	-0.04856038
220	0xbdbf94b7	-0.09354537
221	0xbdc9ce40	-0.09853792
222	0x3c62dd10	0.013846651
223	0xbe32f6e5	-0.17476995
224	0x3d6d1248	0.057878762
225	0x3e162fbf	0.14666651
226	0xbdb7e58e	-0.08979331
227	0xbe34739e	-0.1762223
228	0x3b3d6e00	0.0028904676
229	0x3da7a4b2	0.0818571
230	0xbe2aba94	-0.16672736
231	0xbe240317	-0.16016804
232	0xbcc102a0	-0.023560822
233	0xbe34eeed	-0.17669268
234	0xbc099dc0	-0.008399427
235	0xbdd86940	-0.1056695
236	0xbe26ae46	-0.16277418
237	0x3e0ac147	0.13550292
238	0xbe124627	-0.14284573
239	0xbdd57ef2	-0.104246035
240	0x3d58aa80	0.052896976
241	0xbcc91db0	-0.024550289
242	0x3e3361d5	0.17517789
243	0xbe19e967	-0.15030442
244	0x3e2ccdc3	0.16875367
245	0x3dc9c05e	0.09851144
246	0x3df2124a	0.118198946
247	0xbdb92410	-0.090400815
248	0xbb6d7bc0	-0.003623709
249	0x3c8fba28	0.01754482
250	0xbd79030c	-0.06079392
251	0x3dde1476	0.10843746
252	0xbe147381	-0.14497186
253	0xbd040de0	-0.032239795
254	0x3d1cf5a0	0.038320184
255	0x3dad4af2	0.0846156
