main/Finale_Modified/wandb/dryrun-20201021_140354-3nk7e09r/checkpoint_best.pth (torch_old, 795288 bytes, 165 tensors)

h f4 [4, 1, 1, 32]
0	0x3e860648	0.26176667
1	0xbf33af4c	-0.70189357
2	0x3d81f399	0.06345291
3	0x3ee0c02a	0.4389661
4	0x3f03ba93	0.51456565
5	0xbf8d9cf6	-1.1063526
6	0xbfad408d	-1.3535324
7	0x3ea44b6e	0.32088798
8	0x3fde8010	1.7382832
9	0x3f5294a7	0.82258075
10	0x3fb14c87	1.3851479
11	0xc0236cde	-2.5535197
12	0xbf909779	-1.1296226
13	0x3e1ae8b8	0.15127838
14	0x3ec7e4d6	0.39041775
15	0x4011957c	2.2747488
16	0x3e8e3d4a	0.27781135
17	0x3da9e7c9	0.08296163
18	0xbf87b3a5	-1.0601698
19	0xbf76e462	-0.96442235
20	0x3ec389f7	0.38191196
21	0xbd35b7bc	-0.044364676
22	0x40220f77	2.532194
23	0xbfbbf82b	-1.468511
24	0xbbdc1df1	-0.0067174365
25	0xbfb9f912	-1.4529135
26	0xbf21f03a	-0.6325718
27	0xbd06f8c7	-0.032952096
28	0xbeab6f69	-0.33483437
29	0x3f1fa0e0	0.6235485
30	0xbf105f5a	-0.56395495
31	0x3f9ec3a4	1.2403455
32	0x3e91110e	0.28333324
33	0x3f1f3f90	0.62206364
34	0x3f8f8a32	1.1214049
35	0xbe495343	-0.19660668
36	0xbf03757e	-0.51351154
37	0xbff8cdf1	-1.9437848
38	0xbfedf60c	-1.8590713
39	0xbf1de062	-0.61670506
40	0x3dfb2d3a	0.12264486
41	0x3e1c4a18	0.1526264
42	0xbf808f88	-1.0043802
43	0xbf8e3e92	-1.1112845
44	0xbd18bdff	-0.03729057
45	0xbf6152fd	-0.88017255
46	0x3ea57db1	0.32322457
47	0x3f69a875	0.9127267
48	0xbd9b9a6c	-0.07597813
49	0xbf9f8c0f	-1.2464617
50	0xbf816ebd	-1.011192
51	0xbf99958d	-1.1998764
52	0xbe02744a	-0.12739673
53	0x3d1aee7e	0.0378251
54	0x3e7f547e	0.24934575
55	0x3f3f347b	0.74689454
56	0x3e751b49	0.2393619
57	0xbd93f8c2	-0.07225181
58	0x3f7ab03a	0.9792515
59	0x3f4b5cbd	0.7943838
60	0x40420b0c	3.0319242
61	0xbfd961e8	-1.6983004
62	0x3f858e30	1.0434017
63	0xbf9a3296	-1.2046688
64	0xc003305b	-2.0498264
65	0x3da81849	0.08207757
66	0x3feef42e	1.8668268
67	0xbf216ec1	-0.6305962
68	0xbe5db9b7	-0.21652876
69	0x3e9e483a	0.3091448
70	0x3fbc8d8f	1.47307
71	0xbf6400c6	-0.8906368
72	0x3ed38ecd	0.41319886
73	0x3eb8682e	0.36016983
74	0xbeb37370	-0.3504901
75	0x3e88efd4	0.26745474
76	0x3f6fbe47	0.93649715
77	0xbf8fa799	-1.1223022
78	0xbf99b57f	-1.2008513
79	0xbf4cbe57	-0.79977936
80	0xbf08cb29	-0.53435
81	0xbf2ffcba	-0.68745005
82	0xbe5c7c7a	-0.21531859
83	0x3f93df50	1.1552525
84	0x3f6a7c34	0.9159577
85	0xbf5138f0	-0.81727505
86	0xbfbcd5a0	-1.4752693
87	0xbea32195	-0.3186156
88	0xbeae7124	-0.34070694
89	0xbf90658d	-1.1280991
90	0x3f9a9245	1.2075888
91	0xbef1614a	-0.47144538
92	0xbfbb9ea9	-1.4657794
93	0xbf3ffb98	-0.74993277
94	0xbef10beb	-0.47079405
95	0x3d7bfc03	0.061519634
96	0x401cf0e9	2.452204
97	0xbe4a32dc	-0.19745964
98	0xc0135474	-2.3020296
99	0x3e7e706d	0.24847575
100	0x3fb4b713	1.411837
101	0xbf00c47e	-0.50299823
102	0xbf62770a	-0.8846289
103	0x3fc79357	1.559184
104	0x3dbf24c4	0.09333184
105	0xbf802a75	-1.0012957
106	0xbf2fb3a6	-0.68633497
107	0x3f191023	0.5979025
108	0x3fc15a9f	1.510578
109	0xbf266c63	-0.65009135
110	0x3f98f8be	1.195091
111	0x400ac560	2.1682968
112	0xbfd65e1d	-1.6747471
113	0xbf011161	-0.50417143
114	0x3e0321b7	0.1280583
115	0x3f01fd7a	0.507774
116	0xbe913d0d	-0.2836689
117	0x402c9e5c	2.6971655
118	0x3ed092bd	0.40736952
119	0x3f36fade	0.7147654
120	0xbf2c3978	-0.6727519
121	0xbe8b1830	-0.2716689
122	0x3f615ebe	0.8803519
123	0xbf2537ee	-0.64538467
124	0x3f10cfc1	0.5656701
125	0x3f6c1a13	0.92227286
126	0x3e407ad5	0.18796857
127	0xbd74d48a	-0.059773006

c f4 [4, 1, 1, 32]
0	0xbd175431	-0.036945526
1	0xbf673f56	-0.9033102
2	0xbf302e3a	-0.68820536
3	0x3eff6155	0.49878946
4	0x3f4ab534	0.79182744
5	0xbfec4115	-1.8457361
6	0x3eed02e6	0.46291274
7	0xbeaa8049	-0.33301
8	0x3fd32583	1.6495823
9	0xbf9033e2	-1.1265833
10	0x3de956bb	0.11393496
11	0xbfa2bea0	-1.2714424
12	0x3f8ab91f	1.0837744
13	0xbfaff294	-1.3745904
14	0x3f95e276	1.1709735
15	0xbfe25f6a	-1.7685368
16	0xbfeb90f0	-1.8403606
17	0xbf47e28b	-0.7808005
18	0x3f6645ce	0.89950264
19	0x3ecc6931	0.39924005
20	0xbf34aca4	-0.7057593
21	0xbfe3df4b	-1.7802519
22	0x3e8ee189	0.27906445
23	0x401d7b31	2.460644
24	0xbf46ea0f	-0.77700895
25	0x3d30de35	0.043180663
26	0x3d0361e8	0.032075793
27	0x3feddafb	1.8582453
28	0xbecc7280	-0.39931107
29	0xbf74fded	-0.9569996
30	0xbf1ff6e5	-0.62486106
31	0xbff2fac4	-1.8982778
32	0xbffa4a55	-1.9553934
33	0x3ea96558	0.33085132
34	0x3fa04165	1.2519957
35	0xbe2197ed	-0.15780611
36	0x3c9de4e6	0.019274186
37	0xbfb60838	-1.4221258
38	0x3f86f059	1.0542098
39	0x3f79f045	0.9763225
40	0x3ee0ee5f	0.43931863
41	0x3f780406	0.9688114
42	0x3d98d066	0.07461624
43	0xbf1056ff	-0.56382746
44	0x3f3cd235	0.7375825
45	0x3f0b73a9	0.5447336
46	0xbf6f874a	-0.9356581
47	0x3fc0ace0	1.5052757
48	0xbfe6ae98	-1.8022032
49	0x3f69db40	0.91350174
50	0xbe0d8636	-0.13820729
51	0xbdacf1f2	-0.08444585
52	0xbb032311	-0.0020009915
53	0x3fcc9399	1.5982543
54	0xbe525e89	-0.20543875
55	0xbf50349a	-0.81330264
56	0x3cf93a54	0.03042332
57	0xbf89e78c	-1.0773787
58	0xbeb958ee	-0.3620066
59	0x3ea269e4	0.31721413
60	0x3f8c4ec4	1.0961537
61	0xbf8b821c	-1.0899081
62	0xbec20ea2	-0.3790179
63	0x3ec7b631	0.3900619
64	0xbdb1de50	-0.08684981
65	0x3f6bd438	0.92120695
66	0xbf42b94b	-0.76063985
67	0x3f4284b9	0.7598377
68	0xbf25a9e2	-0.64712346
69	0x3f0bd968	0.5462861
70	0xbf40ad4d	-0.75264436
71	0xbfb78f41	-1.4340593
72	0x3f7e50d4	0.99342084
73	0xbfed4cd2	-1.8539069
74	0xbfae3f1f	-1.3613013
75	0x3f36332a	0.7117182
76	0x3fe81c98	1.8133726
77	0x3fa3fb6d	1.2811104
78	0x400a7f43	2.1640174
79	0xbf571b9b	-0.840265
80	0x3eaddcb0	0.33957434
81	0x3f79e650	0.97617054
82	0x3d4dfaf0	0.05028814
83	0x3f976c88	1.1829996
84	0x3f8980c5	1.0742422
85	0x3f0a9811	0.54138285
86	0xbf88023e	-1.0625684
87	0x3eb0aa03	0.3450471
88	0xbeddb239	-0.43300036
89	0x3dc00505	0.093759574
90	0x3e50f190	0.20404649
91	0x3ea66882	0.32501608
92	0xbef7116f	-0.48255488
93	0x3cd929a3	0.026509112
94	0x3dd239cb	0.102649294
95	0xbeb5cab8	-0.35506225
96	0xbf90f2c0	-1.1324081
97	0xbf2ef44a	-0.68341506
98	0xbf942c12	-1.1575949
99	0xbe05fd25	-0.13084848
100	0x3e9c2d25	0.30503193
101	0x3e869826	0.26287955
102	0xbe903aaf	-0.28169772
103	0xbf0c443d	-0.54791623
104	0xbe640e41	-0.22271062
105	0xbee23daf	-0.44187686
106	0x3f1090a7	0.5647072
107	0x3ed602d3	0.4179903
108	0x3ed9aa84	0.42512906
109	0xbf9a73c4	-1.2066579
110	0x400a9581	2.165375
111	0x3c196dfe	0.009364603
112	0xbff68044	-1.9257894
113	0x3ed2a6e0	0.4114294
114	0x3ef7e671	0.48418
115	0x3fc75498	1.5572691
116	0xbf9933d8	-1.1968946
117	0x3e9c87ee	0.30572456
118	0xbf365e34	-0.7123749
119	0xbf90b6bb	-1.1305765
120	0xbf12b0b1	-0.5730086
121	0xbe9ed251	-0.31019834
122	0x3f3eedf7	0.74581856
123	0x3f9a5ecf	1.2060183
124	0xbeaed89d	-0.34149638
125	0xbf4b923e	-0.7952002
126	0x3f54dac3	0.83146304
127	0x3e2c7b38	0.16843879

recurrent_blocks.0.weight_ih_l0 f4 [128, 3]
0	0xbe2f9123	-0.17145209
1	0x3e0bbf09	0.13647093
2	0x3d82a03f	0.06378221
3	0x3e1a8dd3	0.15093164
4	0xbcdfa664	-0.02730102
5	0x3e0b7703	0.13619618
6	0x3e012be9	0.12614407
7	0xbd8d25aa	-0.068919495
8	0xbe22cd56	-0.15898642
9	0x3e27b506	0.16377649
10	0xbdd20c0b	-0.10256203
11	0xbe0141a0	-0.1262269
12	0x3dbb61cd	0.091495134
13	0xbdbf1118	-0.09329432
14	0x3ddf38a8	0.10899478
15	0xbd5f2b35	-0.054484565
16	0x3d80e88f	0.06294357
17	0xbd4e2634	-0.050329402
18	0xbd45d5f2	-0.048299737
19	0x3d932ded	0.07186494
20	0x3e35e0a0	0.17761469
21	0x3e32ff3c	0.17480177
22	0xbcadef2d	-0.021232212
23	0xbe08826a	-0.13330999
24	0xbd3ee97e	-0.046609394
25	0xbd01a068	-0.031647116
26	0x3d652d4f	0.055951413
27	0x3dc8ce40	0.09804964
28	0x3e452fba	0.19256487
29	0x3e2a22dc	0.1661486
30	0x3e074942	0.1321154
31	0xbde96fb5	-0.113982596
32	0x3e064508	0.13112271
33	0x3dfea822	0.124344125
34	0xbdcfa4f5	-0.10138885
35	0x3e1cd536	0.15315709
36	0x3e3444a3	0.17604308
37	0x3d3fb4e4	0.04680337
38	0x3e2ef3cc	0.17085189
39	0xbd2e2182	-0.042512424
40	0x3e0874a6	0.13325748
41	0x3e132a7f	0.1437168
42	0xbaee3ed7	-0.0018176687
43	0x3e165f59	0.1468481
44	0x3cec5df1	0.028853389
45	0x3b72ef84	0.0037069032
46	0xbe2a6c44	-0.16642863
47	0x3e2430b0	0.16034198
48	0xbddb41e6	-0.107059285
49	0xbe0d9ef4	-0.13830167
50	0xbdfee067	-0.12445145
51	0xbc1cc6a6	-0.009568846
52	0x3e37e07e	0.1795673
53	0xbe216fba	-0.15765277
54	0xbd5e004b	-0.0541995
55	0x3dadf429	0.084938355
56	0xbcb0676d	-0.021533692
57	0xbd4e7886	-0.05040791
58	0xbcac0dff	-0.021002768
59	0x3e428ab3	0.18998222
60	0x3c8a1c4a	0.016859192
61	0x3e006cc3	0.1254149
62	0x3dd63a77	0.1046037
63	0x3e34b480	0.1764698
64	0xbd4f0ab5	-0.05054732
65	0x3bc7bc12	0.006095418
66	0x3d68971b	0.05678473
67	0x3c31f243	0.010860982
68	0x3daed29b	0.085362636
69	0x3e06b686	0.13155565
70	0x3e091884	0.13388258
71	0xbe32e1be	-0.17468926
72	0x3e1c9bd6	0.15293822
73	0xbcd24ab7	-0.025670392
74	0x3e0b1209	0.13581099
75	0xbdf51008	-0.11965948
76	0xbd0c6842	-0.034279115
77	0xbd9ca971	-0.07649506
78	0xbe5a4f83	-0.21319394
79	0xbd037a74	-0.032099202
80	0x3d54beb5	0.051939685
81	0xbe460ddf	-0.19341229
82	0xbe1dba1d	-0.15403028
83	0x3d751a4d	0.059839536
84	0x3de5af69	0.112150975
85	0xbe2e993c	-0.17050642
86	0xbe0ae3c0	-0.13563442
87	0x3e1fcb60	0.15604925
88	0x3e15a447	0.14613448
89	0x3dc5c7ea	0.09657271
90	0x3e35a282	0.17737773
91	0x3d3a18dc	0.045433864
92	0xbddc43ef	-0.10755145
93	0x3de9479e	0.11390613
94	0xbde64d20	-0.11245179
95	0x3e3a48ff	0.18191908
96	0xbdfc475d	-0.12318299
97	0x3e0b3ffe	0.1359863
98	0x3c96204d	0.01832595
99	0x3de66b22	0.11250903
100	0xbe50386b	-0.20334022
101	0x3bbfe6ed	0.005856386
102	0xbdb3b747	-0.08775192
103	0x3d5aaab1	0.05338544
104	0x3e1ace04	0.15117651
105	0x3dc55ec9	0.096372195
106	0x3d535148	0.051591188
107	0x3e27ce17	0.16387211
108	0x3e420ee3	0.18950991
109	0x3dc7a4e9	0.09748251
110	0x3da7d349	0.08194596
111	0x3c360110	0.011108652
112	0xbe449085	-0.19195755
113	0xbcfa41c4	-0.030548938
114	0xbe3285a8	-0.17433798
115	0xbb6dbb5c	-0.0036275005
116	0x3d0c1bd2	0.03420622
117	0x3db0d028	0.08633453
118	0xbe3ece25	-0.18633325
119	0x3e2c710e	0.16840002
120	0x3e4d7786	0.20065126
121	0xbc093181	-0.008373619
122	0x3da862af	0.082219474
123	0x3e3a5145	0.18195064
124	0x3dac03f5	0.08399192
125	0x3dd4c825	0.10389737
126	0xbd5781a2	-0.05261386
127	0xbd8e0438	-0.069343984
128	0x3d0562aa	0.032564797
129	0x3dff0774	0.124525934
130	0x3dfaf88d	0.122544385
131	0xbba1280e	-0.004918105
132	0x3dcd3a50	0.10020888
133	0x3d688624	0.05676855
134	0x3e44584a	0.19174305
135	0x3d11da87	0.035608795
136	0x3e2cc721	0.16872837
137	0xbd83d305	-0.06436733
138	0xbd085b0d	-0.033289958
139	0x3da52040	0.08062792
140	0xbda833b7	-0.08212989
141	0x3d1a822a	0.03772179
142	0xbd15d86b	-0.036583345
143	0x3e27aed6	0.16375288
144	0xbd97708b	-0.07394513
145	0xbd94f6c1	-0.07273627
146	0x3d93af7c	0.07211205
147	0x3cf87ba5	0.030332396
148	0xbe1d75d2	-0.15376976
149	0xbd9fb39a	-0.07797928
150	0x3d0a9e08	0.033842117
151	0xbde98fe7	-0.114044
152	0xbc976e52	-0.018485222
153	0x3ccf5a12	0.025311504
154	0xbe3df078	-0.18548763
155	0xbd87b2b0	-0.06625879
156	0xbdc131b5	-0.09433309
157	0xbc8c0417	-0.017091794
158	0xbbf8957d	-0.0075861798
159	0xbe1ee4f3	-0.15517025
160	0xbdc5769f	-0.09641766
161	0x3d61b15c	0.055100784
162	0x3de2bb9f	0.11070942
163	0xbe146983	-0.14493375
164	0x3e25661c	0.16152233
165	0x3dd19682	0.10233785
166	0x3c28864a	0.010285923
167	0xbe392f47	-0.18084441
168	0x3b0c49ef	0.0021406373
169	0x3e28cd73	0.16484623
170	0x3de46653	0.11152329
171	0x3e09fadc	0.13474602
172	0xbca531c1	-0.020165326
173	0xbc1b395f	-0.009474128
174	0x3bb83429	0.0056214524
175	0x3d5236a8	0.051321656
176	0x3e44b9d4	0.19211513
177	0x3c52264f	0.012826516
178	0xbe401408	-0.18757641
179	0x3e24c1fb	0.16089623
180	0xbda8d62f	-0.08243977
181	0xbba70762	-0.0050973156
182	0x3ddb6803	0.10713198
183	0xbbe17f19	-0.0068816063
184	0x3e1cd84c	0.15316886
185	0xbd0322c6	-0.032015584
186	0x3cfca6e3	0.030841297
187	0x3df69a53	0.12041154
188	0x3e439289	0.19098867
189	0xbdfa8a16	-0.12233369
190	0xbe1b46b6	-0.15163693
191	0x3de0b35e	0.109717116
192	0xbe037505	-0.12837608
193	0x3d87c325	0.06629018
194	0x3e4aa1ce	0.19788286
195	0xbdb3dff1	-0.08782948
196	0x3e1c6ca8	0.15275824
197	0x3d204a00	0.039133072
198	0x3d492b6c	0.049113676
199	0xbd9fdc10	-0.078056455
200	0x3cb5b67a	0.022181738
201	0xbdc363b6	-0.09540503
202	0x3d18ae5b	0.037275653
203	0x3cae7a82	0.02129865
204	0x3d81f540	0.06345606
205	0x3c8ea8f4	0.017414548
206	0x3e4c7a09	0.19968428
207	0x3db919b0	0.090381026
208	0x3d4f07d0	0.05054456
209	0x3d9c531f	0.076330416
210	0xbd24ff94	-0.0402828
211	0xbe0af57c	-0.13570207
212	0x3dae27a6	0.08503656
213	0xbd4e08ef	-0.05030149
214	0x3d93d50b	0.07218369
215	0xbe5e074a	-0.21682468
216	0xbdef6751	-0.11689628
217	0x3da6bc4f	0.08141386
218	0xbda6a4e2	-0.08136918
219	0xbdf054f0	-0.117349505
220	0xbe131b7f	-0.14365958
221	0xbe1e7209	-0.15473188
222	0x3c61567a	0.013753528
223	0xbdd868c4	-0.105668575
224	0x3d9ae303	0.0756283
225	0x3d4aade4	0.04948224
226	0x3d8d42bf	0.068974964
227	0x3d906a0b	0.07051476
228	0xbcf34a1b	-0.029698422
229	0xbe0f94a3	-0.14021544
230	0x3dc5b6c5	0.09654001
231	0x3dc2378d	0.09483252
232	0x3daaff23	0.08349445
233	0x3b16e525	0.0023024764
234	0x3d796610	0.06088835
235	0x3da7ffb7	0.082030706
236	0xbd4ad0d5	-0.049515564
237	0xbd0f7a3c	-0.03502868
238	0x3e38d0ce	0.18048403
239	0xbdfe3249	-0.12411935
240	0xbe077d50	-0.13231397
241	0x3deb5f03	0.114927314
242	0xbd3fffa7	-0.04687467
243	0xbe23443c	-0.15943998
244	0xbe4e9237	-0.20172964
245	0xbdb3a61c	-0.08771917
246	0x3de56a44	0.11201909
247	0x3d65df57	0.056121197
248	0x3e34cbbd	0.17655845
249	0xbe3f3780	-0.18673515
250	0xbda40552	-0.08008827
251	0x3e5b52b3	0.21418266
252	0x3dd528d4	0.10408178
253	0xbd756d3d	-0.05991863
254	0x3d5d4500	0.05402088
255	0xbe1feefe	-0.15618512

recurrent_blocks.0.weight_hh_l0 f4 [128, 32]
0	0x3d0ca61c	0.0343381
1	0xbe23d5d8	-0.15999544
2	0xbc3999d6	-0.011328181
3	0x3c18bd8b	0.009322534
4	0xbd115291	-0.035479132
5	0x3d9f5399	0.07779617
6	0xbdd2aa1b	-0.10286351
7	0xbd8aff35	-0.06786958
8	0xbd728f65	-0.059218783
9	0xbd059e46	-0.032621644
10	0xbe1f51fe	-0.15558621
11	0x3e4b9e83	0.19884686
12	0x3d7961a3	0.06088413
13	0x3e1d63ae	0.15370056
14	0xbdf90cac	-0.1216062
15	0x3dddfbe9	0.10839064
16	0xbd13b93d	-0.03606533
17	0xbd51fe1c	-0.05126773
18	0xbe207ba1	-0.1567216
19	0x3e27311b	0.16327326
20	0xbe474647	-0.19460402
21	0x3dfadb2e	0.122488365
22	0x3c98ea04	0.018666275
23	0x3e00b16d	0.12567683
24	0xbd71fd35	-0.059079368
25	0xbe2dc118	-0.1696819
26	0xbde1a368	-0.110174954
27	0x3d1bbc3d	0.038021315
28	0xbc8901d4	-0.016724505
29	0xbbfdaff7	-0.007741924
30	0x3da9707e	0.08273409
31	0x3bceebf6	0.00631475
32	0xbe3f5ab1	-0.1868694
33	0x3c8bc6fb	0.017062655
34	0xbd8fc601	-0.07020188
35	0x3d7ffeea	0.062498964
36	0x3e0de86c	0.13858193
37	0x3e061407	0.13093577
38	0x3e276a42	0.16349128
39	0x3d3fa730	0.0467903
40	0xbccc1e41	-0.02491677
41	0xbd2f46ad	-0.04279201
42	0xbd69d92a	-0.05709187
43	0x3e06a23c	0.13147825
44	0xbe32013f	-0.17383288
45	0xbe3ac920	-0.18240786
46	0xbd3a96e5	-0.04555406
47	0xbda82715	-0.08210579
48	0x3dae67d6	0.08515899
49	0xbe5dfcf1	-0.2167852
50	0xbdae68d1	-0.08516086
51	0xbd757271	-0.059923593
52	0xbe0c4269	-0.13697208
53	0xbd710c6f	-0.05884975
54	0xbe063c51	-0.13108946
55	0x3cc44b9f	0.02396184
56	0x3dfb9edc	0.122861594
57	0xbd126e56	-0.035749756
58	0xbe05a08d	-0.13049527
59	0x3dc7ff58	0.097655
60	0xbe231dee	-0.15929386
61	0x3cc39f31	0.02387962
62	0xbe36938f	-0.17829727
63	0xbe46eb3e	-0.19425675
64	0x3d3f9bc0	0.046779394
65	0x3e338585	0.17531402
66	0xbe0febef	-0.14054845
67	0x3e0c992d	0.13730307
68	0x3e4c62e8	0.19959605
69	0xb948a1f9	-0.00019133826
70	0x3e105eb0	0.1409862
71	0xbddde77e	-0.10835169
72	0xbc8607d5	-0.016361156
73	0x3dcc87ef	0.09986865
74	0x3d96d819	0.07365436
75	0x3e215a9a	0.15757218
76	0xba5295ae	-0.0008033168
77	0xbe1fb835	-0.15597613
78	0x3d0c7148	0.03428772
79	0x3df1fe3c	0.118160695
80	0xbe421f16	-0.18957171
81	0x3e0c01b5	0.13672526
82	0x3e572613	0.21010618
83	0x3d49f0f4	0.049302056
84	0x3d17d804	0.037071243
85	0x3e033be4	0.12815815
86	0xbd247b4e	-0.040156655
87	0xbc961ee0	-0.01832527
88	0xbde956b8	-0.113934934
89	0xbd1fd3af	-0.039020237
90	0x3c8711b4	0.016487934
91	0x3e22a4c6	0.15883169
92	0x3d5f5088	0.05452016
93	0x3cce533f	0.02518618
94	0xbe13bf1f	-0.14428376
95	0x3d2e39b8	0.042535514
96	0xbde996a1	-0.11405683
97	0xbbabfdf1	-0.005248778
98	0x3e1fcb66	0.15604934
99	0x3dd4a098	0.10382193
100	0x3e2942ea	0.16529432
101	0x3d705230	0.05867213
102	0xbdc65ac1	-0.09685279
103	0xba53823a	-0.00080684165
104	0xbca9f469	-0.020746427
105	0x3deaa5a5	0.114573754
106	0x3c3ec958	0.011644684
107	0xbd6efc19	-0.058345888
108	0x3d9e1eb4	0.077207
109	0x3d188efd	0.03724574
110	0x3c84d402	0.016214374
111	0x3da6ab64	0.08138159
112	0x3e06e7b9	0.13174333
113	0x3dfe7bc0	0.12425947
114	0x3e19dfaf	0.15026735
115	0x3df20b09	0.11818511
116	0x3d9d24ea	0.076730564
117	0xbdaead46	-0.08529143
118	0x3d908a27	0.070576005
119	0x3e3aea41	0.18253423
120	0xbd1d8e9a	-0.038466074
121	0x3ce82a68	0.028340533
122	0xbc97f90c	-0.018551372
123	0xbda09061	-0.07840038
124	0x3e177a5b	0.14792769
125	0xbd35468e	-0.04425674
126	0xbe3477ba	-0.17623797
127	0xbc3aff52	-0.011413412
128	0x3d9aa5a9	0.075511284
129	0x3b75ec7d	0.0037524991
130	0xbdc8e8b7	-0.09810012
131	0xbe211123	-0.15729193
132	0xbd2b0f2c	-0.041762516
133	0x3e1297df	0.14315747
134	0x3e0d8775	0.13821204
135	0xbcdbafd3	-0.026817238
136	0xbe3083be	-0.17237756
137	0xbe02a1aa	-0.12756982
138	0xbe44965a	-0.1919798
139	0x3e419e91	0.18908145
140	0xbbcdf3d3	-0.0062851696
141	0xbda12b3c	-0.078695744
142	0x3e2217b3	0.15829353
143	0x3d65838c	0.056033656
144	0x3c057783	0.00814617
145	0xbd6a4c68	-0.057201773
146	0xbb543d8e	-0.0032385322
147	0xbc8baf02	-0.017051224
148	0x3e03cbce	0.12870714
149	0xbd828713	-0.063734196
150	0xbdfb834c	-0.12280902
151	0xbdd0f412	-0.10202803
152	0xbd3b6140	-0.04574704
153	0x3d543fa3	0.0518185
154	0xbd6f6b7c	-0.058452114
155	0xbc5b8069	-0.013397315
156	0x3cb75516	0.02237944
157	0x3e2b496b	0.16727225
158	0x3dd1e5a0	0.102488756
159	0xbe545a8e	-0.20737669
160	0x3dc1fff1	0.09472645
161	0x3d8bdd9c	0.06829378
162	0x3e322981	0.17398645
163	0x3e3320f7	0.17493044
164	0xbd000ae6	-0.031260394
165	0xbe25c59c	-0.16188663
166	0xbd0c3f68	-0.034240156
167	0xbe0be3d3	-0.13661127
168	0xbe099214	-0.1343463
169	0xbc0a6ee0	-0.008449286
170	0x3d8dec98	0.06929892
171	0xbd9ddeb1	-0.07708491
172	0x3e1f882f	0.15579294
173	0xbe3cc15f	-0.1843314
174	0x3dd31ab1	0.10307825
175	0xbe4958ec	-0.19662827
176	0xbdd28a55	-0.10280291
177	0x3d04930a	0.03236679
178	0xbd877e9c	-0.06615946
179	0xbdb5e177	-0.08880895
180	0x3e21ce85	0.15801437
181	0x3e186ef3	0.14886074
182	0xbe308045	-0.17236431
183	0x3d6ae4cb	0.0573471
184	0xbe3a45ec	-0.18190736
185	0xbd255f7a	-0.040374257
186	0xbe005ba8	-0.12534964
187	0xbd67d0f9	-0.056595776
188	0xbdad5c77	-0.08464902
189	0x3dd4a8c4	0.10383752
190	0x3acef70b	0.0015790177
191	0x3ba4ae75	0.0050256797
192	0x3dc07d9f	0.0939896
193	0x3dec18ca	0.11528166
194	0x3ceeaa29	0.029133873
195	0x3d807602	0.06272508
196	0x3daf3fee	0.085571155
197	0xbda413ad	-0.08011565
198	0xbd4b118d	-0.049577285
199	0x3e05b8e1	0.13058807
200	0xbe0463c5	-0.12928684
201	0x3d66e302	0.056368835
202	0xbe0b2eff	-0.13592146
203	0x3ce56734	0.028003313
204	0xbde5da8c	-0.11223325
205	0x3d05ff63	0.03271426
206	0xbcafe111	-0.021469625
207	0x3be72dd2	0.0070550228
208	0xbdf2a1be	-0.11847256
209	0xbc3b9986	-0.011450177
210	0xbd55a8f8	-0.052163094
211	0xbdc01f8f	-0.09381019
212	0xbcac7148	-0.02105011
213	0xbccfbd1d	-0.02535873
214	0xbe5d32ba	-0.21601382
215	0xbd175dfd	-0.03695487
216	0xbe52e8a0	-0.20596552
217	0xbdff0cb3	-0.12453594
218	0xbd8430b8	-0.06454605
219	0x3da241c6	0.079227015
220	0x3cc2dd03	0.023787027
221	0x3d9c9895	0.0764629
222	0x3deb4fbb	0.11489817
223	0xbde4e92f	-0.11177289
224	0x3d9ee4dd	0.07758496
225	0x3d346304	0.04403974
226	0xbcc13019	-0.023582505
227	0x3e2195f8	0.15779865
228	0x3dfd3e33	0.12365379
229	0xbde3b0b9	-0.111176915
230	0xbcfc7aaf	-0.030820219
231	0xbce0ac9f	-0.027426062
232	0xbd3c3fcc	-0.04595928
233	0xbbbed94a	-0.0058242427
234	0xbde1df21	-0.110288866
235	0x3dd4be34	0.10387841
236	0xbe238c96	-0.15971598
237	0xbe0cae3f	-0.13738345
238	0xbd261e48	-0.040556222
239	0x3d78c516	0.06073483
240	0x3d82a51d	0.06379149
241	0xbe07e8e1	-0.1327243
242	0x3daf49ec	0.08559021
243	0x3e2ec757	0.1706823
244	0x3da84477	0.08216184
245	0xbd40ee88	-0.04710248
246	0x3d8e0a0b	0.06935509
247	0x3dab5864	0.083664685
248	0xbe571f1d	-0.21007963
249	0xbe038990	-0.12845445
250	0x3dd575d6	0.10422866
251	0xbe1f0197	-0.1552795
252	0xbccf7718	-0.025325343
253	0x3bf4c728	0.0074700303
254	0xbcf0c716	-0.029391807
255	0x3da099a1	0.078418024

recurrent_blocks.0.bias_ih_l0 f4 [128]
0	0xbdcbb84d	-0.09947262
1	0x3dfa6666	0.12226562
2	0xbe211d8c	-0.15733927
3	0xbd788e68	-0.060682684
4	0xbe02296a	-0.1271111
5	0x3d9d2406	0.076728866
6	0x3e46bd0c	0.19408053
7	0xbdbfe99c	-0.09370729
8	0xbd9ffa31	-0.07811392
9	0xbd13e72a	-0.036109127
10	0xbd0e0288	-0.034670383
11	0x3d00d99c	0.03145753
12	0x3e3d396d	0.18478937
13	0x3d839004	0.06423953
14	0xbd295a15	-0.041345675
15	0x3e5ab2b8	0.21357238
16	0x3da7f1c7	0.08200412
17	0x3d4f1594	0.050557688
18	0x3dece3d1	0.1156689
19	0xbdb7b8af	-0.089707725
20	0xbd9199f3	-0.071094416
21	0xbc10efe2	-0.008846255
22	0x3e58564b	0.21126668
23	0xbdde3a20	-0.1085093
24	0x3e4b2a50	0.1984036
25	0x3dcdb5fc	0.100444764
26	0x3c6675d9	0.014066183
27	0x3e1e2986	0.15445527
28	0x3e193eb9	0.14965333
29	0xbd0c2983	-0.034219276
30	0x3d518f16	0.051161848
31	0x3d4c660a	0.049902
32	0x3de060d6	0.1095597
33	0xbd14e38b	-0.036349814
34	0xbe1c6af2	-0.15275171
35	0xbe2f2145	-0.17102535
36	0x3d26503c	0.04060386
37	0x3df4da32	0.1195568
38	0xbdcbd135	-0.099520124
39	0xbd451b16	-0.048121534
40	0xbdc4c676	-0.09608166
41	0x39dd50c3	0.00042212577
42	0x3e069197	0.13141476
43	0x3e45df36	0.1932343
44	0x3db70eb8	0.08938354
45	0xbde011e9	-0.10940916
46	0xbdc17568	-0.094462216
47	0x3e3f0f77	0.18658243
48	0xbdacec13	-0.08443465
49	0x3e0d879e	0.13821265
50	0x3e3e9317	0.18610798
51	0x3d9eedaf	0.07760178
52	0xbdf0f79b	-0.11765977
53	0x3d7d6410	0.061863005
54	0x3e37b658	0.17940652
55	0x3e0884e1	0.1333194
56	0x3dc43379	0.0958013
57	0x3e2931eb	0.16522948
58	0xbc7d8945	-0.015474622
59	0x3d8e7003	0.06954958
60	0x3dc524d0	0.09626162
61	0x3d69f6be	0.057120077
62	0x3e3cddb7	0.18443953
63	0xbe039909	-0.12851347
64	0xbdb10925	-0.08644322
65	0xbdb4ff76	-0.08837788
66	0xbdb1ecc6	-0.08687739
67	0x3d8c0df0	0.06838596
68	0xbd813c26	-0.063103005
69	0xbce31ef7	-0.027724726
70	0xbdd475e9	-0.10374052
71	0xbd2a15b3	-0.0415246
72	0xbda3995a	-0.07988234
73	0x3c80955e	0.015696224
74	0xbcdf75e3	-0.027277892
75	0x3d8f993e	0.070116505
76	0xbca73509	-0.020411031
77	0xbe3e0b01	-0.18558885
78	0x3c68e7d1	0.014215426
79	0xbdd80d1b	-0.10549375
80	0xbdc096c0	-0.09403753
81	0xbe01c67b	-0.1267337
82	0xbc750bec	-0.014956456
83	0xbdad5eb0	-0.08465326
84	0x3d00c19f	0.03143465
85	0xbe14a8cb	-0.14517514
86	0xbe3377cb	-0.17526166
87	0xbc93d7b8	-0.018047199
88	0xbe585a08	-0.21128094
89	0x3c85bd42	0.016325597
90	0xbd875142	-0.066072956
91	0xbdc80412	-0.09766401
92	0x3c799d45	0.01523525
93	0x3dfffc8e	0.12499343
94	0xbddf72e5	-0.10910586
95	0xbcf3ca5c	-0.029759578
96	0x3dde4ada	0.108541206
97	0xbce4f607	-0.027949346
98	0xbe2ec309	-0.17066588
99	0xbe11973b	-0.14217846
100	0x3d541bad	0.051784206
101	0x3e38afa1	0.18035747
102	0x3c47afc5	0.012187903
103	0x3bc39da1	0.0059697186
104	0x3e110e0d	0.14165516
105	0x3d9183f1	0.07105244
106	0xbd50cc94	-0.05097635
107	0x3e1f60ca	0.15564266
108	0xbd3a821d	-0.045534242
109	0x3c34571d	0.011007098
110	0x3c4df602	0.01257086
111	0xbde04601	-0.10950852
112	0x3e2c74a3	0.16841368
113	0xbd3426c0	-0.043982267
114	0xbdf683ae	-0.12036835
115	0xbde9dafb	-0.1141872
116	0xbd68c960	-0.05683267
117	0x3cc2cbfb	0.023778906
118	0x3e540933	0.20706634
119	0xbe1df719	-0.15426292
120	0xbdff41c3	-0.12463715
121	0x3e227f26	0.15868816
122	0x3cedeb61	0.029042901
123	0x3e3eb8a2	0.1862512
124	0xbb08dbde	-0.0020883004
125	0x3dd62a28	0.104572594
126	0x3e3dde81	0.1854191
127	0xbddaf5c8	-0.1069141

recurrent_blocks.0.bias_hh_l0 f4 [128]
0	0xbb313056	-0.0027036867
1	0xbdc4da56	-0.09611957
2	0xbd972ecb	-0.07381972
3	0x3e19b0e6	0.15008888
4	0xbe2e4ba9	-0.1702105
5	0xbdab8b16	-0.08376138
6	0x3e1033bc	0.14082235
7	0xbd2608e8	-0.040535837
8	0x3e5576b4	0.20846063
9	0x3e15e864	0.14639431
10	0x3e52fd88	0.20604527
11	0x3bd895de	0.0066096624
12	0x3ced8a6c	0.028996669
13	0x3ca3bf02	0.01998854
14	0xbe2afe38	-0.1669854
15	0x3db86253	0.09003129
16	0xbc8963f6	-0.016771298
17	0x3dba4dab	0.09096845
18	0xbc1a5116	-0.009418746
19	0xbd9ad99e	-0.075610384
20	0xbdbecfe1	-0.093169935
21	0xbdb69aa1	-0.08916212
22	0x3d61a0c4	0.05508496
23	0xbd589bee	-0.05288308
24	0x3d82f048	0.06393486
25	0xbe086bd7	-0.13322388
26	0x3e5a17d5	0.21298154
27	0x3e3b2a36	0.18277821
28	0x3e267b43	0.16257958
29	0x3b148a22	0.0022665341
30	0x3cbd65e4	0.023119874
31	0x3e4b2589	0.19838537
32	0x3ddccd2c	0.10781321
33	0x3d4ac193	0.049501013
34	0x3e252a0e	0.16129324
35	0xbdbceb31	-0.09224547
36	0xbe2d273c	-0.16909498
37	0x3cd46b1e	0.025929984
38	0xbd39cdf8	-0.045362443
39	0x3d8e7880	0.06956577
40	0x3cc85f24	0.02445943
41	0x3c839be4	0.016065545
42	0x3c9a5a62	0.018841926
43	0x3e4426e8	0.19155467
44	0xbd730ecf	-0.059340294
45	0x3e14f93b	0.14548199
46	0xbdaf9449	-0.08573205
47	0x3e1ff98b	0.15622537
48	0x3e1f47b7	0.15554701
49	0x3ddf8697	0.10914343
50	0x3d2687b4	0.04065676
51	0xbe1822d8	-0.14857042
52	0xbdc68390	-0.09693062
53	0xbdb77870	-0.089585185
54	0x3e1b2b72	0.15153292
55	0xbe2b1820	-0.16708422
56	0xbd63e177	-0.055634942
57	0x3cadaff0	0.021202058
58	0x3e44ce02	0.1921921
59	0xbe063b9f	-0.13108681
60	0x3d9b70cd	0.075898744
61	0x3c47a75c	0.012185898
62	0xbd65aa6c	-0.05607073
63	0xbe0d468b	-0.13796441
64	0xbbf3aebe	-0.0074366024
65	0xbe2f207d	-0.17102237
66	0x3e0453e4	0.12922627
67	0x3e124b4e	0.14286539
68	0x3d3500a8	0.04419008
69	0xbdee8e4c	-0.11648235
70	0x3e4e0746	0.20119962
71	0xbdc8ee16	-0.09811036
72	0xbe534678	-0.2063235
73	0xbc3c4ba2	-0.011492642
74	0xbe5bee55	-0.21477635
75	0x3df81267	0.12112885
76	0xbe3ca08c	-0.18420619
77	0x3d8f5d03	0.070001625
78	0x3df8b017	0.121429615
79	0x3d643b4e	0.05572062
80	0xbd2272cb	-0.039660256
81	0xbd1eef0b	-0.038802188
82	0x3dea5cbc	0.11443469
83	0xbd5b13e3	-0.053485762
84	0xbe0de9df	-0.13858746
85	0xbe1c8294	-0.15284187
86	0xbe2f2323	-0.17103247
87	0x3dc1bfc2	0.09460403
88	0xbdc3f17d	-0.095675446
89	0xbdfe37fe	-0.124130234
90	0xbe1eae88	-0.15496266
91	0x3da949aa	0.082660034
92	0xbdfd1d9c	-0.12359163
93	0x3d4b0194	0.049562052
94	0xbe3e1ca9	-0.1856562
95	0xbe190592	-0.14943531
96	0x3e5c0390	0.21485734
97	0x3e1d5a85	0.15366562
98	0x3da29ab8	0.079396665
99	0xbd8cfcbd	-0.068841435
100	0x3bae9466	0.005327749
101	0xbe1d7c35	-0.15379412
102	0xbe096283	-0.13416485
103	0x3d546157	0.051850643
104	0x3bb7c76c	0.0056084897
105	0x3c194027	0.009353674
106	0x3e48cfda	0.19610539
107	0xbd30fdbc	-0.04321073
108	0xbe0deb32	-0.13859251
109	0xbe0103e9	-0.12599148
110	0x3d0c01a1	0.03418124
111	0x3d125143	0.03572203
112	0x3cfb7277	0.03069423
113	0x3b56558e	0.0032704803
114	0xbdcbe055	-0.09954897
115	0x3d8c069f	0.068372004
116	0x3e0e53e7	0.13899194
117	0xbdbd6309	-0.09247405
118	0xbdc52d5a	-0.09627791
119	0x3d7e032c	0.062014744
120	0xba9ef659	-0.0012127861
121	0xbcb18a99	-0.021672534
122	0x3ce208f9	0.02759217
123	0x3b32f5fc	0.0027307263
124	0xbc897de4	-0.016783662
125	0xbd9a499d	-0.07533572
126	0x3e4182ed	0.188976
127	0x3d0900f7	0.033448186

recurrent_blocks.1.weight_ih_l0 f4 [128, 32]
0	0xbd66ca6b	-0.056345385
1	0xbe1efe13	-0.15526609
2	0xbe29a1b5	-0.16565593
3	0x3e483da8	0.1955477
4	0xbcc1a96d	-0.023640359
5	0xbd64522b	-0.055742424
6	0xbe0e8882	-0.13919261
7	0xbcbce248	-0.023057118
8	0x3dc760be	0.09735249
9	0x3dcc5c13	0.09978499
10	0xbd83bd0e	-0.06432544
11	0x3d698acd	0.057017136
12	0x3dcec978	0.10097021
13	0xbde7e992	-0.11323847
14	0xbd58db68	-0.052943617
15	0xbd76c7d2	-0.060249157
16	0x3d4c9fd0	0.049957097
17	0x3e074fb7	0.13214003
18	0xbdd73107	-0.10507398
19	0x3b968ee2	0.0045946697
20	0xbde65483	-0.11246588
21	0x3d2f9848	0.042869836
22	0xbe483d2f	-0.1955459
23	0xbe2cd368	-0.1687752
24	0xbe3754d8	-0.17903459
25	0x3e152c88	0.14567769
26	0x3e0c6cb2	0.13713339
27	0xbe38394e	-0.1799061
28	0xbe2c5bfb	-0.16831963
29	0x3e01cc0e	0.12675497
30	0x3d1705c8	0.036870748
31	0x3dac32c9	0.08408124
32	0xbda292fc	-0.07938191
33	0x3de76348	0.11298233
34	0x3db21db5	0.086970724
35	0xbda70881	-0.08155919
36	0xbda57efa	-0.080808595
37	0xbe5c9698	-0.21541822
38	0x3e460683	0.19338422
39	0xbe4fcc0f	-0.20292686
40	0xbcccb0b4	-0.024986602
41	0xbd9a716e	-0.07541166
42	0xbdd7216a	-0.1050442
43	0x3cf73da6	0.030180763
44	0xbe131361	-0.14362861
45	0x3da54ba0	0.08071065
46	0x3e4593c0	0.19294643
47	0x3dfe73ac	0.124244064
48	0x3c9eeaad	0.019399012
49	0xbe2880e3	-0.16455416
50	0x3e3c10a3	0.18365721
51	0xbdffeb52	-0.12496056
52	0xbda7ace6	-0.08187275
53	0x3d81f3b7	0.06345313
54	0xbb27ba3b	-0.002559318
55	0x3de77675	0.11301891
56	0xbe31da2d	-0.17368384
57	0x39ed3cf2	0.0004524957
58	0xbd7d2ec2	-0.06181217
59	0xbc48a7f0	-0.012247071
60	0x3e0361fe	0.1283035
61	0x3d90bd5d	0.07067368
62	0xbd7b559f	-0.06136095
63	0xbe3c5dcd	-0.18395157
64	0x3d6c97bb	0.05776189
65	0xbe21598e	-0.15756819
66	0x3d9cf8ff	0.0766468
67	0x3e47662b	0.19472568
68	0x3d4ccddf	0.05000102
69	0xbdb0658d	-0.08613119
70	0x3e1ce7fe	0.15322873
71	0xbe2b967a	-0.16756621
72	0x3dddedbd	0.108363606
73	0xbba937c9	-0.005164121
74	0x3d70c42b	0.05878083
75	0x3df1ae74	0.118008524
76	0x3de9bcb9	0.11412949
77	0x3cbeab6c	0.0232751
78	0x3e1be47f	0.15223883
79	0xbbd62baf	-0.006535969
80	0xbc36865d	-0.011140433
81	0xbd398549	-0.045293126
82	0xbc26e7d2	-0.010187106
83	0x3d3ed6d5	0.0465916
84	0xbe504f60	-0.20342779
85	0x3dcdf033	0.1005558
86	0xbd81a295	-0.06329838
87	0x3dd191af	0.10232865
88	0xbe18c78b	-0.1491987
89	0xbe0920f6	-0.1339148
90	0xbe42777f	-0.18990897
91	0xbd428ba3	-0.04749645
92	0xbd0ce478	-0.034397572
93	0x3dbe911c	0.09305021
94	0x3d19a15b	0.037507396
95	0x3d0b8982	0.034066685
96	0xbd82996b	-0.063769184
97	0x3e160446	0.14650068
98	0x3db3cc34	0.08779183
99	0xbe32891e	-0.17435119
100	0x3e4c78da	0.19967976
101	0x3e349c53	0.17637758
102	0xbd96da0d	-0.07365809
103	0x3daedcec	0.08538231
104	0x3e3264b5	0.17421229
105	0x3c22f727	0.009946621
106	0x3d9d8ca7	0.07692843
107	0x3d491e7e	0.049101345
108	0x3dc3cbb0	0.09560335
109	0xbc3ae667	-0.011407471
110	0xbcaeb1d3	-0.021325028
111	0x3d04c789	0.032416854
112	0xbe24ceaa	-0.16094461
113	0x3d77d57f	0.06050634
114	0x3e2a2f15	0.16619523
115	0xbc86d8e0	-0.016460836
116	0x3dfbb160	0.12289691
117	0xbd971278	-0.073765695
118	0x3cca0b92	0.02466372
119	0xbd894f4d	-0.067045785
120	0xbdb45b3e	-0.088064656
121	0xbdd56784	-0.10420135
122	0x3dd62c84	0.104577094
123	0xbe2ab43b	-0.16670315
124	0x3cb5bca5	0.02218468
125	0xbbc07ae5	-0.005874025
126	0xbdaaa6c4	-0.08332589
127	0xbdeb4604	-0.11487964
128	0x3cd0e42d	0.025499428
129	0x3dd2908f	0.102814786
130	0xbd8b6e76	-0.06808178
131	0x3e33b3f0	0.1754911
132	0xbd52c7c3	-0.05146004
133	0xbddbd668	-0.10734254
134	0x3c41f762	0.011838766
135	0xbe1a77fe	-0.15084836
136	0x3cbeac77	0.023275597
137	0xbe05bc44	-0.13060099
138	0x3d3f67b9	0.046729777
139	0x3ddc761e	0.107647166
140	0xbd3dc2c6	-0.04632833
141	0xbe411c99	-0.18858565
142	0x3dff14ed	0.12455163
143	0x3e198c2e	0.1499488
144	0x3b14d088	0.0022707302
145	0xbd9a2306	-0.075262114
146	0x3d1e6f80	0.038680553
147	0x3dbbcd86	0.0917006
148	0xbd97f0f0	-0.07419002
149	0xbe4677d9	-0.19381656
150	0xbd9cef3e	-0.07662819
151	0xbc57a418	-0.013161682
152	0xbdb26663	-0.08710935
153	0x3d2c740d	0.042102862
154	0x3e0ab880	0.13546944
155	0xbde693dd	-0.112586714
156	0x3dc651a4	0.096835405
157	0x3c8a1eb6	0.016860347
158	0xbe06a1d8	-0.13147676
159	0xbab7e7b1	-0.0014030841
160	0x3deb4cf9	0.11489291
161	0xbccd406d	-0.025055135
162	0xbdddd7d6	-0.10832183
163	0x3d31b6d0	0.043387234
164	0xbdf5b9ee	-0.11998354
165	0x3decf324	0.11569813
166	0xbde4ce80	-0.11172199
167	0xbe0b70ac	-0.136172
168	0x3d97e916	0.074175045
169	0xbdee1a18	-0.11626071
170	0xbd882116	-0.06646936
171	0x3e1fa784	0.15591246
172	0x3e173f52	0.14770249
173	0xbe04fa3a	-0.12986079
174	0x3da7f5dd	0.082011916
175	0xbdbcf5ac	-0.09226546
176	0x3dd4d43b	0.10392042
177	0x3df29ac6	0.11845927
178	0x3c37ceed	0.011218769
179	0xbe2d8059	-0.16943492
180	0x3dcea07c	0.10089204
181	0xbd530978	-0.051522702
182	0x3d22cda8	0.03974691
183	0xbcbc173e	-0.022960301
184	0xbdfc24e0	-0.12311721
185	0xbc78369e	-0.0151497405
186	0x3dce5b37	0.100759916
187	0xbdc06fd4	-0.093963295
188	0x3dc88335	0.09790651
189	0xbe0b2944	-0.1358996
190	0xbd69ece2	-0.057110675
191	0x3e0b6f7a	0.13616744
192	0xbafc9796	-0.001927125
193	0x3e169892	0.14706638
194	0xbdc0c81d	-0.094131686
195	0x3e0bc9a7	0.13651143
196	0x3c032b68	0.008005954
197	0x3ca2bad4	0.019864477
198	0x3d7bf9f8	0.061517686
199	0xbe2ee928	-0.1708113
200	0x3d9b7238	0.07590145
201	0xbc1a0765	-0.009401177
202	0xbdea0af3	-0.1142787
203	0xbdac585f	-0.08415293
204	0xbe0106f6	-0.12600312
205	0xbdd2f1cd	-0.10300026
206	0x3e3c9901	0.18417741
207	0x3e046283	0.12928204
208	0x3dea7689	0.1144839
209	0xbe0461aa	-0.12927881
210	0x3d895906	0.06706433
211	0xbe0354b7	-0.12825285
212	0x3dd7c764	0.105360776
213	0xbdc1e009	-0.094665594
214	0xbdf63b3d	-0.120230176
215	0x3d588736	0.052863322
216	0x3e13995f	0.14413975
217	0xbbdbc24c	-0.0067065116
218	0xbe302b66	-0.17204055
219	0x3ddf1466	0.108925626
220	0xbe256166	-0.16150436
221	0x3dbbb704	0.09165767
222	0xbe272f4f	-0.1632664
223	0x3b4fa1a1	0.0031682032
224	0xbdd0ebf8	-0.102012575
225	0x3dd32b3e	0.10310982
226	0x3de92329	0.113836594
227	0x3dfdddf2	0.12395848
228	0xbda38b19	-0.07985515
229	0x3e008fc5	0.12554844
230	0xbe131fd2	-0.14367607
231	0xbe14583b	-0.14486782
232	0x3d139ec3	0.03604008
233	0xbddf330f	-0.108984105
234	0xbd45ab81	-0.048259262
235	0x3e3f914e	0.18707773
236	0xbad4cef6	-0.0016235996
237	0xbd001b4f	-0.031276044
238	0xbd22542b	-0.03963105
239	0x3da9dc07	0.0829392
240	0x3da61eec	0.08111367
241	0x3d724f2c	0.059157535
242	0xbe238300	-0.15967941
243	0xbd106b7f	-0.035258766
244	0xbddaf397	-0.10690992
245	0xbdd160e7	-0.10223561
246	0x3d3cf10c	0.046128318
247	0x3dd00e3f	0.10158967
248	0xbe27cd31	-0.16386868
249	0xbdf79798	-0.12089461
250	0xbe2ecc6b	-0.17070167
251	0xbe37041c	-0.17872661
252	0xbdff9731	-0.12480009
253	0xbd8a43d3	-0.06751218
254	0xbd91c543	-0.07117703
255	0xbd60114f	-0.054704007

recurrent_blocks.1.weight_hh_l0 f4 [128, 32]
0	0xbcca456f	-0.024691312
1	0xbde909c1	-0.113788135
2	0x3dc0be95	0.09411351
3	0x3d076d50	0.033063233
4	0xbe1e4b30	-0.1545837
5	0x3e2b4a9e	0.16727683
6	0x3d2a14c5	0.041523714
7	0xbd67600f	-0.056488093
8	0xbe240f2b	-0.16021411
9	0x3ce26417	0.027635617
10	0xbe0af0e7	-0.1356846
11	0xbd95bea0	-0.073117495
12	0x3db52b10	0.08846104
13	0x3e264f77	0.16241251
14	0x3c24744e	0.010037495
15	0x3c98a7bd	0.018634671
16	0xbadb6104	-0.0016737287
17	0xbb8e6948	-0.0043460466
18	0xbdab34cd	-0.0835968
19	0x3dbf357c	0.09336373
20	0xbda28004	-0.07934573
21	0x3d80e10d	0.06292925
22	0xbe5076a8	-0.20357764
23	0xbd69dea4	-0.057097092
24	0x3dfcf36b	0.12351116
25	0x3ddbd8cd	0.10734711
26	0xbda5c97a	-0.08095069
27	0x3e22fc16	0.15916476
28	0xbd20a7e6	-0.03922262
29	0xbd985d59	-0.0743968
30	0x3d1c77a9	0.038200054
31	0xbdbc341d	-0.09189627
32	0x3d68c5c5	0.056829233
33	0xbe3e5cd5	-0.185901
34	0x3c13e7f5	0.009027471
35	0xbe0449f1	-0.12918831
36	0xbdd4035c	-0.10352203
37	0x3c2f5de5	0.010703539
38	0xbd2a3ca8	-0.041561753
39	0xbe21e8c8	-0.15811455
40	0xbe224d7b	-0.15849869
41	0xbe195477	-0.14973627
42	0xbaa43417	-0.0012527731
43	0x3d84e506	0.06488995
44	0xbcdf03ee	-0.027223554
45	0xbde42887	-0.111405425
46	0x3dda0f2c	0.10647425
47	0x3db2fcb3	0.08739605
48	0x3c64c527	0.01396302
49	0x3c575cd3	0.01314469
50	0x3e006cc4	0.12541491
51	0x3b848f56	0.0040454073
52	0x3d76d1de	0.06025874
53	0xbe161b90	-0.14658952
54	0xbe4bd302	-0.19904712
55	0x3bbbddbc	0.00573322
56	0xbdbc4125	-0.09192113
57	0x3d4f5472	0.050617643
58	0xbe3ebbb9	-0.18626298
59	0xbc8de3ec	-0.017320596
60	0xbe4f333e	-0.20234391
61	0xbd125990	-0.035729945
62	0xbd06c68a	-0.032904185
63	0xbdd087c6	-0.10182147
64	0xbcecc2e9	-0.028901534
65	0x3d52d327	0.0514709
66	0x3d2f8455	0.04285081
67	0x3e0ab848	0.1354686
68	0xbe0d1001	-0.13775636
69	0x3e23ff86	0.16015443
70	0xbe1146bf	-0.14187144
71	0xbe09e1e1	-0.13465072
72	0xbdd9d4b8	-0.10636276
73	0xbdc8c119	-0.098024555
74	0xbe360e45	-0.17778881
75	0x3db8a8df	0.090165846
76	0x3e06448a	0.13112083
77	0x3d8dc1a8	0.069217026
78	0xbd576906	-0.052590393
79	0x3da533f8	0.08066553
80	0xbdf2dbc6	-0.11858325
81	0x3dd74fbd	0.10513256
82	0xbdba1272	-0.090855494
83	0xbe1ec2f7	-0.1550406
84	0x3e3f7e95	0.18700631
85	0xbddce2c9	-0.10785443
86	0x3c322aa9	0.010874429
87	0x3cfdf7b8	0.03100191
88	0xbb82db96	-0.003993462
89	0xbe063aad	-0.1310832
90	0xbdfc67f1	-0.12324513
91	0x3db708dd	0.089372374
92	0xbe078349	-0.13233675
93	0x3e3910b4	0.18072778
94	0x3dac50c5	0.08413843
95	0xbe0a3cfe	-0.13499829
96	0x3dca9b35	0.09892885
97	0x3d43008a	0.047607936
98	0xbd56831e	-0.052371137
99	0x3e17b099	0.1481346
100	0x3cfd10cb	0.030891797
101	0xbdc72984	-0.09724715
102	0x3e268813	0.16262846
103	0xbe285c20	-0.16441393
104	0x3c3d25e2	0.0115446765
105	0xbe034ae0	-0.12821531
106	0xbdd5fda7	-0.10448771
107	0x3da8f567	0.08249932
108	0xbdd36e88	-0.103238165
109	0x3dec2655	0.11530749
110	0x3d3bef04	0.04588224
111	0x3d9012f1	0.07034863
112	0x3df3f386	0.11911683
113	0x3b16ab6d	0.0022990361
114	0xbc86dab1	-0.016461702
115	0x3dabca70	0.08388221
116	0xbd9cdcc5	-0.07659296
117	0xbe35e3e5	-0.17762716
118	0xbdec5f7c	-0.1154165
119	0xbcc99d50	-0.024611145
120	0xbd5517eb	-0.052024763
121	0x3d1d2520	0.038365483
122	0x3c8888a5	0.01666672
123	0x3db5f0a3	0.088837884
124	0x3d0eb057	0.03483614
125	0xbcbbbaa7	-0.022916151
126	0x3e159a06	0.14609537
127	0x3dbb3326	0.09140615
128	0xba8c7139	-0.0010714895
129	0xbdca0a2f	-0.098652236
130	0xbda051cf	-0.07828104
131	0x3d52bdd5	0.05145057
132	0x3d81e625	0.06342725
133	0xbdc80594	-0.09766689
134	0xbdb4115c	-0.087923735
135	0x3dc8dac4	0.09807351
136	0x3b1fcabb	0.0024382311
137	0x3e13d7e6	0.14437827
138	0x3e1effd1	0.15527274
139	0xbd0898d5	-0.033348877
140	0x3e16f6bc	0.14742559
141	0x3e0a31bc	0.13495535
142	0xbe3fb432	-0.18721083
143	0x3e3844e0	0.17995024
144	0xbe41ecb0	-0.18937945
145	0x3d025e67	0.03182831
146	0xbdd9c81e	-0.106338724
147	0x3d1ad759	0.037803028
148	0x3e12aa22	0.14322713
149	0x3cd0c205	0.02548314
150	0x3d94c8b1	0.07264841
151	0xbda7c2e3	-0.081914686
152	0xbe42e528	-0.19032729
153	0x3d677488	0.056507617
154	0x3db2bc0c	0.08727273
155	0x3e21fb43	0.15818505
156	0xbe4a9cfc	-0.19786447
157	0x3e18da14	0.1492694
158	0x3dab7fa6	0.083739564
159	0xbdf6ebde	-0.12056707
160	0xbcc86290	-0.02446106
161	0x3e0f4546	0.1399127
162	0x3c306290	0.010765687
163	0x3d9945f7	0.07484048
164	0xbe0fa5f8	-0.14028156
165	0x3e0cee31	0.13762738
166	0x3e04af17	0.12957416
167	0x3ddccbd2	0.10781063
168	0xbcec667e	-0.028857466
169	0x3cbb4dd5	0.022864262
170	0xbdbdaac3	-0.09261086
171	0x3da14a11	0.07875455
172	0x3c380e92	0.011233943
173	0x3d71ab88	0.059001476
174	0xbe297a8e	-0.16550657
175	0x3dab887d	0.083756424
176	0x3da84ff0	0.08218372
177	0xbc0f3870	-0.008741483
178	0x3bd51103	0.006502272
179	0x3db8914f	0.090120904
180	0xbddf706a	-0.10910113
181	0xbcf70331	-0.030152889
182	0x3c0a188d	0.008428705
183	0xbd14b383	-0.03630401
184	0x3d926bd1	0.071494706
185	0xbca26d45	-0.019827494
186	0x3dca669a	0.09882851
187	0x3d06e7b1	0.032935802
188	0x3b9fb637	0.0048740166
189	0xbe13c7fc	-0.14431757
190	0x3c1010d7	0.008793077
191	0x3c13b527	0.009015358
192	0xbdeab00d	-0.1145936
193	0x3ddc1790	0.10746682
194	0x3d809d53	0.06280007
195	0xbe0885fa	-0.13332358
196	0x3e2c87fb	0.16848747
197	0x3ccad65b	0.024760416
198	0xbd29c825	-0.04145064
199	0x3dc301e2	0.095218435
200	0xbe352221	-0.176888
201	0x3de58755	0.11207453
202	0xbde6f467	-0.11277085
203	0x3e0d6eff	0.13811873
204	0x3d8748f5	0.06605712
205	0x3e3695da	0.17830601
206	0xbdebafda	-0.115081504
207	0x3e1e1210	0.15436578
208	0x3dd5a82b	0.10432466
209	0xbd836aba	-0.06416841
210	0x3d8154c4	0.06314996
211	0x3dde2c92	0.10848345
212	0xbded3ce7	-0.11583882
213	0x3d8b5e0e	0.06805049
214	0xbe0146d0	-0.12624669
215	0x3dd2c586	0.10291581
216	0xbd589877	-0.052879777
217	0x3cb69ded	0.022292102
218	0xbc01cf7d	-0.007923004
219	0xbd5c2d22	-0.05375398
220	0x3d61af5b	0.055098873
221	0x3dc8633a	0.09784551
222	0x3c3b635c	0.011437263
223	0x3df18d69	0.1179455
224	0xbe15a2cf	-0.14612888
225	0xbd1fe0f2	-0.039032884
226	0x3d260957	0.04053625
227	0x3bbbe5bb	0.005734173
228	0xbdc44083	-0.09582617
229	0x3cadf705	0.021235952
230	0x3e59b666	0.21260986
231	0xbde47c9d	-0.111565806
232	0xbe331a9e	-0.17490622
233	0xbd3afe75	-0.045652825
234	0x3df9fc08	0.12206274
235	0x3e01c28e	0.12671873
236	0x3d2dcd12	0.0424319
237	0xbc1496f6	-0.009069195
238	0xbd872a14	-0.06599823
239	0x3e056581	0.13027002
240	0x3cc82fae	0.024436798
241	0xbdd8f8bb	-0.105943166
242	0xbb33c50d	-0.0027430684
243	0xbd322f3d	-0.04350208
244	0xbdd0a68e	-0.10188018
245	0x3d9837ad	0.07432494
246	0xbe322887	-0.17398272
247	0xbe0fa6f4	-0.14028531
248	0x3c39310a	0.011303196
249	0x3e40019f	0.18750618
250	0xbc4f77f3	-0.0126628755
251	0x3d17d9b5	0.037072856
252	0x3d270862	0.04077948
253	0xbc72396c	-0.014784198
254	0xbdd47b7c	-0.10375115
255	0x3c9bb9c3	0.019009477

recurrent_blocks.1.bias_ih_l0 f4 [128]
0	0x3e1748b0	0.14773822
1	0xbd8ab3ac	-0.06772551
2	0x3c22f13f	0.009945213
3	0x3e07b80c	0.13253802
4	0xbc74c206	-0.014938837
5	0x3dedb6ce	0.11607133
6	0xbe0b094e	-0.13577768
7	0x3e347bde	0.17625377
8	0xbe1dec98	-0.15422285
9	0xbe4b62d0	-0.19861913
10	0x3da3a47d	0.07990358
11	0x3dee868e	0.11646758
12	0xbcdfbe7b	-0.027312508
13	0xbe06ef8c	-0.13177317
14	0x3d0207c0	0.031745672
15	0x3df89d29	0.12139351
16	0x3da2c8e4	0.07948473
17	0x3e22cab0	0.15897632
18	0x3dc8d615	0.09806458
19	0x3d506760	0.050879836
20	0xbd602451	-0.054722134
21	0x3b894d28	0.004190106
22	0x3e06f800	0.13180542
23	0xbceab9ac	-0.028652988
24	0xbe01e3b2	-0.12684515
25	0xbd81b1df	-0.06332754
26	0x3e213a7b	0.15744965
27	0x3df5d096	0.12002675
28	0xbd8d61d9	-0.069034286
29	0x3b881dad	0.0041539283
30	0xbe0c9f52	-0.13732651
31	0x3da12a4a	0.07869394
32	0xbdcc8ccb	-0.09987792
33	0xbd438516	-0.047734343
34	0xbe04387f	-0.12912177
35	0xbe06b93d	-0.131566
36	0x3db2a19b	0.0872223
37	0xbd687441	-0.056751493
38	0xbc4596fa	-0.012059921
39	0xbc0f85e4	-0.008759949
40	0xbda8f7dc	-0.082504004
41	0xbe4c65bc	-0.19960684
42	0x3cca7dfb	0.024718275
43	0xbd7bdbcf	-0.061488923
44	0xbc3aa186	-0.011391049
45	0x3deabcf8	0.11461824
46	0xbe478276	-0.1948336
47	0xbd403751	-0.046927754
48	0xbd7a91f3	-0.061174344
49	0xbe421644	-0.18953806
50	0xbd8ab89d	-0.067734934
51	0xbce592cc	-0.0280241
52	0xbcbc2a4c	-0.022969387
53	0xbe10d0aa	-0.14142099
54	0xbdd1287c	-0.102128
55	0x3e4d448f	0.20045684
56	0xbe07ec31	-0.13273694
57	0xbc335d1d	-0.010947493
58	0x3e05cda9	0.13066734
59	0xbda830b4	-0.082124144
60	0x3da2750e	0.07932483
61	0x3de832c9	0.113378115
62	0xbc90db3d	-0.017682666
63	0x3be0cd12	0.006860384
64	0x3e3dcc7d	0.18535037
65	0xbd940008	-0.072265685
66	0x3e502bd1	0.20329215
67	0x3da61bbe	0.0811076
68	0x3db9e716	0.09077279
69	0x3bf44c85	0.007455411
70	0xbe051190	-0.12994981
71	0xbe15a779	-0.14614667
72	0x3da1fefb	0.07909962
73	0x3de15f3a	0.11004491
74	0xbd0fc669	-0.035101328
75	0x3d89e43a	0.06732984
76	0x3dbb784c	0.09153804
77	0x3c53dff8	0.012931816
78	0xbce9c69c	-0.028537087
79	0x3df8d011	0.121490605
80	0xbdf601a4	-0.12012032
81	0x3d1de8ef	0.03855222
82	0xbe3065b6	-0.172263
83	0x3e080bb6	0.13285717
84	0x3dcdbc3a	0.10045667
85	0xbe3c2e4f	-0.1837704
86	0xbe53f74f	-0.2069981
87	0x3dcd0b58	0.10011929
88	0xbe27b428	-0.16377318
89	0x3e0d8a63	0.13822322
90	0xbe1f1b9f	-0.1553788
91	0x3de57825	0.112045564
92	0xbe43676b	-0.1908242
93	0x3db7ee7d	0.08981035
94	0xbd11fd75	-0.035642106
95	0xbe115a5f	-0.1419463
96	0xbb9d80e3	-0.0048066243
97	0x3e262c58	0.16227853
98	0xbddcb2a7	-0.10776263
99	0xbb193d53	-0.00233825
100	0x3d831794	0.064009815
101	0xbd9330f7	-0.07187074
102	0x3e36f3b5	0.17866404
103	0x3c0ae284	0.008476857
104	0xbd909ff3	-0.07061758
105	0xbce32741	-0.027728679
106	0x3e4d7fff	0.20068358
107	0xbc42522c	-0.011860412
108	0x3d7e9fda	0.062164165
109	0xbde314c4	-0.11087945
110	0x3d7b9752	0.061423607
111	0xbe152e36	-0.1456841
112	0xbd6e3a91	-0.058161322
113	0x3db9798c	0.09056386
114	0x3e1a2753	0.15054063
115	0xbe191888	-0.14950764
116	0xbdae72e4	-0.085180074
117	0xbda4493c	-0.08021781
118	0xbd8dfb28	-0.0693267
119	0x3cc74e21	0.024329247
120	0x3beeb344	0.0072845537
121	0x3e155fd8	0.14587343
122	0xbe1fd98a	-0.15610328
123	0xbd9d4d48	-0.07680756
124	0x3bd77045	0.006574663
125	0x3ad8b863	0.0016534444
126	0xbdd73d44	-0.10509732
127	0x3d5bc642	0.05365587

recurrent_blocks.1.bias_hh_l0 f4 [128]
0	0xbdaf914a	-0.085726336
1	0x3e1323c7	0.14369117
2	0x3e3d7ae7	0.18503915
3	0xbc5437a1	-0.012952716
4	0xbd780c37	-0.060558524
5	0x3e20e381	0.15711786
6	0xbddbc23f	-0.10730409
7	0x3d2a5d46	0.04159286
8	0x3c1718fd	0.009222266
9	0xbdb7be57	-0.08971851
10	0x3d3e274a	0.046424188
11	0x3e1362eb	0.14393203
12	0x3e2f9f62	0.17150643
13	0xbc21ec72	-0.009883033
14	0x3d328064	0.043579474
15	0xbe2433f3	-0.16035442
16	0xbd31f349	-0.043444905
17	0xbdf29b5a	-0.11846037
18	0xbd4a3904	-0.04937078
19	0x3d732c80	0.05936861
20	0x3d8cb311	0.06870092
21	0x3dbd3b8c	0.09239873
22	0x3ceab390	0.028650075
23	0xbd7225e7	-0.059118178
24	0xbe2e9177	-0.17047678
25	0x3e124cfa	0.14287177
26	0xbe124833	-0.14285354
27	0xbe0fbd7d	-0.14037128
28	0xbe0276bc	-0.12740606
29	0xbdac11b3	-0.08401813
30	0x3c18ce5f	0.009326546
31	0x3e11026e	0.14161083
32	0x3de5af51	0.112150796
33	0x3e192668	0.14956057
34	0xbdb34261	-0.08752895
35	0x3bf56f84	0.0074901003
36	0x3e2b5a20	0.16733599
37	0x3a3700cd	0.00069810153
38	0x3cbd2a43	0.023091441
39	0x3dd5448a	0.104134634
40	0x3e04bd3a	0.12962809
41	0x3dc95bcf	0.09831964
42	0x39cf9ab1	0.0003959737
43	0xbd6aa97f	-0.05729055
44	0xbbdbf72e	-0.0067128157
45	0x3e0f830e	0.14014837
46	0x3dfaf844	0.12254384
47	0x3d850f29	0.06497032
48	0x3d8a7e38	0.067623556
49	0x3e167cc2	0.14696029
50	0x3d4ee7cb	0.050514024
51	0xbe22d4d0	-0.15901494
52	0x3e0321a1	0.12805797
53	0x3c9e7b41	0.019345881
54	0xbd95699d	-0.07295535
55	0x3e292cdb	0.16521017
56	0x3e0792cf	0.13239597
57	0x3dd9c5b9	0.10633416
58	0x3c9ad870	0.018902034
59	0x3de2f41b	0.11081716
60	0xbcc33bc5	-0.023832211
61	0xbc927aad	-0.017880762
62	0x3db9dea9	0.09075672
63	0xbe2704e7	-0.16310464
64	0x3e12a4aa	0.14320627
65	0xbd4eec35	-0.050518233
66	0x3de489d6	0.111591026
67	0xbcf873fa	-0.03032874
68	0xbc3b829b	-0.011444713
69	0xbdc32d73	-0.09530153
70	0x3dec1082	0.11526586
71	0x3d01e4cc	0.03171234
72	0xbdebee9e	-0.11520122
73	0xbde70827	-0.11280852
74	0xbe20940c	-0.15681475
75	0x3d9c5cd8	0.07634896
76	0x3cb1f157	0.021721525
77	0x3e0f12bf	0.13971995
78	0x3a247a6a	0.00062743446
79	0x3dd705d5	0.10499159
80	0xbc913c7c	-0.017729037
81	0xbde89065	-0.11355666
82	0x3e065a3d	0.1312036
83	0xbd203982	-0.039117344
84	0x3c29bb47	0.010359592
85	0x3d666b93	0.056254935
86	0xbe177d33	-0.14793853
87	0xbe484ba0	-0.19560099
88	0x3e075f13	0.13219862
89	0x3e0a4db7	0.13506208
90	0xbdeba35c	-0.11505768
91	0xbe0a496e	-0.13504574
92	0xbe43ca72	-0.19120196
93	0x3de2d025	0.11074857
94	0xbdaa2ce6	-0.08309345
95	0x3d3f8665	0.046759028
96	0xbdb9d08a	-0.09072979
97	0xbe080b17	-0.1328548
98	0xbdf87487	-0.12131601
99	0xbd925bdb	-0.07146426
100	0xbe1ddf3a	-0.15417185
101	0x3dbf51f6	0.09341805
102	0xbe19f7e6	-0.15035972
103	0xbe222fed	-0.15838595
104	0x3c6fba36	0.0146317985
105	0xbe0170c1	-0.12640668
106	0x3cd6ab1b	0.026204636
107	0x3e26a3eb	0.16273467
108	0xbd1ded6a	-0.038556494
109	0x3e0c0d41	0.13676931
110	0xbe3ca9ff	-0.18424223
111	0xbd8b228d	-0.067936994
112	0xbd728957	-0.05921301
113	0xbd104d3e	-0.035229914
114	0xbe05f7dd	-0.13082834
115	0xbdc9553e	-0.09830712
116	0xbe0a50d8	-0.13507402
117	0xbdfcdd8b	-0.123469435
118	0xbd82a0a1	-0.06378294
119	0xbd4a5f3e	-0.049407236
120	0x3e13ee72	0.14446428
121	0xbe026ff4	-0.12738019
122	0x3d427bd8	0.047481388
123	0x3e16d26d	0.14728709
124	0x3dd00b9b	0.101584636
125	0x3cf1372f	0.029445259
126	0x3db9ac7d	0.09066103
127	0xbdf8af38	-0.12142795
