main/Finale_Modified/wandb/dryrun-20201021_140443-2r5je40w/checkpoint_lastest.pth (torch_old, 787229 bytes, 153 tensors)

recurrent_blocks.0.weight_ih_l0 f4 [128, 3]
-0.040856127 0.018144941 0.124412104 -0.0018756904 -0.040703595 -0.18008576 -0.007817305 0.014046388
-0.027030537 -0.102635056 0.16320413 -0.12685148 0.11957846 -0.17316885 0.13270803 0.06980069
-0.15193948 -0.006186241 0.1438336 0.07659409 0.010382156 0.1429763 -0.0047308304 0.1053799
-0.0550991 -0.0805565 -0.193995 -0.15633383 -0.08661404 0.018186405 0.104480274 -0.18086964
-0.08015392 -0.17663631 0.042119786 -0.15527761 -0.09272689 -0.050089672 0.16593619 -0.1438178
-0.119696006 -0.032474082 0.004634738 0.08840648 0.031300753 0.08893687 -0.07938207 -0.18510129
-0.18747452 0.08583539 -0.069449864 -0.1161789 -0.107069865 -0.1305918 0.119172126 0.066106856
0.06999608 -0.084868245 0.09759692 -0.11123085 -0.030015737 0.07085836 -0.048228018 0.032865927
0.13026331 -0.16639407 -0.13628255 0.10519998 0.13474837 0.024170496 -0.042244975 0.060339052
0.004870092 0.1156592 0.11356465 0.052879322 0.08326335 0.018040929 0.08485723 0.0954869
0.031362485 0.14974977 -0.090355836 -0.09177765 0.016050426 0.07798382 -0.11638038 -0.04564131
-0.07832603 -0.13352053 0.025090137 0.12928596 -0.1334583 0.03416312 -0.034550752 0.09215713
-0.1680382 0.11912094 0.08964424 0.102303006 -0.12147369 -0.13937375 0.06080268 -0.058603574
-0.052319717 -0.066898786 -0.021571107 -0.017208524 0.05607171 0.06319238 -0.0074432273 0.083223045
-0.04660645 -0.099266134 -0.10014333 -0.11650813 -0.06607275 0.08019359 -0.08883965 -0.17278296
-0.056552287 -0.022727441 0.09727879 -0.0980025 -0.016782157 -0.038457543 0.039964907 -0.09629417
0.11803043 0.11218897 0.10810522 0.12197129 0.038961817 0.14999995 0.05556352 0.036362246
0.05731105 -0.2069026 0.04158721 -0.15576999 0.03486815 -0.2006076 -0.14419028 -0.028778447
0.11802845 0.029862318 -0.15271531 -0.18446748 -0.019777961 -0.022476701 -0.15513909 0.022810742
-0.033284824 0.05962308 0.09777682 0.026951877 -0.18403593 -0.12787628 0.035277374 0.09131093
0.13156594 0.010712889 0.17443956 0.037089877 0.044497993 0.0013921055 0.025214547 -0.11736605
0.007529904 0.1380389 -0.09953049 0.14723831 0.000975327 0.058683813 -0.026247684 0.06378077
0.05646373 -0.13918157 -0.06074231 -0.089688495 0.088839136 0.086669914 -0.054322477 -0.10352852
0.083777666 -0.03444371 0.07953299 -0.048027065 -0.06679101 -0.033708543 0.10921616 -0.17293271
-0.05993014 0.015970496 -0.020727811 0.112677924 0.053250376 -0.14752342 -0.047392942 0.095671795
-0.14698844 -0.012012241 0.103719756 -0.067077905 0.11526197 -0.04372166 -0.06727984 -0.06144116
-0.028099189 0.066577815 0.012557672 -0.17705403 0.078577794 0.020041674 -0.15815176 0.09167396
0.11171121 -0.052625664 -0.067890376 0.017852593 -0.12296972 0.1155948 0.15469229 -0.075940706
-0.02643877 0.019994399 0.104746215 -0.044281296 0.066527024 0.04966167 -0.047146577 0.23461443
-0.14702919 -0.09015559 0.18042327 0.1314942 -0.18348427 0.08224072 0.123114355 0.052124918
0.040916685 0.08116212 0.07914564 0.01274175 -0.18983419 0.15444571 0.11894342 -0.1421141
0.11552779 -0.048514154 -0.04614902 -0.07532046 -0.07224807 -0.1415415 -0.04135555 0.11314842
00000000: c158 27bd b3a4 943c c6cb fe3d bad9 f5ba
00000010: d0b8 26bd 6768 38be 2714 00bc d222 663c
00000020: 256f ddbc 5432 d2bd fc1e 273e 5be5 01be
00000030: 8de5 f43d 2d53 31be 9de4 073e aaf3 8e3d
00000040: 0696 1bbe f3b5 cabb 1e49 133e 5ddd 9c3d
00000050: eb19 2a3c 6168 123e 1505 9bbb 6bd1 d73d
00000060: 98af 61bd cefa a4bd a0a6 46be fa15 20be
00000070: b462 b1bd a8fb 943c c1f9 d53d e435 39be
00000080: bd27 a4bd 26e0 34be cc85 2c3d 1801 1fbe
00000090: 99e7 bdbd d42a 4dbd 2deb 293e f944 13be
000000a0: 2e23 f5bd 8b03 05bd 00df 973b 750e b53d
000000b0: 3835 003d 8924 b63d 1193 a2bd 318b 3dbe
000000c0: 52f9 3fbe 77ca af3d bb3b 8ebd 34ef edbd
000000d0: 7247 dbbd dbb9 05be 8410 f43d 0863 873d
000000e0: 1b5a 8f3d 67cf adbd e5e0 c73d 00cd e3bd
000000f0: 90e3 f5bc 301e 913d be8a 45bd 6c9e 063d
00000100: bf63 053e 3563 2abe a78d 0bbe 1673 d73d
00000110: 7afb 093e 3401 c63c 1109 2dbd 1526 773d
00000120: 4b95 9f3b bbde ec3d 9594 e83d fd97 583d
00000130: fa85 aa3d 92ca 933c a1c9 ad3d a38e c33d
00000140: f375 003d 0158 193e 7b0c b9bd ecf5 bbbd
00000150: 2f7c 833c fbb5 9f3d d658 eebd 62f2 3abd
00000160: 6669 a0bd 9bb9 08be d589 cd3c 8a63 043e
00000170: 4ba9 08be a1ee 0b3d 1785 0dbd e1bc bc3d
00000180: 3512 2cbe aef5 f33d 6697 b73d 3d84 d13d
00000190: 33c7 f8bd feb7 0ebe 3b0c 793d 4d0a 70bd
000001a0: 334d 56bd 3b02 89bd e4b5 b0bc e4f8 8cbc
000001b0: 73ab 653d 026b 813d 51e6 f3bb d870 aa3d
000001c0: 68e6 3ebd 0b4c cbbd f217 cdbd d19b eebd
000001d0: 2651 87bd 893c a43d 90f1 b5bd 04ee 30be
000001e0: 5fa3 67bd e62e babc 1a3a c73d 89b5 c8bd
000001f0: bc7a 89bc a885 1dbd 3eb2 233d e135 c5bd
00000200: f0b9 f13d 55c3 e53d 4566 dd3d 15cc f93d
00000210: 6d96 1f3d 9699 193e 9396 633d 94f0 143d
00000220: febe 6a3d 46de 53be 5a57 2a3d 2b82 1fbe
00000230: e8d1 0e3d 146c 4dbe 9ea6 13be c7c0 ebbc
00000240: e6b8 f13d d2a1 f43c 6761 1cbe 0be5 3cbe
00000250: 6405 a2bc 0f21 b8bc c8dc 1ebe 98dd ba3c
00000260: ab55 08bd 5537 743d 373f c83d 2fca dc3c
00000270: ea73 3cbe 00f2 02be 027f 103d 3a01 bb3d
00000280: 39b9 063e 1d85 2f3c 49a0 323e 8eeb 173d
00000290: 8743 363d 4f77 b63a bd8e ce3c 9d5d f0bd
000002a0: 6abd f63b 125a 0d3e a4d6 cbbd a4c5 163e
000002b0: 16ad 7f3a 705e 703d 6205 d7bc 7e9f 823d
000002c0: 8346 673d 9d85 0ebe eecc 78bd 9aae b7bd
000002d0: 4bf1 b53d ff7f b13d 3f81 5ebd c306 d4bd
000002e0: a093 ab3d d914 0dbd 31e2 a23d 07b8 44bd
000002f0: bac9 88bd f811 0abd b9ac df3d 4615 31be
00000300: 4e79 75bd 8fd4 823c 5fcd a9bc afc3 e63d
00000310: 111d 5a3d 6110 17be 1a1f 42bd 93ef c33d
00000320: 2384 16be fece 44bc 066b d43d 2460 89bd
00000330: 780e ec3d 7c15 33bd 03ca 89bd baa9 7bbd
00000340: 4530 e6bc f359 883d b2be 4d3c a74d 35be
00000350: 65ed a03d 702e a43c 89f2 21be 8fbf bb3d
00000360: d9c8 e43d 028e 57bd 1c0a 8bbd 9a3f 923c
00000370: 8cd7 fbbd f7bc ec3d a867 1e3e cd86 9bbd
00000380: 1f96 d8bc 4bcb a33c 2f85 d63d 4e60 35bd
00000390: 523f 883d 096a 4b3d c51c 41bd c43e 703e
000003a0: d28e 16be 7ea3 b8bd e1c0 383e 6aa6 063e
000003b0: 4de3 3bbe d36d a83d 6123 fc3d f080 553d
000003c0: 4198 273d 5338 a63d 1c17 a23d c6c2 503c
000003d0: e563 42be 0427 1e3e 9c98 f33d 5c86 11be
000003e0: d599 ec3d c7b6 46bd c106 3dbd 9d41 9abd
000003f0: ccf6 93bd 41f0 10be 7064 29bd 5cba e73d

recurrent_blocks.0.weight_hh_l0 f4 [128, 32]
0.13990226 -0.15947084 0.09547066 0.14195572 -0.12594557 -0.07664247 0.12782712 -0.15701883
0.1010395 0.06737532 -0.11554407 -0.08869967 -0.04971814 0.14096424 0.02242231 -0.14121404
-0.015279235 0.04586888 0.04102481 0.026049528 -0.006948795 0.12935077 0.139173 0.093314774
0.17109178 0.15821397 -0.017768644 0.067639224 -0.013773798 -0.0029246472 0.19033669 0.11462437
0.12804045 0.092090234 0.12956718 0.16071524 -0.07973581 -0.12105731 0.09939162 0.023953784
-0.070952855 -0.08885034 0.1879607 -0.105098814 0.053933915 -0.12782669 -0.010700632 0.001385536
-0.023556279 -0.11094335 0.070549354 -0.027101569 -0.080655135 -0.15735516 0.06879768 0.15644407
0.14147523 0.13891113 -0.046077866 0.057102818 0.011187764 0.1624138 0.17082827 0.15830588
0.0008973915 0.08789984 0.18884178 -0.021380056 0.11368722 0.035822984 0.007444362 0.014436824
0.12707776 0.10998093 -0.005482573 0.05577903 0.10313142 0.15343009 0.14314726 -0.10463718
-0.14862333 0.011279851 0.1639857 0.14721538 0.04276411 -0.04058381 0.12007287 -0.038152132
-0.024675641 0.033260528 0.08624366 -0.1027585 -0.11174125 -0.04533764 -0.15777715 -0.10468493
-0.013393613 -0.019536775 -0.083794765 -0.07608723 0.06122585 0.09082443 -0.08675649 0.07792935
0.061962668 -0.019334568 0.14154539 -0.027381072 -0.14239462 -0.12054246 -0.0058727353 -0.123732015
-0.028347736 -0.0036173908 0.0037458094 0.028701417 0.10904626 -0.14480509 0.08985648 0.08598967
-0.061657388 0.08582355 0.143007 -0.07106629 0.15739028 0.14599383 -0.13671108 0.11262411
-0.063411675 -0.12473752 0.15577559 -0.013026764 0.15670587 -0.17350575 -0.07731584 0.06351062
0.0035199053 0.15292975 -0.098559916 0.14797914 -0.15280138 0.0666897 0.08725381 0.09248511
-0.023412678 0.06455334 -0.06714151 0.13074118 -0.1508661 0.15468512 -0.12528178 0.13621108
0.01533442 0.14088939 0.1430071 0.11967842 0.057837017 -0.110010155 0.0020360937 0.14511769
-0.046730477 -0.05723918 -0.010596341 0.15843791 -0.10743472 0.014969048 0.012387262 0.17625695
0.14212582 -0.15765369 -0.025447775 0.13223185 -0.15958564 0.05608945 0.12681761 0.15252957
0.11126245 0.13768779 -0.09844503 -0.11498955 -0.15075514 -0.025908351 -0.09920428 0.1338861
-0.024818217 -0.0895453 0.006133332 0.054716334 -0.12693974 0.1355007 -0.11614767 -0.009692645
0.15593086 0.09122258 -0.17430691 -0.078054085 0.013631851 0.13970156 -0.1181011 -0.0148802055
-0.18310791 -0.06803918 -0.10138034 0.050133925 -0.21387546 -0.058572095 -0.10730464 0.16285442
0.08563542 0.12291769 -0.080120474 0.053668514 -0.040225506 -0.056581765 -0.08130157 0.15793192
0.019502228 -0.041669957 0.09592568 -0.11203121 0.023986183 -0.0070711607 -0.035284206 0.008161647
-0.1216283 -0.073209524 0.17160471 0.10857722 0.13511391 0.23171476 -0.007818016 0.021489877
-0.048799064 -0.073735684 -0.032150958 0.11437837 -0.20391613 0.11895211 -0.039206304 0.01273096
0.08637123 -0.10212786 -0.120549284 -0.02153064 -0.13230388 0.060609195 0.0797277 0.05867193
-0.10243883 0.0575662 0.039600626 -0.19401436 0.034947645 0.006496717 0.13835128 0.075950034
00000000: 8a42 0f3e 534c 23be 1f86 c33d d75c 113e
00000010: e0f7 00be baf6 9cbd 1de5 023e 8bc9 20be
00000020: cced ce3d 12fc 893d 5fa2 ecbd 2ca8 b5bd
00000030: 40a5 4bbd ee58 103e feae b73c 6a9a 10be
00000040: c255 7abc 02e1 3b3d a209 283d d265 d53c
00000050: b8b2 e3bb 8774 043e 5e83 0e3e d11b bf3d
00000060: af32 2f3e d802 223e 8c8f 91bc 6f86 8a3d
00000070: 7fab 61bc 70ab 3fbb 9fe7 423e 2fc0 ea3d
00000080: 091d 033e ce99 bc3d 42ad 043e 8992 243e
00000090: 874c a3bd e5ec f7bd d58d cb3d ba3a c43c
000000a0: bb4f 91bd 2bf7 b5bd c578 403e 0c3e d7bd
000000b0: cfe9 5c3d 00e5 02be b451 2fbc e09a b53a
000000c0: 19f9 c0bc 4436 e3bd 2e7c 903d 1c04 debc
000000d0: 852e a5bd b621 21be cce5 8c3d e032 203e
000000e0: e2de 103e b83e 0e3e 25bc 3cbd a5e4 693d
000000f0: e24c 373c ce4f 263e 9bed 2e3e f01a 223e
00000100: ed3e 6b3a d504 b43d bd5f 413e 3a25 afbc
00000110: d8d4 e83d 1fbb 123d d6ef f33b 6e88 6c3c
00000120: ac20 023e af3d e13d 28a7 b3bb 8d78 643d
00000130: 9136 d33d c71c 1d3e 3295 123e 054c d6bd
00000140: b730 18be 20cf 383c deeb 273e a1bf 163e
00000150: 6b29 2f3d 363b 26bd c4e8 f53d 6945 1cbd
00000160: 9224 cabc 313c 083d 84a0 b03d 0c73 d2bd
00000170: 99d8 e4bd f6b3 39bd 5590 21be 0d65 d6bd
00000180: e270 5bbc 960b a0bc 979c abbd 9fd3 9bbd
00000190: f5c7 7a3d 2902 ba3d 63ad b1bd 6c99 9f3d
000001a0: 91cc 7d3d 8763 9ebc 46f1 103e 454e e0bc
000001b0: e5cf 11be f7de f6bd 1370 c0bb 3667 fdbd
000001c0: 8339 e8bc bf11 6dbb 417c 753b 3c1f eb3c
000001d0: a553 df3d c947 14be ad06 b83d 5a1b b03d
000001e0: 758c 7cbd 42c4 af3d 6d70 123e 348b 91bd
000001f0: eb2a 213e 687f 153e fdfd 0bbe 78a7 e63d
00000200: fbdd 81bd 6376 ffbd a383 1f3e 356e 55bc
00000210: 8177 203e 7eab 31be c457 9ebd db11 823d
00000220: 36ae 663b 9e99 1c3e c8d9 c9bd d887 173e
00000230: f777 1cbe 9c94 883d 20b2 b23d d568 bd3d
00000240: f2cb bfbc 8b34 843d 7d81 89bd 04e1 053e
00000250: a57c 1abe c765 1e3e de49 00be eb7a 0b3e
00000260: 383d 7b3c 4f45 103e 7470 123e f619 f53d
00000270: 82e6 6c3d 014d e1bd fc6f 053b bb99 143e
00000280: 7568 3fbd a173 6abd 479c 2dbc 8c3d 223e
00000290: bc06 dcbd bd40 753c f1f3 4a3c b47c 343e
000002a0: 6e89 113e f86f 21be da77 d0bc c967 073e
000002b0: 6b6a 23be 0dbe 653d 7adc 013e b630 1c3e
000002c0: 91dd e33d 07fe 0c3e 8c9d c9bd a47f ebbd
000002d0: 8e5f 1abe c03d d4bc 9d2b cbbd 7019 093e
000002e0: 934f cbbc 8763 b7bd 1efa c83b 3c1e 603d
000002f0: 7efc 01be b2c0 0a3e d4de edbd e6cd 1ebc
00000300: 57ac 1f3e e7d2 ba3d 837d 32be d2da 9fbd
00000310: 2158 5f3c ed0d 0f3e fdde f1bd 1bcc 73bc
00000320: a480 3bbe 2058 8bbd 7fa0 cfbd 3b59 4d3d
00000330: 2b02 5bbe 4be9 6fbd 89c2 dbbd 4fc3 263e
00000340: a061 af3d 45bc fb3d 3416 a4bd 84d3 5b3d
00000350: 80c3 24bd 48c2 67bd 7081 a6bd e8b8 213e
00000360: 23c3 9f3c 1eae 2abd af74 c43d 9e70 e5bd
00000370: ac7e c43c 32b5 e7bb 2c86 10bd 6eb8 053c
00000380: 4218 f9bd e0ee 95bd 25b9 2f3e bc5d de3d
00000390: 4d5b 0a3e a246 6d3e 2317 00bc 8a0b b03c
000003a0: 87e1 47bd bc02 97bd b9b0 03bd 353f ea3d
000003b0: 64cf 50be 2a9d f33d ca96 20bd 8495 503c
000003c0: 66e3 b03d 6928 d1bd 8be2 f6bd 0661 b0bc
000003d0: ab7a 07be 5941 783d 4748 a33d fa51 703d
000003e0: 73cb d1bd 89ca 6b3d 4434 223d b3ab 46be
000003f0: 4325 0f3d 6ae2 d43b f5ab 0d3e b18b 9b3d

recurrent_blocks.0.bias_ih_l0 f4 [128]
-0.09290446 0.0866737 0.08610097 -0.07955251 0.054770514 0.14737886 -0.054096676 -0.09217747
-0.18263727 0.11653103 0.10758804 -0.096916646 0.02173612 0.13441873 0.072243765 0.0037422937
0.038225077 0.08820639 0.120165646 -0.13015041 -0.14742634 -0.16658346 0.07337935 -0.097191505
0.1259848 -0.016675977 0.16117758 0.049375456 -0.07079058 -0.08578734 0.11601595 0.084126435
0.017075002 0.07001206 0.06178739 0.091431886 0.1851177 -0.1637325 -0.11469702 -0.09164984
-0.03242316 -0.097105056 -0.15578607 0.043190375 -0.008435002 0.042992886 0.032510743 0.013766968
0.043666564 0.0910023 0.057047877 -0.058288585 -0.1892781 0.09715286 -0.17406124 0.10358921
-0.08257362 0.035059694 0.04014178 0.081186816 -0.03511852 0.17034823 -0.023339782 -0.09882292
-0.16704227 0.1633508 -0.14545564 -0.11595978 -0.16939853 -0.051078506 0.017223982 -0.12973213
0.023771942 -0.041676152 -0.08319159 -0.10909804 -0.026172997 0.122506164 -0.05457908 0.0733607
-0.102107525 -0.042082828 -0.027435899 -0.050038002 -0.037081856 -0.045706093 0.023803398 -0.14384656
0.15403965 0.05788577 -0.042611293 0.104648806 0.05939997 0.075838715 -0.06614242 -0.121661596
0.07163102 -0.06094324 -0.019372633 -0.19006076 -0.13908446 0.09824289 -0.029827012 0.021846067
-0.11923144 -0.05423819 -0.08685609 -0.08314827 -0.052431993 -0.17979492 0.11680947 -0.11608315
0.037875976 0.07556274 0.12218942 -0.18718621 -0.1246542 -0.16594908 0.13944015 0.10892504
0.035338584 0.02206979 0.025323175 -0.1319452 0.10483019 -0.0073410654 0.080584586 -0.060694546
00000000: b244 bebd fb81 b13d b555 b03d 6dec a2bd
00000010: 0c57 603d 7cea 163e 7a94 5dbd 8bc7 bcbd
00000020: 4405 3bbe d2a7 ee3d 1e57 dc3d 3c7c c6bd
00000030: f30f b23c 10a5 093e 8af4 933d 4541 753b
00000040: e691 1c3d 8da5 b43d 6819 f63d 2646 05be
00000050: eef6 16be db94 2abe ea47 963d 570c c7bd
00000060: 2902 013e 0f9c 88bc bc0b 253e eb3d 4a3d
00000070: a7fa 90bd 46b1 afbd c599 ed3d 7b4a ac3d
00000080: e0e0 8b3c 7c62 8f3d c614 7d3d a440 bb3d
00000090: 7f8f 3d3e 7ea9 27be 45e6 eabd e9b2 bbbd
000000a0: 26ce 04bd 04df c6bd 6286 1fbe 64e8 303d
000000b0: f632 0abc 4f19 303d fc29 053d d98e 613c
000000c0: b6db 323d 6a5f ba3d 09ab 693d 03c0 6ebd
000000d0: 1ed2 41be 14f8 c63d 1c3d 32be 9426 d43d
000000e0: 5c1c a9bd c19a 0f3d b56b 243d 4645 a63d
000000f0: 70d8 0fbd c46f 2e3e 1233 bfbc ac63 cabd
00000100: 210d 2bbe 6f45 273e 53f2 14be 527c edbd
00000110: cf76 2dbe b237 51bd 4f19 8d3c 80d8 04be
00000120: 60bd c23c 9db4 2abd 5a60 aabd cb6e dfbd
00000130: c168 d6bc 83e4 fa3d 508e 5fbd 223e 963d
00000140: c01d d1bd 0b5f 2cbd 40c1 e0bc a6f4 4cbd
00000150: 25e3 17bd 5036 3bbd 58ff c23c 834c 13be
00000160: 92bc 1d3e a119 6d3d 2e89 2ebd 1d52 d63d
00000170: 624d 733d 5451 9b3d ad75 87bd b729 f9bd
00000180: 49b3 923d 9e9f 79bd 5bb3 9ebc 4a9f 42be
00000190: 286c 0ebe 9133 c93d c757 f4bc 86f6 b23c
000001a0: 9d2f f4bd dd28 5ebd 9be1 b1bd a449 aabd
000001b0: eec2 56bd 291c 38be ce39 ef3d 01bd edbd
000001c0: d723 1b3d a3c0 9a3d 723e fa3d bead 3fbe
000001d0: b44a ffbd 8eee 29be 66c9 0e3e 1714 df3d
000001e0: 31bf 103d b4cb b43c 8c72 cf3c a41c 07be
000001f0: 36b1 d63d 528d f0bb 8809 a53d d89a 78bd

recurrent_blocks.0.bias_hh_l0 f4 [128]
0.055952366 0.071527176 -0.013629111 -0.15830126 -0.10228158 0.1312244 0.05547153 -0.0013421497
0.08236273 -0.12463719 0.11548184 0.02950987 -0.15805446 -0.03196462 -0.068020165 -0.16062078
-0.09724828 0.019303681 0.1412576 -0.0037792227 -0.15981972 0.06529965 0.11422715 -0.026473323
-0.12028771 -0.1758012 0.1618484 0.042267144 0.09730133 -0.038966365 -0.028318936 0.06115442
-0.120289005 0.1124162 -0.08836946 0.0017592369 0.09898785 0.038370382 -0.025966207 -0.13675845
-0.19867258 0.03197031 0.11603083 -0.03219174 0.09714693 0.0008648049 0.13687105 -0.03976101
-0.031567547 -0.04918194 0.07557444 -0.089732036 0.028771756 0.17874004 0.103365205 -0.19428125
0.08043532 -0.13578862 0.14097542 0.07007764 0.099581406 0.08230207 -0.06706968 0.06523866
-0.13938461 0.091001466 -0.05611448 0.027292892 -0.14526597 -0.1321767 0.06672521 -0.037668835
-0.06035827 -0.03586932 0.086018786 -0.015544816 0.031683058 0.12471076 0.040459987 -0.15274476
-0.043777194 -0.040561225 0.052463073 0.09809408 0.11104818 -0.18489528 0.064555146 -0.011279381
0.10536591 0.022989644 0.10670305 0.07721509 -0.05574546 -0.11082895 -0.016678702 0.19901031
0.07232522 0.13788934 -0.16172259 0.06300065 0.10005302 -0.056510713 0.021551838 0.035328057
-0.016572163 0.09468451 0.05590184 -0.15065034 0.083987966 -0.20304844 -0.10962252 -0.05009578
-0.13880382 -0.15389532 -0.040122323 0.13110411 -0.067218795 -0.06473238 -0.055814836 0.065563075
0.14974788 0.10651177 -0.05379041 -0.087267704 -0.0070212386 0.08828653 -0.019770153 -0.120023824
00000000: 4f2e 653d d77c 923d a34c 5fbc ba19 22be
00000010: 0179 d1bd b05f 063e 1d36 633d 12eb afba
00000020: caad a83d c841 ffbd be81 ec3d afbe f13c
00000030: 07d9 21be 55ed 02bd 284e 8bbd c679 24be
00000040: 1b2a c7bd c122 9e3c d5a5 103e d6ac 77bb
00000050: c8a7 23be d3bb 853d edef e93d 95de d8bc
00000060: 6759 f6bd 3b05 34be 96bb 253e 5020 2d3d
00000070: eb45 c73d 329b 1fbd 1dfd e7bc 0f7d 7a3d
00000080: 155a f6bd 773a e63d 0cfb b4bd 3296 e63a
00000090: 24ba ca3d 432a 1d3d 15b7 d4bc 680a 0cbe
000000a0: d370 4bbe 4df3 023d 92a1 ed3d 7cdb 03bd
000000b0: f8f4 c63d 13b4 623a ed27 0c3e 71dc 22bd
000000c0: f94c 01bd 0073 49bd c6c6 9a3d 6ec5 b7bd
000000d0: bfb2 eb3c a107 373e 23b1 d33d aaf1 46be
000000e0: 46bb a43d 2c0c 0bbe dc5b 103e de84 8f3d
000000f0: 56f1 cb3d fd8d a83d d45b 89bd d99b 853d
00000100: d7ba 0ebe fa5e ba3d 4cd8 65bd 5895 df3c
00000110: 9ac0 14be 5459 07be 3aa7 883d a34a 1abd
00000120: 3c3a 77bd b5eb 12bd 9e2a b03d afaf 7ebc
00000130: 18c6 013d 5b68 ff3d 5fb9 253d 1f69 1cbe
00000140: b74f 33bd 8723 26bd 85e3 563d 8de5 c83d
00000150: 3a6d e33d 3055 3dbe 7d35 843d 27cd 38bc
00000160: 15ca d73d c754 bc3c 2187 da3d f222 9e3d
00000170: 5a55 64bd 4afa e2bd c6a1 88bc 5cc9 4b3e
00000180: 3f1f 943d dd32 0d3e 9b9a 25be 7c06 813d
00000190: 99e8 cc3d c777 67bd 7b8d b03c 27b4 103d
000001a0: 58c2 87bc f4e9 c13d 54f9 643d 1544 1abe
000001b0: e201 ac3d eeeb 4fbe c681 e0bd 3c31 4dbd
000001c0: 9722 0ebe bc96 1dbe 4e57 24bd 2840 063e
000001d0: 02aa 89bd 6992 84bd 199e 64bd ef45 863d
000001e0: 8257 193e d822 da3d 5553 5cbd 69b9 b2bd
000001f0: 6b12 e6bb 91cf b43d 04f5 a1bc 0dcf f5bd

recurrent_blocks.1.weight_ih_l0 f4 [128, 32]
-0.099296674 -0.002886589 -0.013345195 -0.06269702 -0.15907659 -0.14331278 0.07377976 0.06294326
-0.115743205 -0.05184306 0.14717177 -0.11771635 0.14352429 0.17971152 0.03646483 -0.06833013
-0.06880183 -0.018547542 0.035259686 0.008903447 -0.08807993 0.028307362 -0.116466746 -0.043224588
-0.047633503 0.021351697 -0.07593155 -0.120025635 -0.10661473 0.058430567 -0.102760784 -0.1432858
0.08405578 0.09122583 0.026417974 -0.108030036 -0.08864298 -0.098248154 -0.018403456 -0.124552585
0.004113323 -0.05117289 -0.112144426 -0.07967104 0.016762981 0.051619098 0.16820516 -0.015465121
0.13187584 -0.09526224 -0.018086545 -0.12653136 0.11800307 -0.110602185 -0.049737766 0.0008768803
-0.059770085 -0.1335944 0.074038215 -0.13001783 0.12336747 0.13767548 0.06597458 -0.14234553
0.16499223 0.14262323 0.069850355 -0.13742915 0.052720897 0.15007618 -0.12562945 0.16760884
-0.01918186 0.18375859 0.17480494 -0.117943436 -0.088526756 -0.101992436 -0.18309252 -0.11177848
0.1875008 -0.10585825 0.09957079 -0.017872198 -0.039470922 -0.026310246 0.13791765 0.017794194
-0.1366901 0.046308327 0.15273274 -0.12287814 0.05505772 0.10446423 0.03462575 -0.14638753
0.13576916 0.09474304 -0.041982546 0.13599358 -0.015081811 0.014477827 -0.002726499 0.021082643
0.00095581816 -0.17870788 -0.09137154 0.02398138 -0.008096138 -0.12171347 0.017592475 -0.12136647
-0.17190363 -0.06750789 0.13368185 -0.03935737 -0.0950666 0.06391686 -0.15355065 -0.042887084
0.11038245 -0.14196813 -0.00057999557 0.05960916 -0.06928671 -0.10894546 0.14739111 0.030087661
-0.10152842 -0.12373314 0.013534346 0.16868426 -0.0027330045 0.15840162 -0.1847208 -0.12022864
-0.17278352 -0.19218378 -0.04963994 -0.0043186 0.07044605 -0.05054037 -0.05831434 0.12626961
-0.067925595 0.06733125 0.040930297 0.0009141942 0.09904971 -0.0008728766 0.066167556 0.118194446
-0.069410846 0.050349623 -0.070107006 0.052465726 0.06959848 -0.17152031 0.18646938 -0.15300639
0.12421747 0.044504426 0.07556337 0.08661398 -0.010812234 0.032578584 -0.072870046 -0.08035719
-0.07905631 0.1347632 0.20652235 0.17747511 -0.013067752 -0.18449646 0.020311924 0.048524596
0.0857437 0.05120938 -0.042335536 -0.14581959 0.0029745004 0.18109907 -0.18397228 -0.093463704
0.118460186 -0.06346558 -0.17131935 0.03849216 0.03794954 -0.16102429 -0.12467976 -0.047909454
-0.040992804 -0.011425041 -0.11542575 0.1645857 0.00081921497 -0.09260144 0.07565947 0.08043338
-0.1948595 0.10660132 0.036646098 0.0057638045 -0.1840943 0.16182256 0.15054348 -0.110433616
-0.08227448 -0.038688805 0.052129477 0.1725576 0.10561142 -0.17511813 -0.03626546 -0.14055784
0.114207655 0.049927775 0.12352543 -0.19168694 0.19768606 0.079402216 0.12144087 -0.14693548
-0.0888748 0.12200401 -0.1058482 0.06250819 -0.10859373 0.1818964 -0.103859454 0.16940048
-0.06446446 -0.15364298 -0.031510275 0.054610904 -0.14120942 -0.22110662 0.08886548 0.007327143
0.1194645 -0.12910321 -0.053837217 -0.15655406 0.09804299 -0.122035995 0.12629247 0.16429158
-0.14193049 -0.02334905 0.006805413 -0.065515526 -0.089290984 -0.026211414 0.04886635 -0.1830205
00000000: 0e5c cbbd ed2c 3dbb cea5 5abc 4c67 80bd
00000010: f9e4 22be 96c0 12be d819 973d 65e8 803d
00000020: c60a edbd 6359 54bd 32b4 163e 4515 f1bd
00000030: 08f8 123e 4c06 383e 255c 153d abf0 8bbd
00000040: f9e7 8cbd 04f1 97bc 766c 103d c3df 113c
00000050: 4063 b4bd d7e4 e73c 1e86 eebd 440c 31bd
00000060: 591b 43bd c1e9 ae3c 0082 9bbd 00d0 f5bd
00000070: d358 dabd e454 6f3d 3f74 d2bd 83b9 12be
00000080: 7025 ac3d 9cd4 ba3d 826a d83c da3e ddbd
00000090: 738a b5bd 5436 c9bd d8c2 96bc 6d15 ffbd
000000a0: 0ec9 863b aa9a 51bd faab e5bd 922a a3bd
000000b0: 8552 893c 8c6e 533d f93d 2c3e 6b61 7dbc
000000c0: 760a 073e d918 c3bd 3c2a 94bc 7091 01be
000000d0: 98ab f13d 6683 e2bd d4b9 4bbd 71de 653a
000000e0: 7ad1 74bd f8cc 08be 59a1 973d 6523 05be
000000f0: 16a8 fc3d cdfa 0c3e ae1d 873d 07c3 11be
00000100: b9f3 283e d30b 123e b40d 8f3d 3aba 0cbe
00000110: def1 573d 92ad 193e 02a5 00be a7a1 2b3e
00000120: 4723 9dbc 362b 3c3e 1100 333e 548c f1bd
00000130: 844d b5bd 69e1 d0bd 9b7c 3bbe 1eec e4bd
00000140: 3600 403e 36cc d8bd c5eb cb3d b768 92bc
00000150: 43ac 21bd 9688 d7bc 493a 0d3e 21c5 913c
00000160: 7df8 0bbe cdad 3d3d f965 1c3e 89a7 fbbd
00000170: 3484 613d 58f1 d53d bbd3 0d3d 9de6 15be
00000180: 1207 0b3e a408 c23d e4f5 2bbd e741 0b3e
00000190: b319 77bc 6834 6d3c 10af 32bb 82b5 ac3c
000001a0: df8f 7a3a 33ff 36be 0121 bbbd 9974 c43c
000001b0: aaa5 04bc e944 f9bd 181e 903c fc8e f8bd
000001c0: 8107 30be 9441 8abd e5e3 083e 3235 21bd
000001d0: 47b2 c2bd d8e6 823d 623c 1dbe 5eaa 2fbd
000001e0: 3210 e23d 1860 11be d80a 18ba bc28 743d
000001f0: 31e6 8dbd cc1e dfbd b2ed 163e 667a f63c
00000200: 22ee cfbd cd67 fdbd 29bf 5d3c 91bb 2c3e
00000210: 351c 33bb 0934 223e 7327 3dbe 6f3a f6bd
00000220: 2aee 30be d3cb 44be 4053 4bbd 0b83 8dbb
00000230: 0546 903d 6b03 4fbd 04db 6ebd d24c 013e
00000240: 931c 8bbd f7e4 893d 87a6 273d 89a6 6f3a
00000250: 93da ca3d c2d1 64ba db82 873d ee0f f23d
00000260: 4627 8ebd 683b 4e3d 4394 8fbd 4de6 563d
00000270: a689 8e3d 05a3 2fbe d4f1 3e3e b5ad 1cbe
00000280: bb65 fe3d 464a 363d f8c0 9a3d ac62 b13d
00000290: cc25 31bc 1f71 053d e43c 95bd 4f92 a4bd
000002a0: 46e8 a1bd 5dff 093e 987a 533e 09bc 353e
000002b0: 201a 56bc a4ec 3cbe 3165 a63c bac1 463d
000002c0: 659a af3d edc0 513d 0768 2dbd bb51 15be
000002d0: d6ef 423b 0972 393e 3b63 3cbe e669 bfbd
000002e0: 419b f23d 3efa 81bd 576e 2fbe f5a9 1d3d
000002f0: fa70 1b3d 8de3 24be 1a58 ffbd b43c 44bd
00000300: 12e8 27bd 1830 3bbc 5664 ecbd 2789 283e
00000310: 96c0 563a d3a5 bdbd 5af3 9a3d 42ba a43d
00000320: 4089 47be cb51 da3d 381a 163d 4cde bc3b
00000330: 3783 3cbe d0b4 253e 1228 1a3e 052b e2bd
00000340: 867f a8bd 2778 1ebd b885 553d f1b2 303e
00000350: cd4a d83d 2b52 33be 178b 14bd 65ee 0fbe
00000360: b4e5 e93d 1181 4c3d e7fa fc3d 9549 44be
00000370: 376e 4a3e a19d a23d feb5 f83d 4176 16be
00000380: fe03 b6bd 3ddd f93d f1c6 d8bd 4b04 803d
00000390: 6466 debd 0d43 3a3e 44b4 d4bd 5277 2d3e
000003a0: f105 84bd 9654 1dbe eb10 01bd afaf 5f3d
000003b0: 3499 10be c669 62be 1bff b53d 8818 f03b
000003c0: cea9 f43d a233 04be 6a84 5cbd b54f 20be
000003d0: c3ca c83d 02ee f9bd d052 013e 0d3c 283e
000003e0: 3a56 11be 8246 bfbc f1ff de3b 012d 86bd
000003f0: 31de b6bd 52b9 d6bc 1528 483d ba69 3bbe

recurrent_blocks.1.weight_hh_l0 f4 [128, 32]
-0.008650019 0.11871979 -0.009936081 -0.06625938 -0.041598823 -0.07615583 0.17799836 -0.052623723
0.0630092 -0.0669996 0.08618984 -0.08670727 -0.04055092 0.09038908 0.035451658 0.16816615
0.0284576 0.03168613 0.025911173 0.062063653 -0.043582268 -0.1365743 0.024421474 -0.109437376
0.06170747 -0.07391055 0.0638673 -0.09485966 -0.026302952 -0.16519083 0.212638 0.21037659
0.14384747 -0.038085323 0.092205554 0.15202166 0.092275925 -0.15428226 0.08989082 -0.10245638
0.037214834 -0.118720196 -0.18535744 0.20735736 -0.032827616 -0.18478757 0.114863485 0.055366173
-0.109918065 -0.1865524 -0.08730924 0.06545808 0.16539294 -0.037080806 -0.04634021 0.049608182
-0.1293123 -0.057788756 -0.20522836 0.11483307 0.04117776 -0.011664433 0.10379694 0.04822859
0.03571888 0.061897025 0.1921439 0.15936683 -0.057060704 0.1187178 -0.08091645 -0.14920902
-0.016030977 -0.11143448 0.12869485 -0.023299498 -0.11020609 -0.022411123 -0.060617965 -0.035627883
-0.07098034 -0.088449456 -0.058752473 0.087733045 -0.0075930245 0.042632323 0.08682457 0.096573815
0.04843263 -0.17091496 0.022328122 -0.08893229 -0.036890693 0.022249516 0.011098991 0.07401193
0.15268652 -0.15174285 -0.08642815 0.09963907 -0.15683444 0.033711933 -0.10520579 -0.08819218
0.09138805 -0.15826641 0.06743723 -0.02327839 -0.103853546 0.020993326 0.15785699 -0.0353609
-0.13394807 0.04145753 0.19723165 0.052755937 -0.020477831 0.0643085 0.15948407 -0.088765524
-0.09961314 -0.002839604 0.08520699 -0.12836003 0.064505056 0.042799454 -0.018234873 -0.1718242
-0.09460231 0.06336214 -0.13762589 -0.004234348 -0.07731531 -0.07456795 -0.14035998 -0.1032481
-0.16220562 0.13259904 -0.1172312 0.0017595997 0.06217193 0.04358979 0.07037105 0.04113439
0.20590752 0.06258562 -0.02984677 -0.008164779 0.031028586 0.022157632 0.05038108 -0.1623342
-0.2064098 0.037514914 -0.04136963 0.103441745 0.01963107 -0.12024586 -0.026146956 -0.12648885
0.031088818 0.111646704 -0.021346277 -0.17488629 -0.030433487 0.19736505 -0.023382233 -0.12636217
-0.18630672 -0.0755513 -0.21254767 -0.04519133 -0.16409676 -0.17102632 0.21868902 -0.050367836
-0.10899253 -0.06740401 -0.030451851 0.02743469 0.06921809 0.09044909 0.07546639 -0.028022332
-0.018566186 -0.0073568476 0.0406113 0.054879643 -0.09618544 -0.017304579 -0.076561034 0.13669305
0.14653668 -0.09897062 0.111545086 -0.065732405 0.030805947 -0.034069188 -0.08897472 0.030549163
0.14338039 0.041826073 -0.023254659 -0.084544286 0.0067229597 -0.034673475 -0.10697712 0.053888224
0.052815657 -0.0144705 -0.20628858 -0.1701564 -0.048857383 -0.025536148 -0.14596082 -0.15058273
-0.073646665 0.13858317 -0.019590314 -0.12668654 -0.16505405 -0.100257225 -0.08079641 0.18240061
-0.083365984 0.034304824 -0.020952575 -0.19060633 0.11489646 0.067549445 -0.11838478 0.012947436
-0.02169867 -0.18132243 0.101592064 -0.13232695 -0.12676778 0.034457225 -0.09492607 -0.05367443
0.034482203 0.029165028 0.042534072 -0.0753139 0.086527266 -0.07825806 -0.05012068 0.121458694
-0.15440002 -0.1578001 0.1575222 -0.022564238 0.16074751 0.012904546 0.04525638 0.050706062
00000000: cfb8 0dbc 5c23 f33d f2ca 22bc ffb2 87bd
00000010: 8763 2abd 96f7 9bbd 3445 363e f98b 57bd
00000020: f80a 813d 1637 89bd 4d84 b03d 9593 b1bd
00000030: b918 26bd e91d b93d c235 113d bf33 2c3e
00000040: ea1f e93c 51c9 013d ab43 d43c 7536 7e3d
00000050: 5283 32bd 22da 0bbe 8b0f c83c b420 e0bd
00000060: f9c0 7c3d 6a5e 97bd dccc 823d c845 c2bd
00000070: 4a79 d7bc c927 29be c7bd 593e f66c 573e
00000080: c04c 133e 5bff 1bbd 44d6 bc3d 91ab 1b3e
00000090: 29fb bc3d 2bfc 1dbe ae18 b83d a7d4 d1bd
000000a0: 956e 183d 9323 f3bd 57ce 3dbe 7d55 543e
000000b0: 4076 06bd f438 3dbe 8c3d eb3d a4c7 623d
000000c0: b91c e1bd 9807 3fbe 30cf b2bd e30e 863d
000000d0: c45c 293e 0be2 17bd 3bcf 3dbd f331 4b3d
000000e0: 726a 04be e7b3 6cbd 6227 52be 9a2d eb3d
000000f0: 03aa 283d 2e1c 3fbc 7d93 d43d 588b 453d
00000100: f64d 123d bc87 7d3d 5fc1 443e 0f31 233e
00000110: 7cb8 69bd 5122 f33d 86b7 a5bd 40ca 18be
00000120: 6553 83bc c337 e4bd 95c8 033e 97de bebc
00000130: bbb3 e1bd 8897 b7bc 8b4a 78bd 8bee 11bd
00000140: 245e 91bd fd24 b5bd 6fa6 70bd 62ad b33d
00000150: e8ce f8bb 3b9f 2e3d 15d1 b13d 7ec8 c53d
00000160: 4b61 463d 5504 2fbe 77e9 b63c 2222 b6bd
00000170: b21a 17bd 9e44 b63c 8bd8 353c 9193 973d
00000180: db59 1c3e 7a62 1bbe 3e01 b1bd 920f cc3d
00000190: 3599 20be 8615 0a3d 2276 d7bd 1a9e b4bd
000001a0: a829 bb3d 9710 22be 881c 8a3d 52b2 bebc
000001b0: 2bb1 d4bd 32fa ab3c 43a5 213e 97d6 10bd
000001c0: af29 09be 5fcf 293d 18f7 493e 9c16 583d
000001d0: 20c1 a7bc 2db4 833d cb4f 233e b3ca b5bd
000001e0: f901 ccbd a618 3abb 0181 ae3d d070 03be
000001f0: 3a1b 843d 7b4e 2f3d 4d61 95bc aff2 2fbe
00000200: dbbe c1bd 02c4 813d cded 0cbe 49c0 8abb
00000210: 7d57 9ebd 15b7 98bd 87ba 0fbe bd73 d3bd
00000220: 3b19 26be 0bc8 073e e916 f0bd 5ea2 e63a
00000230: fea7 7e3d 358b 323d b21e 903d 897c 283d
00000240: 6cd9 523e e42c 803d 3781 f4bc 91c5 05bc
00000250: a92f fe3c ec83 b53c 645c 4e3d f03a 26be
00000260: 175d 53be 3da9 193d 3373 29bd 44d9 d33d
00000270: 56d1 a03c 7643 f6bd 2432 d6bc 4b86 01be
00000280: faad fe3c 07a7 e43d 63de aebc 6415 33be
00000290: a64f f9bc 101a 4a3e 198c bfbc 1665 01be
000002a0: 30c7 3ebe a4ba 9abd 19a6 59be 8b1a 39bd
000002b0: fb08 28be 8621 2fbe 04f0 5f3e 814e 4ebd
000002c0: 7a37 dfbd 1d0b 8abd 2976 f9bc b7be e03c
000002d0: 37c2 8d3d 5f3d b93d 1f8e 9a3d 178f e5bc
000002e0: 1d18 98bc b611 f1bb 0958 263d 7ac9 603d
000002f0: dffc c4bd 55c2 8dbc 08cc 9cbd 43f9 0b3e
00000300: b60d 163e 1cb1 cabd c071 e43d b69e 86bd
00000310: c15c fc3c 228c 0bbd 6138 b6bd 3d42 fa3c
00000320: 4fd2 123e d151 2b3d 8e80 bebc 8e25 adbd
00000330: 464c dc3b c605 0ebd d216 dbbd e6b9 5c3d
00000340: 3b55 583d ad15 6dbc 503d 53be 7b3d 2ebe
00000350: ae1e 48bd 2f31 d1bc c176 15be 5c32 1abe
00000360: 10d4 96bd bfe8 0d3e de7b a0bc 1eba 01be
00000370: ee03 29be a953 cdbd 9778 a5bd 3ac7 3a3e
00000380: c9bb aabd 3783 0c3d bca4 abbc 4e2e 43be
00000390: d64e eb3d 5d57 8a3d b873 f2bd 7c21 543c
000003a0: 69c1 b1bc 96ac 39be 800f d03d b780 07be
000003b0: 6acf 01be 0523 0d3d 9968 c2bd b8d9 5bbd
000003c0: 363d 0d3d 7feb ee3c 3538 2e3d 2d3e 9abd
000003d0: 3535 b13d c345 a0bd 584b 4dbd 56bf f83d
000003e0: 0a1b 1ebe 5996 21be 804d 213e a3d8 b8bc
000003f0: ff9a 243e 976d 533c c15e 393d 29b1 4f3d

recurrent_blocks.1.bias_ih_l0 f4 [128]
-0.082108825 0.040039074 -0.050471846 0.1356537 -0.0020539376 0.03366671 -0.09052514 -0.1231477
0.059440132 0.14921641 -0.15579014 0.0070006107 -0.1208029 -0.10272367 -0.10445945 0.03594758
-0.018789208 -0.027744608 0.040946398 -0.21174537 -0.17590934 -0.12225329 0.04969821 -0.040717132
0.053876333 0.08383371 0.13329035 0.09405998 0.15309052 0.011003284 -0.0922523 -0.14752705
-0.13156247 -0.06388305 -0.11150882 0.07706618 0.075357966 -0.049267285 0.0975689 0.057189953
0.14115587 -0.040003262 -0.08600446 -0.12671383 -0.09000673 -0.09855021 -0.08131983 0.08442143
0.050246358 -0.119994156 0.030624019 -0.10088685 -0.017578254 -0.07624946 0.022734467 0.07623445
-0.10149197 0.0093264235 0.1192553 -0.12355956 0.07679006 0.0094815185 0.08913335 0.013684044
-0.09965878 -0.028641185 -0.045045245 -0.025478587 0.13649324 -0.0838101 0.08232176 -0.1036696
-0.010196905 0.13895391 -0.014757271 -0.0558296 -0.14522885 0.096068874 -0.11977557 -0.034007363
-0.097276025 0.0945051 0.064711906 -0.122319065 -0.11315786 0.0665556 0.0029060193 0.09847319
0.08875264 -0.15392494 -0.051986855 0.12142416 -0.14532362 -0.07945551 0.06510751 -0.043194577
-0.03775666 0.042885713 -0.15072007 -0.11989312 -0.046626516 -0.099483594 -0.119363956 -0.091346085
-0.06847071 0.08184071 -0.1560198 -0.14704214 -0.040964533 -0.14635266 -0.0019872645 -0.08814046
0.02754379 0.088854715 -0.20740058 0.107056946 0.090883054 -0.17744502 0.016988024 0.071213216
0.16448118 0.10316189 -0.1698936 0.062278405 -0.1413463 0.13300586 -0.10195446 0.027638698
00000000: ac28 a8bd 0300 243d 91bb 4ebd cee8 0a3e
00000010: 5b9b 06bb 1be6 093d 3f65 b9bd dd34 fcbd
00000020: 7f77 733d 30cc 183e 7387 1fbe 6165 e53b
00000030: 8367 f7bd ca60 d2bd d6ee d5bd c53d 133d
00000040: d3eb 99bc a948 e3bc 69b7 273d c7d3 58be
00000050: 9421 34be ef5f fabd 5a90 4b3d 02c7 26bd
00000060: 6ead 5c3d 02b1 ab3d 447d 083e 85a2 c03d
00000070: c3c3 1c3e 1e47 343c c6ee bcbd 5511 17be
00000080: 50b8 06be 1ed5 82bd bc5e e4bd e0d4 9d3d
00000090: 4755 9a3d 7ecc 49bd 34d2 c73d 0340 6a3d
000000a0: 2a8b 103e 76da 23bd 1b23 b0bd 45c1 01be
000000b0: 7355 b8bd b1d4 c9bd 038b a6bd 25e5 ac3d
000000c0: 20cf 4d3d 7fbf f5bd 39df fa3c c49d cebd
000000d0: 4500 90bc ad28 9cbd a23d ba3c cf20 9c3d
000000e0: 06db cfbd dbcd 183c 1f3c f43d cb0c fdbd
000000f0: 1b44 9d3d 5f58 1b3c 8c8b b63d 0a33 603c
00000100: e719 ccbd eba0 eabc 5d81 38bd 78b8 d0bc
00000110: e2c4 0b3e a1a4 abbd 5098 a83d ba50 d4bd
00000120: eb10 27bc ef49 0e3e 7bc8 71bc 94ad 64bd
00000130: dfb6 14be c2bf c43d e54c f5bd 4e4b 0bbd
00000140: a738 c7bd e48b c13d ad87 843d 6b82 fabd
00000150: 4fbf e7bd 4d4e 883d ea72 3e3b 50ac c93d
00000160: f2c3 b53d 809e 1dbe 2bf0 54bd 3bad f83d
00000170: b7cf 14be 92b9 a2bd 1657 853d ccec 30bd
00000180: baa6 1abd eea8 2f3d 5d56 1abe 868a f5bd
00000190: 72fb 3ebd 0ebe cbbd 1775 f4bd a813 bbbd
000001a0: 5f3a 8cbd 1a9c a73d a8c3 1fbe 3792 16be
000001b0: 6dca 27bd 79dd 15be c43c 02bb fc82 b4bd
000001c0: 84a3 e13c 76f9 b53d d160 54be ac40 db3d
000001d0: e520 ba3d 26b4 35be 782a 8b3c 3cd8 913d
000001e0: c16d 283e 8a46 d33d 96f8 2dbe a417 7f3d
000001f0: 16bd 10be b032 083e 80cd d0bd 8d6a e23c

recurrent_blocks.1.bias_hh_l0 f4 [128]
-0.04238058 -0.1555417 0.061321862 0.004454064 0.056719165 -0.14489414 0.078493096 -0.107167244
0.0928466 -0.055823684 -0.0027414039 -0.09897841 0.083768085 0.07369576 0.026325712 -0.058654055
-0.027384765 0.10225858 -0.15616532 -0.04314646 0.09872544 0.03387304 -0.1232093 0.021382794
0.059886724 -0.16198611 -0.16083449 0.06364939 0.13645338 0.039985802 -0.20663467 0.019100934
0.1593125 0.010923502 0.071349725 -0.099082634 -0.09937655 -0.060365673 -0.15341918 0.08460996
-0.054242626 -0.1606891 -0.10972554 0.122252576 -0.21837936 0.062293507 0.011617608 0.06011073
0.026814692 -0.10325669 -0.23444454 -0.06501429 0.10481768 -0.110557415 0.016566055 -0.03696484
-0.14821307 0.00082676957 0.0483999 0.102600455 0.08708017 -0.019893358 -0.18393847 -0.0019019073
-0.16532473 -0.010029413 -0.09417098 0.12039262 0.09702703 -0.049092736 -0.15751734 0.08900879
0.040892087 -0.105497815 0.14365982 0.1494991 -0.0008426856 -0.053935982 -0.12437667 -0.07727728
-0.10724205 0.16219273 0.038866 0.10436024 -0.0025218637 0.13667242 0.06938222 -0.080573365
0.115262695 0.026247328 0.012843615 -0.1426694 -0.13022286 0.06266189 -0.03224689 0.048436526
-0.0008719064 0.035392188 -0.041922502 0.12852187 0.11612789 -0.2001359 0.03874529 -0.16105488
-0.07901406 0.010366528 0.0004988832 -0.13034931 -0.09592488 -0.012077804 -0.009199308 -0.008114877
0.057893526 0.026045043 -0.095111 -0.04459734 -0.1847949 -0.10447111 -0.16823211 0.12825043
-0.06314387 -0.04411994 0.025710355 -0.17102605 -0.075142115 -0.08434739 -0.053347643 -0.006299912
00000000: 4297 2dbd 5346 1fbe a22c 7b3d 66f3 913b
00000010: 5b52 683d 215f 14be fdc0 a03d 807a dbbd
00000020: 5c26 be3d 60a7 64bd 20a9 33bb 31b5 cabd
00000030: 9a8e ab3d cded 963d 05a9 d73c 3c3f 70bd
00000040: 0456 e0bc f26c d13d cde9 1fbe 58ba 30bd
00000050: 9030 ca3d 75be 0a3d 2855 fcbd f82a af3c
00000060: c84b 753d b0df 25be ccb1 24be 9d5a 823d
00000070: 6fba 0b3e 27c8 233d 0a98 53be 9079 9c3c
00000080: d122 233e 7df8 323c ce1f 923d d6eb cabd
00000090: ef85 cbbd ff41 77bd eb19 1dbe fd47 ad3d
000000a0: 842d 5ebd af8b 24be c9b7 e0bd 8f5f fa3d
000000b0: d79e 5fbe 7a27 7f3d c857 3e3c ab36 763d
000000c0: 7caa db3c 3e78 d3bd 3b12 70be 3626 85bd
000000d0: a7aa d63d ed6b e2bd 89b5 873c 7268 17bd
000000e0: 2bc5 17be 91bb 583a f93e 463d 3020 d23d
000000f0: 1757 b23d 65f7 a2bc 5e5a 3cbe 6b49 f9ba
00000100: e34a 29be 6852 24bc b7dc c0bd 6890 f63d
00000110: 1cb6 c63d 7715 49bd 3a4c 21be 3e4a b63d
00000120: 767e 273d 3d0f d8bd 8f1b 133e 4b16 193e
00000130: ace7 5cba faeb 5cbd 32b9 febd 8d43 9ebd
00000140: b8a1 dbbd da15 263e f431 1f3d d2ba d53d
00000150: da45 25bb dbf3 0b3e 4418 8e3d a603 a5bd
00000160: d90e ec3d a304 d73c 076e 523c ed17 12be
00000170: 2459 05be e154 803d 5115 04bd 6165 463d
00000180: a690 64ba 66f7 103d eeb6 2bbd 3d9b 033e
00000190: 76d4 ed3d 6df0 4cbe 62b3 1e3d 92eb 24be
000001a0: 20d2 a1bd 5fd8 293c 7cc7 023a 4a7a 05be
000001b0: 4374 c4bd fbe1 45bc b2b8 16bc 43f4 04bc
000001c0: c321 6d3d 6a5c d53c 8ec9 c2bd b3ab 36bd
000001d0: e03a 3dbe f3f4 d5bd 0a45 2cbe 1554 033e
000001e0: 9351 81bd 1cb7 34bd 869e d23c 7421 2fbe
000001f0: 1ce4 99bd 53be acbd 0f83 5abd 7e6f cebb

recurrent_blocks.2.weight_ih_l0 f4 [128, 32]
-0.0693942 -0.046519358 -0.11188991 0.19971375 0.14694816 0.14231539 0.002006403 -0.03196676
0.10541358 -0.11724808 0.11969217 -0.08311341 -0.1133715 0.0600603 -0.16360283 -0.16423102
0.0046125026 0.07429011 0.0018818483 0.094459645 -0.057373703 0.13026205 0.011753395 0.044662315
-0.11696972 0.11056718 0.03582322 0.108770706 -0.018815601 -0.1825795 0.07008328 -0.060778964
-0.045959454 0.043022826 0.14695811 0.10714866 -0.07215782 0.0666488 0.13136756 0.039323177
0.14514685 -0.13425666 -0.019199107 0.039527167 -0.12877445 -0.13919672 -0.11800949 -0.011630965
-0.15834548 0.14848663 -0.08154559 -0.15647225 -0.06938465 0.07688448 -0.12885597 -0.1446311
0.086326025 0.16925901 -0.19064981 0.0010468694 -0.02973155 -0.11894694 0.13137917 -0.1215038
-0.08510798 0.08453078 0.03216672 0.07971452 0.12158308 0.05886552 0.0452175 0.039504144
-0.047270853 -0.063715704 0.1253509 -0.074379355 -0.08719959 -0.03757964 0.123140775 0.20295773
-0.07441855 -0.1547626 0.04115788 0.08626275 -0.09407411 -0.0286524 -0.12950602 -0.11687109
-0.088910125 0.06406634 0.01333119 -0.03007341 0.17576756 -0.1483168 -0.14486949 0.08889018
0.17347406 0.086319014 0.13592856 0.105601944 -0.16946658 -0.09369656 -0.1888453 0.1895892
0.15291452 -0.12298549 -0.15054022 0.20427282 0.023029342 -0.17084236 0.0026221292 0.22694758
0.017139902 0.030584516 -0.17603855 -0.057385765 0.0930869 0.075549714 0.05031352 -0.07072586
0.10737411 -0.08079446 -0.15116091 0.07838763 0.004769695 0.04477797 -0.12813464 -0.03744373
0.1310533 -0.17740372 -0.06517096 -0.14887463 0.056929406 -0.06270784 -0.0056919362 -0.011408089
-0.19819388 -0.20643069 -0.03582117 -0.119362816 0.028827786 0.08926224 0.18074535 -0.11459502
-0.22111693 -0.12566638 0.1109759 -0.011021045 -0.12714255 -0.00047711018 0.120369725 -0.03510658
0.10351962 0.120463215 0.008996593 0.12310099 -0.035871826 -0.20654343 0.15673842 -0.16570902
0.039196797 0.08963501 0.0590012 0.16887861 0.18756859 0.04027012 -0.18973479 -0.053419124
-0.18632466 -0.0070890505 -0.16260383 0.020830857 0.03629798 0.1516458 -0.12138553 -0.01401914
0.16133818 -0.1600167 -0.16118322 -0.002619477 -0.09751742 0.1531314 -0.065350994 -0.051794242
-0.003041867 0.093505695 0.09689564 0.15365048 -0.07340081 -0.15715303 -0.016042935 -0.08951839
-0.16845444 -0.15151833 0.10081287 -0.052470025 0.13989432 -0.13280632 -0.012754205 -0.07922167
0.15543073 0.18270606 0.1600043 0.015289745 -0.021195307 -0.12524138 -0.06427615 -0.06458895
0.060757864 -0.08113274 -0.071313985 -0.0090274075 -0.0035965072 0.00078502833 0.1196736 -0.041591544
0.011236304 0.09856451 -0.11438953 -0.12153765 -0.1365301 0.05032713 -0.15324512 -0.09597622
0.1287965 0.047077075 0.088717885 0.060373932 0.1259352 0.16685744 -0.020624338 0.062158547
-0.16469604 -0.017406622 0.09027876 0.17962523 -0.0075030397 -0.029686466 0.15722093 0.0458495
0.073620155 0.089760765 -0.108726345 -0.17616309 -0.054906376 0.15238553 -0.03858771 -0.14086576
0.15497856 0.15081023 0.10569052 0.049259055 -0.043628223 -0.0893002 0.24026921 -0.21416439
00000000: 8c1e 8ebd 158b 3ebd 8a26 e5bd c381 4c3e
00000010: 9479 163e 20bb 113e db7d 033b 94ef 02bd
00000020: 13e3 d73d c31f f0bd 2b21 f53d 5d37 aabd
00000030: 512f e8bd ca01 763d 8087 27be 2d2c 28be
00000040: 7a24 973b 6a25 983d 5aa8 f63a 0f74 c13d
00000050: b000 6bbd 6a63 053e 5091 403c d5ef 363d
00000060: d28d efbd 0c71 e23d 5ebb 123d 2dc3 de3d
00000070: 2d23 9abc 1ff6 3abe d387 8f3d 5df3 78bd
00000080: fb3f 3cbd b438 303d 307c 163e c270 db3d
00000090: 7bc7 93bd 2b7f 883d 3885 063e 5711 213d
000000a0: 60a1 143e 947a 09be 7247 9dbc 3de7 213d
000000b0: 73dd 03be 9689 0ebe f6ae f1bd ce8f 3ebc
000000c0: 5125 22be e10c 183e 6001 a7bd 433a 20be
000000d0: 8a19 8ebd 9c75 9d3d d2f2 03be 2d1a 14be
000000e0: b3cb b03d 3c52 2d3e b439 43be 1c37 893a
000000f0: 948f f3bc 749a f3bd 4388 063e fcd6 f8bd
00000100: 184d aebd 791e ad3d 40c1 033d 5e41 a33d
00000110: 8d00 f93d f91c 713d fc35 393d 19cf 213d
00000120: 159f 41bd 617d 82bd fd5b 003e 3454 98bd
00000130: b395 b2bd 1ced 19bd 3b31 fc3d 27d4 4f3e
00000140: c168 98bd 167a 1ebe 2a95 283d 86aa b03d
00000150: eda9 c0bd 70b8 eabc 3a9d 04be 1c5a efbd
00000160: 8316 b6bd 3735 833d 106b 5a3c 835c f6bc
00000170: 69fc 333e 5ce0 17be ab58 14be 0e0c b63d
00000180: 2fa3 313e 06c8 b03d db30 0b3e d545 d83d
00000190: a688 2dbe fbe3 bfbd aa60 41be ac23 423e
000001a0: a095 1c3e d1df fbbd 3727 1abe e52c 513e
000001b0: 08a8 bc3c 4df1 2ebe 07d8 2b3b f264 683e
000001c0: fb68 8c3c 618c fa3c 7343 34be 560d 6bbd
000001d0: 58a4 be3d cfb9 9a3d 8d15 4e3d b8d8 90bd
000001e0: f5e6 db3d 9177 a5bd edc9 1abe b289 a03d
000001f0: 1a4b 9c3b 1b69 373d ba35 03be 995e 19bd
00000200: d632 063e 52a9 35be 5a78 85bd 9772 18be
00000210: cf2e 693d f86c 80bd 6c83 babb fee8 3abc
00000220: 56f3 4abe 9162 53be 38b9 12bd 7e74 f4bd
00000230: 4028 ec3c 1fcf b63d 4f15 393e cbb0 eabd
00000240: 7a6c 62be b0ae 00be 5547 e33d 9d91 34bc
00000250: a831 02be a524 fab9 6784 f63d ebcb 0fbd
00000260: 1802 d43d 6bb5 f63d 7266 133c 5f1c fc3d
00000270: 56ee 12bd 1f80 53be 0980 203e a0af 29be
00000280: d28c 203d 8f92 b73d 3eab 713d 84ee 2c3e
00000290: fb11 403e 48f2 243d d649 42be 03ce 5abd
000002a0: e4cb 3ebe 444b e8bb 9e81 26be 79a5 aa3c
000002b0: 31ad 143d 0949 1b3e fa98 f8bd 89b0 65bc
000002c0: d635 253e 6bdb 23be 370d 25be 88ab 2bbb
000002d0: 37b7 c7bd 7ace 1c3e bed6 85bd 3326 54bd
000002e0: 0f5a 47bb ea7f bf3d 3971 c63d 8d56 1d3e
000002f0: 2a53 96bd b9ec 20be 796c 83bc 6b55 b7bd
00000300: 527f 2cbe 9f27 1bbe fa76 ce3d cfea 56bd
00000310: 7540 0f3e 61fe 07be 03f7 50bc f93e a2bd
00000320: 3c29 1f3e 4c17 3b3e 2bd8 233e d781 7a3c
00000330: c8a1 adbc 473f 00be 37a3 83bd 3647 84bd
00000340: 3ddd 783d ec28 a6bd 110d 92bd b1e7 13bc
00000350: 61b3 6bbb 5cca 4d3a 6f17 f53d e55b 2abd
00000360: 7a18 383c 31dc c93d 0f45 eabd bbe8 f8bd
00000370: 8cce 0bbe d223 4e3d 4aec 1cbe 2e8f c4bd
00000380: 3be3 033e e4d3 403d b9b1 b53d a84a 773d
00000390: 28f5 003e addc 2a3e 5ff4 a8bc f699 7e3d
000003a0: 14a6 28be 5598 8ebc 12e4 b83d adef 373e
000003b0: 0fdc f5bb 0831 f3bc 86fe 203e afcc 3b3d
000003c0: 2ac6 963d 7ed4 b73d ebab debd 1964 34be
000003d0: 82e5 60bd f40a 1c3e 260e 1ebd 1d3f 10be
000003e0: b3b2 1e3e ff6d 1a3e 4574 d83d ddc3 493d
000003f0: 82b3 32bd 06e3 b6bd 2209 763e e94d 5bbe

recurrent_blocks.2.weight_hh_l0 f4 [128, 32]
0.05892607 0.010077853 0.010272198 -0.099357866 0.040310763 0.018487748 0.007556327 -0.11595739
0.032438125 -0.1383093 -0.1364104 0.08630356 0.04808648 0.0016436913 0.13228558 -0.050697353
-0.13728476 -0.06887951 -0.05535057 -0.08015912 0.1504491 -0.06659345 -0.07167726 -0.09199082
-0.02483796 0.0012600728 -0.14466107 -0.010035835 0.063003786 0.10254483 -0.095756374 0.0388358
0.043239456 0.12283089 -0.0075922795 0.191012 -0.14510691 0.054467205 0.08862037 -0.016512282
0.09347982 0.150206 0.12971595 0.022579478 -0.059729572 0.15833184 -0.01955281 0.022380034
-0.12156001 0.06535999 -0.15697339 -0.019456174 -0.018711751 -0.044628657 -0.040860288 -0.049236998
-0.12935327 0.10675623 -0.04594928 -0.021194775 0.016153214 0.041116506 -0.106600665 -0.09239936
0.16551302 0.14413685 0.09243797 0.2048028 -0.14179316 -0.09792207 -0.15746573 -0.15896206
-0.16898836 0.019720672 0.09728753 -0.08132305 -0.20225962 0.047722053 0.006566785 -0.074232064
0.20231622 -0.19661589 -0.053580813 0.1579957 0.08515183 -0.03354404 0.10324208 -0.08694967
0.08773279 0.025267059 -0.012259269 -0.18389498 -0.039143473 0.10005039 -0.07860473 0.15471712
0.12028964 0.13704157 -0.07395078 0.14901398 0.05538163 0.14939421 -0.16488443 0.06578078
0.13900018 -0.10075245 0.21046275 -0.054608736 0.023647495 0.088508666 0.04491911 -0.012861061
0.04109226 0.021422626 -0.112997934 0.067099005 -0.021320403 -0.0037712753 0.11632502 0.14778373
-0.06472314 0.07472673 0.10209458 -0.050893042 0.13483925 -0.08339408 -0.08894993 -0.11381368
-0.05131696 0.22815052 0.092139445 -0.05860572 -0.0037656308 -0.157005 -0.051726013 -0.026151754
-0.21689896 -0.1968338 -0.0391145 0.13865094 -0.14462724 -0.0623526 -0.034568403 0.19369343
-0.01725935 -0.122967266 0.11533435 0.11791498 0.15751228 -0.050439175 0.17517106 -0.016879167
-0.18516277 -0.014234631 0.013776868 -0.08555814 0.015738301 -0.07306259 0.112942114 -0.06737047
0.01088425 0.16380902 0.050904665 0.03917439 -0.0041486504 -0.07145812 0.12576778 0.037517462
-0.078777194 -0.028274555 0.06823186 0.07203679 -0.13056251 -0.037542623 0.061641842 -0.108200274
-0.077530146 -0.10283376 0.008271512 -0.15410241 -0.14827113 0.17176338 0.05188406 -0.07609701
-0.014884206 -0.13592385 -0.18928644 -0.0154085895 0.025864968 -0.2108444 -0.034802776 -0.027184438
-0.07758142 0.1386797 -0.09081167 -0.101913854 -0.15352267 0.077931195 -0.06253888 0.12409753
0.143501 0.10326161 -0.15106827 -0.058580138 0.1588964 0.1028519 0.029295208 -0.14366232
-0.054186806 0.023297006 0.15341255 -0.0048624435 -0.14055978 -0.12667134 0.0662737 -0.088834055
0.0031420332 0.07119561 0.09723905 -0.06957048 -0.0782537 -0.044201355 0.011212217 -0.06966386
0.15243553 -0.15616736 0.10507935 0.030068878 0.10215178 -0.10255414 -0.07213851 -0.06064125
-0.090139456 -0.19184616 0.00610392 0.120483965 -0.018613249 -0.15639554 -0.10874945 0.12742731
-0.035681203 0.0855112 -0.019029062 -0.03405856 -0.07307826 0.020228475 0.041117493 0.10259867
0.029654508 0.10788198 -0.19587925 -0.02487714 -0.02279515 -0.23172995 0.09340843 -0.02468021
00000000: 765c 713d 941d 253c b94c 283c 237c cbbd
00000010: e61c 253d 9e73 973c 119b f73b 117b edbd
00000020: d7dd 043d f4a0 0dbe 2baf 0bbe ecbf b03d
00000030: 54f6 443d 2171 d73a df75 073e 07a8 4fbd
00000040: 6094 0cbe b310 8dbd 47b7 62bd 772a a4bd
00000050: 540f 1a3e 2662 88bd 87cb 92bd af65 bcbd
00000060: fa78 cbbc 0729 a53a 0822 14be 586d 24bc
00000070: 2108 813d 0603 d23d eb1b c4bd 4a12 1f3d
00000080: db1b 313d c38e fb3d a8c8 f8bb a698 433e
00000090: e896 14be 0119 5f3d 997e b53d c444 87bc
000000a0: 5972 bf3d 9acf 193e 42d4 043e 99f8 b83c
000000b0: ffa6 74bd be21 223e 372d a0bc 5556 b73c
000000c0: 74f4 f8bd 75db 853d a2bd 20be 8e62 9fbc
000000d0: 6349 99bc 8acc 36bd 1e5d 27bd bcac 49bd
000000e0: 2f75 04be 03a3 da3d 5035 3cbd aaa0 adbc
000000f0: bf53 843c c869 283d 7351 dabd e03b bdbd
00000100: 3f7c 293e 9c98 133e 1e50 bd3d d3b7 513e
00000110: 3a32 11be 5e8b c8bd b23e 21be f3c6 22be
00000120: 490b 2dbe 3f8d a13c af3e c73d b38c a6bd
00000130: 251d 4fbe 3378 433d 2f2e d73b fb06 98bd
00000140: fc2b 4f3e ad55 49be 8e77 5bbd a0c9 213e
00000150: 1564 ae3d 7a65 09bd 9570 d33d ab12 b2bd
00000160: 40ad b33d ddfc ce3c 1adb 48bc f74e 3cbe
00000170: e854 20bd 38e7 cc3d 84fb a0bd 2a6e 1e3e
00000180: 6a5a f63d a054 0c3e 8273 97bd 1f97 183e
00000190: d9d7 623d ccfa 183e 77d7 28be 13b8 863d
000001a0: 1056 0e3e 4d57 cebd 8c83 573e 69ad 5fbd
000001b0: 64b8 c13c 0844 b53d 1afd 373d 33b7 52bc
000001c0: 5c50 283d 817e af3c 766b e7bd 346b 893d
000001d0: 20a8 aebc 8027 77bb d03b ee3d 9e54 173e
000001e0: 918d 84bd 540a 993d f716 d13d 3975 50bd
000001f0: 4d13 0a3e 84ca aabd 622b b6bd 2617 e9bd
00000200: bc31 52bd 4aa0 693e 9bb3 bc3d 8d0c 70bd
00000210: cdc8 76bb ebc5 20be a8de 53bd 343c d6bc
00000220: c31a 5ebe cd8e 49be 8736 20bd 83fa 0d3e
00000230: 2a19 14be 7165 7fbd 9997 0dbd 9257 463e
00000240: 7b63 8dbc 43d6 fbbd 6a34 ec3d 697d f13d
00000250: e64a 213e 4f99 4ebd 0b60 333e 2e46 8abc
00000260: 4f9b 3dbe 5f38 69bc 5fb8 613c 1b39 afbd
00000270: 9ced 803c d7a1 95bd 324e e73d 87f9 89bd
00000280: da53 323c 8dbd 273e 6981 503d 5375 203d
00000290: 67f1 87bb a358 92bd 45c9 003e e9ab 193d
000002a0: f055 a1bd 0aa0 e7bc 25bd 8b3d 0688 933d
000002b0: 2eb2 05be 4bc6 19bd 287c 7c3d 1b98 ddbd
000002c0: 20c8 9ebd 829a d2bd 3c85 073c 06cd 1dbe
000002d0: 63d4 17be bde2 2f3e 6184 543d c0d8 9bbd
000002e0: e2dc 73bc 9f2f 0bbe 4ed4 41be 4f74 7cbc
000002f0: c5e2 d33c 98e7 57be 5b8d 0ebd e6b1 debc
00000300: 02e3 9ebd 0d02 0e3e 78fb b9bd 36b8 d0bd
00000310: 0c35 1dbe 649a 9f3d 6214 80bd d926 fe3d
00000320: edf1 123e d37a d33d a4b1 1abe baf1 6fbd
00000330: bdb5 223e 04a4 d23d 81fc ef3c 371c 13be
00000340: fcf2 5dbd 5dd9 be3c 2e18 1d3e 2255 9fbb
00000350: e7ee 0fbe 22b6 01be 81ba 873d a1ee b5bd
00000360: 92ea 4d3b 01cf 913d 4425 c73d f87a 8ebd
00000370: 7a43 a0bd 7b0c 35bd 72b3 373c edab 8ebd
00000380: 0f18 1c3e 56ea 1fbe d833 d73d 0253 f63c
00000390: f434 d13d e807 d2bd 5bbd 93bd f662 78bd
000003a0: 099b b8bd 5273 44be 6403 c83b 4cc0 f63d
000003b0: d07a 98bc 2726 20be 08b8 debd 4e7c 023e
000003c0: 7426 12bd 7f20 af3d d6e2 9bbc fd80 0bbd
000003d0: 0eaa 95bd 30b6 a53c d16a 283d 401f d23d
000003e0: 03ee f23c 3af1 dc3d 9294 48be 25cb cbbc
000003f0: e5bc babc 9e4a 6dbe eb4c bf3d 272e cabc
